Cleaned LIAR/TunedModels/bert/bert-base-cased/NNetwork6WayClass/4885.pth (torch_old, 3774 bytes, 6 tensors)

fc1.weight f4 [24, 12]
-4.485495 -1.879415 1.6877407 -0.29077855 0.9401937 -3.169819 -0.15687874 0.3785629
0.2567655 -0.22499165 0.36962822 -0.21438903 -5.198684 -1.842058 2.9880917 -0.50116795
-0.03488806 0.8374868 0.052927777 0.14948985 0.18102983 -0.25825933 0.30459228 0.26250872
5.1119843 5.8190536 5.735774 5.8641386 3.777953 6.7718287 -0.06437696 0.23653872
-0.10241764 -0.08847086 0.32811803 -0.36446667 4.847641 4.5159235 4.655139 -3.3584726
6.6398635 5.7664466 -0.07699929 0.15740317 -0.48168793 0.17317714 -0.43647915 -0.15502223
5.6746683 5.47948 5.4910808 3.9680324 3.5848057 4.496122 0.08133351 -0.045219257
0.24536632 -0.08067769 0.093644716 0.21795519 3.2435207 -5.219057 -3.7880337 2.2571242
-4.709744 -6.044704 0.05607847 -0.059036296 -0.09998458 -0.2525378 0.058801424 -0.11392613
-0.12773116 -3.3814902 4.694586 2.2953029 -2.5688672 -3.5814855 0.062079605 -0.26509362
0.14843398 0.28544414 0.07682884 -0.22128274 3.033382 2.3860145 -4.3044605 0.108750485
-3.1745918 -3.18795 0.19579627 0.5148798 0.20474494 -0.27218115 0.17551215 0.08821147
5.5309877 1.7360415 -1.7308478 -0.7516462 0.7841227 -1.0529307 0.14696983 -0.21030924
0.5386651 -0.20809236 0.32711506 0.19373651 3.7686272 -3.302635 -0.8546868 6.399487
5.9074564 6.8591547 0.02205451 0.04656159 -0.19404495 -0.040306337 -0.06801532 -0.16263586
-2.7650974 0.43115792 -2.2188835 2.4895747 -3.0028067 2.3771305 0.037129007 -0.2860018
0.2568104 0.27220082 -0.40076667 0.3862718 -1.0665197 -1.9075747 2.8653345 1.1741453
-0.8045335 -1.5251269 0.0072261547 -0.15747379 0.18371396 -0.35855928 -0.043015204 -0.17391331
-2.1045847 -1.5293127 3.6382504 -1.7560184 4.088341 0.77037686 0.22774465 -0.06491994
0.1707576 0.07382615 0.3767772 0.17573565 2.6360996 2.4861076 0.686177 0.6451325
5.126768 -4.126965 -0.14283305 -0.51890767 -0.647808 -0.10224694 0.09915975 -0.5751073
1.8496729 2.524558 -0.72250617 -0.009184597 -1.5086222 -3.6668372 0.12169984 0.2546423
-0.4415838 0.21127851 0.32202697 -0.24410754 4.5329704 6.5074906 6.248389 5.763212
1.0873619 3.7970273 0.092899285 -0.054140795 0.043180354 -0.36629325 0.18347324 -0.11131571
-3.0279176 -0.56800634 -0.3142007 1.8567482 1.760277 1.2546217 -0.007923387 0.86050665
-0.34963495 0.14796567 0.08617203 0.16498803 -3.9904008 3.03695 -4.1004286 -1.6263566
2.8537924 1.4119209 0.06316998 -0.1887557 0.27288744 -0.059987567 0.31358945 -0.31045464
3.5813708 0.4041173 2.5808208 -2.242729 0.9958915 1.4023154 0.08233682 0.05992722
0.2539471 -0.014622113 0.3729294 -0.18654217 3.3166149 -0.37619796 -4.2298517 1.8923063
-1.3725446 2.33268 0.037057042 -0.1711111 -0.046064436 0.08005772 0.24756573 0.032883417
1.1513143 1.2544254 -0.07280696 -1.0708003 0.71086615 0.31261826 0.12592147 0.5029733
-0.20897433 -0.41167712 -0.11435251 -0.07809636 0.01188317 4.331121 0.16348189 5.3210816
00000000: 2d89 8fc0 ac90 f0bf e307 d83f ede0 94be
00000010: 89b0 703f 51de 4ac0 d2a4 20be ffd2 c13e
00000020: c576 833e 3664 66be e93f bd3e cc88 5bbe
00000030: 9f5b a6c0 8ec8 ebbf e53c 3f40 8b4c 00bf
00000040: c8e6 0ebd 8965 563f ccca 583d de13 193e
00000050: e25f 393e 913a 84be 85f3 9b3e 8b67 863e
00000060: 6095 a340 b035 ba40 768b b740 06a7 bb40
00000070: fbc9 7140 d2b2 d840 11d8 83bd 3537 723e
00000080: 57c0 d1bd 3630 b5bd 16ff a73e 609b babe
00000090: e01f 9b40 7282 9040 e6f6 9440 37f1 56c0
000000a0: c379 d440 bb86 b840 ceb1 9dbd 4c2e 213e
000000b0: cd9f f6be 5955 313e 327a dfbe 26be 1ebe
000000c0: e296 b540 e657 af40 efb6 af40 3ef4 7d40
000000d0: 756d 6540 3be0 8f40 2f92 a63d d437 39bd
000000e0: 4f41 7b3e 583a a5bd cdc8 bf3d a52f 5f3e
000000f0: d895 4f40 8402 a7c0 256f 72c0 b974 1040
00000100: 39b6 96c0 376e c1c0 8ab2 653d 0bd0 71bd
00000110: b7c4 ccbd a24c 81be c3d9 703d 1a52 e9bd
00000120: f5cb 02be 566a 58c0 0c3a 9640 3ee6 1240
00000130: 5268 24c0 0f37 65c0 2f47 7e3d 5aba 87be
00000140: 14ff 173e bc25 923e 7058 9d3d f197 62be
00000150: ee22 4240 76b4 1840 24be 89c0 93b8 de3d
00000160: 832c 4bc0 5f07 4cc0 d17e 483e 2acf 033f
00000170: a8a8 513e 545b 8bbe 75b9 333e 37a8 b43d
00000180: dafd b040 9c36 de3f 6c8c ddbf e36b 40bf
00000190: 44bc 483f 6fc6 86bf 427f 163e 4e5b 57be
000001a0: f5e5 093f 2a16 55be a07b a73e dd62 463e
000001b0: 3031 7140 5f5e 53c0 c1cc 5abf 99c8 cc40
000001c0: e209 bd40 327e db40 a9ab b43c 5eb7 3e3d
000001d0: b8b3 46be 4218 25bd 9e4b 8bbd 048a 26be
000001e0: 5bf7 30c0 bbc0 dc3e 3002 0ec0 3155 1f40
000001f0: fc2d 40c0 e822 1840 9614 183d d46e 92be
00000200: a77c 833e e85d 8b3e 4a31 cdbe 6bc5 c53e
00000210: b883 88bf 682b f4bf a461 3740 654a 963f
00000220: e8f5 4dbf 5c37 c3bf 61c9 ec3b cf40 21be
00000230: 831f 3c3e 1595 b7be b630 30bd 5516 32be
00000240: 84b1 06c0 85c0 c3bf 18d9 6840 36c5 e0bf
00000250: b1d3 8240 6b37 453f e535 693e bff4 84bd
00000260: 15db 2e3e 2a32 973d f1e8 c03e 0cf4 333e
00000270: dbb5 2840 631c 1f40 4ca9 2f3f 6727 253f
00000280: 7c0e a440 1910 84c0 d442 12be 22d7 04bf
00000290: bfd6 25bf d866 d1bd 4414 cb3d 3b3a 13bf
000002a0: 15c2 ec3f 5c92 2140 2af6 38bf fe7a 16bc
000002b0: 881a c1bf 76ad 6ac0 c43d f93d 7a60 823e
000002c0: 4617 e2be 6559 583e b8e0 a43e 54f7 79be
000002d0: 180e 9140 5d3d d040 cdf2 c740 3c6c b840
000002e0: ad2e 8b3f 7f02 7340 fb41 be3d bdc2 5dbd
000002f0: e2dd 303d ca8a bbbe 69e0 3b3e 7ef9 e3bd
00000300: 67c9 41c0 dd68 11bf eade a0be eda9 ed3f
00000310: c250 e13f 7297 a03f 18d1 01bc 2a4a 5c3f
00000320: 5a03 b3be 5084 173e f67a b03d 9ff2 283e
00000330: ba62 7fc0 645d 4240 b636 83c0 742c d0bf
00000340: 89a4 3640 d3b9 b43f 435f 813d 2d49 41be
00000350: e7b7 8b3e 86b5 75bd cc8e a03e e9f3 9ebe
00000360: 2e35 6540 76e8 ce3e 2b2c 2540 df88 0fc0
00000370: bff2 7e3f 127f b33f 35a0 a83d 3f76 753d
00000380: 5b05 823e 9691 6fbc 9af0 be3e e904 3fbe
00000390: 6b43 5440 059d c0be f25a 87c0 1837 f23f
000003a0: 8baf afbf a14a 1540 20c9 173d c037 2fbe
000003b0: 10ae 3cbd 4df5 a33d df81 7d3e c3b0 063d
000003c0: 445e 933f 0391 a03f d11b 95bd fc0f 89bf
000003d0: 53fb 353f 800f a03e 8ff1 003e dcc2 003f
000003e0: 5efd 55be 58c7 d2be a631 eabd fcf0 9fbd
000003f0: a1b1 423c 8b98 8a40 cc67 273e 4d46 aa40

fc1.bias f4 [24]
0.24392731 0.044031087 0.12191312 0.31418163 0.13049494 0.20962265 -0.10474832 -0.114666484
0.18456349 0.23678866 -0.14476693 -0.038759153 -0.267555 0.1677643 -0.036236476 0.29779905
0.3885276 -0.077504836 -0.24309243 -0.341589 -0.15694468 -0.2669843 -0.057780705 -0.06658887
00000000: 15c8 793e f159 343d 96ad f93d 6adc a03e
00000010: 77a0 053e 52a7 563e 4a86 d6bd 43d6 eabd
00000020: 36fe 3c3e ba78 723e c83d 14be ebc1 1ebd
00000030: f8fc 88be 68ca 2b3e b36c 14bd 1e79 983e
00000040: 17ed c63e dbba 9ebd 39ed 78be c1e4 aebe
00000050: 1bb6 20be 2bb2 88be 76ab 6cbd bf5f 88bd

fc2.weight f4 [12, 24]
0.67783445 2.4380572 -3.450363 -1.0497019 -4.362411 1.6695391 0.41019443 -0.47332817
-0.49665055 2.7831683 0.022217494 0.5763262 0.2737363 -0.18291633 -0.4435926 -3.4202113
0.59753865 0.52861726 -0.5084447 0.014578444 -0.16572048 -1.5749965 0.4718596 1.4170301
-0.7313138 -1.6246395 -0.3196513 -1.3772639 -1.4403191 2.5172534 -0.56402075 0.6450199
1.5872676 0.22187474 0.12460785 -0.6246556 -1.6449423 -0.36803114 -0.3641585 -2.9556038
-0.5855427 -0.8319971 -0.23526886 0.17566457 -0.22806813 -1.6610214 0.9257006 3.7761335
0.12130512 -1.4463682 -1.3889983 -1.2603732 -1.259835 1.1564786 0.30323038 -0.11942579
-1.3837961 0.7604178 0.21343935 -0.21348563 1.0527648 -0.8532145 0.89884716 1.2305297
0.16169575 0.11188646 0.7774008 0.013492123 -0.86098486 0.95204824 0.04262597 -1.2490187
0.7824381 -0.3777873 -2.9094508 -1.3065239 -2.4531891 1.1594405 -2.398332 0.4110109
-0.67987734 -2.5506475 -0.34334132 -0.88557744 -2.1584704 -0.24369088 1.3397149 -2.1503537
0.17520854 2.8312337 -1.0737122 0.31946823 -0.54373837 -1.2762611 -3.6025999 -0.73750395
-0.24727744 0.44755164 3.795309 2.3035984 1.6275517 -3.2911456 -0.82301825 -0.64930016
-0.4145916 2.36041 0.5336993 -0.75890833 2.035921 -0.31347063 -2.3456664 1.401551
0.23400487 2.0158963 0.17156945 -0.2080099 0.68621844 0.7317122 -1.4826177 1.1556976
0.2319636 0.30215505 -0.703916 -1.0374658 -0.7825623 1.1875494 0.91933674 0.26389337
-0.5359828 -2.167676 0.38741317 0.43168426 -0.6251241 -0.55751675 1.3202934 -0.32530248
0.056580335 -0.9194343 -0.21148565 -0.29704005 -0.5053754 -1.3586143 -0.9058559 3.1714654
0.45821878 -0.26500234 -0.29814658 -0.12469625 0.15958203 -0.13396655 0.1288051 -0.0033476995
-0.30289122 -0.6300077 0.061666112 -0.5297172 -0.66113645 0.3711172 -0.37007076 0.49517125
0.14154018 0.00081611343 0.32696462 -0.14028445 0.44077793 -0.08152172 0.25660795 -0.010379231
-0.11354081 -0.15590185 -0.3453328 -0.051320493 0.115036495 0.2777568 -0.12701026 -0.50457597
-0.13146399 -0.35506406 -0.06957665 0.6286402 -0.3177538 -0.23906738 0.20119205 0.41613853
-0.5353446 0.39231783 -0.042365585 -0.23496987 -0.28262892 0.007683174 0.8798049 0.055453386
-0.3767348 0.5829311 0.3109975 -0.18264747 -1.3799257 0.48361668 -0.7907258 0.10745149
-0.36753508 -0.4315641 1.2610767 -0.49626127 -0.7301987 -1.5712118 -0.46809313 -1.4185885
-0.13844696 -0.34011847 -0.23370554 0.6809161 9.159353e-05 -1.5293113 -1.8225788 4.6799483
-0.50878084 -2.194812 -3.5649674 0.95378065 -1.0189514 0.46568632 -1.5505695 0.0639169
3.0834215 -3.0211256 -1.5409039 0.25677365 -0.43999603 0.54322916 1.1269214 -3.864361
-0.3901436 -1.079196 0.96433216 -1.878492 0.2218001 -1.6020105 1.3403829 3.0814276
-0.6056402 -1.1912311 2.9520857 -0.27834544 2.1443636 0.14886354 -1.4139283 0.6166784
1.4533676 3.2287865 0.7652025 -1.332733 -0.85563797 0.13493961 0.24514207 0.96352893
00000000: 8f86 2d3f 2109 1c40 bfd2 5cc0 a25c 86bf
00000010: df98 8bc0 75b3 d53f 0105 d23e 1258 f2be
00000020: fb48 febe 6e1f 3240 7601 b63c 1d8a 133f
00000030: 2a27 8c3e 6b4e 3bbe 921e e3be bee4 5ac0
00000040: 4bf8 183f 7653 073f 6f29 02bf 6dda 6e3c
00000050: a1b2 29be 7c99 c9bf 9597 f13e 3e61 b53f
00000060: 6237 3bbf 30f4 cfbf 56a9 a3be 2f4a b0bf
00000070: 605c b8bf ae1a 2140 aa63 10bf 0620 253f
00000080: 962b cb3f 2233 633e 6732 ff3d 6ee9 1fbf
00000090: 788d d2bf 946e bcbe fc72 babe 9d28 3dc0
000000a0: 20e6 15bf c3fd 54bf 52ea 70be 6ae1 333e
000000b0: b18a 69be 599c d4bf b7fa 6c3f 2cac 7140
000000c0: d26e f83d 9822 b9bf b2ca b1bf e953 a1bf
000000d0: 4642 a1bf 7e07 943f 0341 9b3e 8295 f4bd
000000e0: 3b20 b1bf beaa 423f d88f 5a3e fa9b 5abe
000000f0: ffc0 863f 446c 5abf d91a 663f ff81 9d3f
00000100: 9293 253e ba24 e53d bd03 473f 110e 5d3c
00000110: 8169 5cbf 6fb9 733f 9298 2e3d d8df 9fbf
00000120: dd4d 483f 566d c1be 7134 3ac0 2d3c a7bf
00000130: 0d01 1dc0 8c68 943f 467e 19c0 0570 d23e
00000140: 710c 2ebf cf3d 23c0 6fca afbe 34b5 62bf
00000150: 6124 0ac0 1a8a 79be c77b ab3f 659f 09c0
00000160: de69 333e ef32 3540 676f 89bf 5791 a33e
00000170: 7032 0bbf 865c a3bf ff90 66c0 0fcd 3cbf
00000180: 4c36 7dbe 7d25 e53e 58e6 7240 286e 1340
00000190: 9d53 d03f 21a2 52c0 53b1 52bf 8938 26bf
000001a0: 5a45 d4be f510 1740 84a0 083f d147 42bf
000001b0: 884c 0240 397f a0be 661f 16c0 0666 b33f
000001c0: f99e 6f3e 7204 0140 e7af 2f3e 8c00 55be
000001d0: 03ac 2f3f 7e51 3b3f 6bc6 bdbf e6ed 933f
000001e0: de87 6d3e 11b4 9a3e d733 34bf aecb 84bf
000001f0: 0156 48bf 9e01 983f a759 6b3f 081d 873e
00000200: 2b36 09bf 34bb 0ac0 055b c63e b805 dd3e
00000210: 2208 20bf 6bb9 0ebf 60ff a83f 0c8e a6be
00000220: c8c0 673d 0c60 6bbf b28f 58be a215 98be
00000230: 4860 01bf 13e7 adbf 2ce6 67bf 4af9 4a40
00000240: a79b ea3e 63ae 87be aba6 98be bf60 ffbd
00000250: 7969 233e 872e 09be 7ce5 033e 1465 5bbb
00000260: 8f14 9bbe 2f48 21bf 9b95 7c3d 8c9b 07bf
00000270: 3d40 29bf 1303 be3e ea79 bdbe 1687 fd3e
00000280: e9ef 103e 72f0 553a e867 a73e baa6 0fbe
00000290: a5ad e13e dcf4 a6bd 1e62 833e a60d 2abc
000002a0: 1688 e8bd bca4 1fbe 76cf b0be 7035 52bd
000002b0: 4198 eb3d 2436 8e3e fa0e 02be e42b 01bf
000002c0: 7f9e 06be f5ca b5be 347e 8ebd 90ee 203f
000002d0: a0b0 a2be 14ce 74be 4a05 4e3e 1c10 d53e
000002e0: 580c 09bf e2dd c83e 8987 2dbd f19b 70be
000002f0: bdb4 90be 23c3 fb3b e53a 613f 1723 633d
00000300: 62e3 c0be f93a 153f 103b 9f3e f007 3bbe
00000310: 68a1 b0bf 9b9c f73e 026d 4abf 870f dc3d
00000320: 8f2d bcbe f8f5 dcbe f66a a13f f515 febe
00000330: 4dee 3abf 781d c9bf e7a9 efbe 4f94 b5bf
00000340: 0ac5 0dbe 0224 aebe 8150 6fbe 8450 2e3f
00000350: e715 c038 79c0 c3bf 434a e9bf 23c2 9540
00000360: 763f 02bf cd77 0cc0 6d28 64c0 f82a 743f
00000370: 006d 82bf 706e ee3e 1079 c6bf dde6 823d
00000380: c756 4540 1f5a 41c0 573c c5bf d677 833e
00000390: 2947 e1be 1111 0b3f f63e 903f b151 77c0
000003a0: e7c0 c7be 1823 8abf 79de 763f 6d72 f0bf
000003b0: 911f 633e ae0e cdbf ab91 ab3f 1c36 4540
000003c0: 3c0b 1bbf 437a 98bf f9ee 3c40 4b83 8ebe
000003d0: 413d 0940 af6f 183e 9afb b4bf a3de 1d3f
000003e0: f307 ba3f 70a4 4e40 50e4 433f ff96 aabf
000003f0: 170b 5bbf 9c2d 0a3e 8606 7b3e d5a9 763f

fc2.bias f4 [12]
0.10785954 -0.046143018 -0.2129331 0.17008522 -0.26780063 -0.0038051517 -0.16720629 0.06889553
-0.003263059 0.10062595 -0.13172549 -0.006582642
00000000: 76e5 dc3d 7600 3dbd 220b 5abe d22a 2e3e
00000010: 2a1d 89be da5f 79bb 2038 2bbe 1a19 8d3d
00000020: 0cd9 55bb fa14 ce3d 0ce3 06be 34b3 d7bb

fc3.weight f4 [6, 12]
-0.76227915 2.195762 -0.3825055 -1.2008101 -0.17917024 -0.03970047 0.16961916 0.17218281
-0.12455513 2.073492 1.396734 0.0917838 -2.3232744 -1.3160353 0.11021097 2.713142
-0.19399127 0.49796444 1.0180044 -0.7450989 -0.013379792 0.55994236 0.152835 0.11569322
-0.5727249 -1.555055 -0.3796755 -1.5955153 -0.668634 0.40896767 -0.16401866 0.7088589
-0.17043397 -0.015352275 -3.4579377 0.23405328 1.0976858 0.29694554 1.4371066 -0.056397233
-2.2398052 0.24660036 0.0871375 -0.005776468 -0.60852295 -2.334241 1.1528432 0.75549334
1.3053834 -0.6130399 -0.07820694 -0.01182287 0.6602014 -1.7554178 -0.50271064 0.022660043
-0.90176845 0.64738876 0.6860438 -2.6224911 0.66810966 1.5560865 -0.5188952 0.060416337
2.5806258 0.2073921 -0.5096478 -0.20019065 2.4226375 -0.8625835 -0.14640123 0.7845492
00000000: ba24 43bf 5d87 0c40 c3d7 c3be 25b4 99bf
00000010: 6778 37be f69c 22bd a5b0 2d3e b150 303e
00000020: c316 ffbd 18b4 0440 2ec8 b23f 25f9 bb3d
00000030: 87b0 14c0 d873 a8bf 4ab6 e13d 1ea4 2d40
00000040: a6a5 46be 32f5 fe3e f84d 823f cdbe 3ebf
00000050: ea36 5bbc 6258 0f3f c780 1c3e 91f0 ec3d
00000060: 199e 12bf 0b0c c7bf d464 c2be d839 ccbf
00000070: 992b 2bbf 3664 d13e 82f4 27be c777 353f
00000080: 3e86 2ebe 1c88 7bbc da4e 5dc0 aaab 6f3e
00000090: f880 8c3f 3f09 983e 1cf3 b73f c900 67bd
000000a0: f858 0fc0 ce84 7c3e 2575 b23d 8748 bdbb
000000b0: 29c8 1bbf 3464 15c0 5e90 933f 0368 413f
000000c0: ce16 a73f 2ff0 1cbf f62a a0bd b6b4 41bc
000000d0: f502 293f 88b1 e0bf a5b1 00bf 8ea1 b93c
000000e0: 4cda 66bf 45bb 253f 91a0 2f3f e5d6 27c0
000000f0: 3c09 2b3f d82d c73f 51d6 04bf 1f77 773d
00000100: f928 2540 985e 543e 4778 02bf c7fe 4cbe
00000110: 7e0c 1b40 46d2 5cbf 34ea 15be 37d8 483f

fc3.bias f4 [6]
0.59321165 0.12930568 0.37319615 0.4441648 0.08461314 0.5654102
00000000: b8dc 173f b568 043e 9113 bf3e 9269 e33e
00000010: a749 ad3d b9be 103f
