Cleaned LIAR/TunedModels/bert/bert-base-cased/NNetwork6WayClass/name the model .pth (torch_old, 3774 bytes, 6 tensors)

fc1.weight f4 [24, 12]
000000 e7 c9 d4 3f bb 03 34 40 76 41 3c 40 62 8f 98 40
       1.6624116 2.8127277 2.9414954 4.767503
000010 98 8d 04 40 9b b3 85 40 5c d3 17 3e db 4c b7 be
       2.0711422 4.1781745 0.14826721 -0.35800824
000020 79 cd d5 bc 87 dd c6 bc 00 c0 2d 3e c4 1f ac bd
       -0.026098954 -0.024275554 0.16967773 -0.08404496
000030 c8 83 77 3f 06 44 fd 3c 5b 9d 87 c0 ea 16 7b 40
       0.9668546 0.030916225 -4.2379584 3.9232736
000040 17 45 6f c0 8d 05 87 c0 23 a1 df 3d f8 39 18 be
       -3.738592 -4.2194276 0.10919406 -0.14865863
000050 2c 55 2d be a4 9b 20 be 0e 12 0d 3e 57 f6 08 be
       -0.16927022 -0.15684372 0.13776419 -0.13375221
000060 a6 f1 ad bf ba 08 52 bf 1c 8d 88 40 21 66 38 be
       -1.358937 -0.82044566 4.2672253 -0.18007709
000070 63 e8 35 c0 b5 30 12 40 e9 85 06 3b b0 48 ac be
       -2.8423088 2.2842228 0.0020526594 -0.33649206
000080 15 d5 86 bd 69 10 c1 3d d3 b5 65 3e e9 91 28 be
       -0.06583611 0.09426958 0.22432642 -0.1646191
000090 54 96 25 c0 bf 0d 70 40 2b 17 41 c0 fd 73 81 c0
       -2.5873003 3.750839 -3.017039 -4.0454087
0000a0 8c a0 ff 3f e4 0e 8a c0 fe ce 0b b9 e6 f5 75 be
       1.997087 -4.3143177 -0.00013333184 -0.24019584
0000b0 c2 a8 72 3e 61 5b 51 3d 07 a8 46 3e 85 e4 b8 bd
       0.23697188 0.051112536 0.19400035 -0.09027962
0000c0 95 b5 8e bf fe 01 bc 40 8e 11 c3 40 a9 10 a3 3f
       -1.1149164 5.875243 6.095893 1.2739459
0000d0 61 84 a5 40 1b 21 6b 40 ee 7e 48 3e 83 fd 22 3e
       5.1724095 3.6738956 0.1957967 0.1591702
0000e0 de c3 91 bd ee 72 0b be ec 9c d3 3d 80 51 89 3d
       -0.07117437 -0.13618061 0.10332665 0.06704998
0000f0 1f 55 12 bf a8 a8 b0 bf e6 e6 0d 3e 5e 77 01 bf
       -0.57161134 -1.380147 0.13857612 -0.50572765
000100 1b 35 17 c0 55 05 84 40 87 76 bf bd 86 b9 99 be
       -2.3626163 4.125651 -0.09348779 -0.30024356
000110 a9 37 82 be a3 2a 1b bb 7d c2 34 be 25 dc 76 3e
       -0.2543309 -0.0023676537 -0.17652316 0.24107416
000120 b4 1d e4 bf e4 c7 54 c0 08 e9 48 40 76 d7 82 3e
       -1.7821565 -3.3247004 3.139223 0.2555501
000130 d0 14 37 40 24 fb 0d 40 69 0d 4e be b8 63 00 bf
       2.8606453 2.2184534 -0.20122303 -0.5015216
000140 e7 ff 93 bc 7b e4 aa bd cc 31 9a 3d 0d 27 d6 be
       -0.01806636 -0.083443604 0.07529029 -0.41826668
000150 c6 77 32 40 72 c1 98 3f 00 ba 2f c0 6a 81 81 c0
       2.7885604 1.1934035 -2.7457275 -4.0470476
000160 83 c3 8c 3f f2 b9 6f 40 2d 55 1a bd c6 1f 82 3e
       1.0997165 3.7457242 -0.037678886 0.25414866
000170 9a ce 0c bd e0 bb cd bd fd 8e 34 bd 20 9d 01 be
       -0.034376718 -0.100456 -0.044081677 -0.12657595
000180 f2 92 c4 3f 30 17 f1 bf f5 54 d2 be d0 27 60 bf
       1.5357344 -1.8835201 -0.41080442 -0.8756075
000190 33 b9 07 40 50 e5 57 3b 84 67 7e bd 6b e7 0d be
       2.1206787 0.0032943077 -0.06211044 -0.1385781
0001a0 e9 f1 95 3e 20 52 d9 be 55 74 c0 3e cc 78 1d be
       0.29286125 -0.4244547 0.37588754 -0.15378112
0001b0 ae 83 59 c0 70 91 c7 bf 01 33 42 c0 41 02 82 c0
       -3.398662 -1.5591259 -3.034363 -4.062775
0001c0 22 09 82 c0 98 e6 35 3f 9b c5 0a be ed eb ef be
       -4.063615 0.71054983 -0.13551943 -0.46859685
0001d0 10 bd 8b be 2d 33 8c bc c6 fb 64 be 28 7c 34 bd
       -0.2729268 -0.017114246 -0.22361669 -0.044063717
0001e0 e6 52 8e c0 2a 89 79 40 6b a1 c4 bf d7 df d4 bf
       -4.4476194 3.8989968 -1.5361761 -1.663081
0001f0 b8 09 89 bf ae 73 f4 be 3d bd 7b bd 98 d2 f8 be
       -1.0706091 -0.47744507 -0.06145977 -0.4859817
000200 30 4f 29 3e 63 2f 1b bd a1 73 01 bf 22 31 51 bc
       0.16534114 -0.03788699 -0.5056706 -0.012768062
000210 20 df b7 40 f0 3f b8 40 10 db a1 40 21 cc a7 40
       5.745987 5.757805 5.057991 5.243668
000220 d5 95 3f 40 2b 7e 13 40 c8 91 11 3e 80 de a7 bd
       2.99352 2.3045757 0.14215767 -0.081967354
000230 4b 18 90 3e b9 6e 0e 3c 05 2b 94 3c 88 87 83 3e
       0.28143534 0.0086933905 0.01808692 0.2568934
000240 ec 91 29 40 d5 8e c9 40 a5 69 2d 40 6a c4 b6 40
       2.6495314 6.2986856 2.709573 5.7114763
000250 73 4a bd 3e fb c0 a0 40 b9 20 24 be 52 c4 a6 3d
       0.36970863 5.023557 -0.16028108 0.08142914
000260 37 10 fc bc 81 47 87 bd 70 f1 1f 3d e4 0b 50 be
       -0.03076945 -0.06605435 0.039048612 -0.20317036
000270 df 4b 7d 40 a3 ac e4 be b5 63 07 3f 07 c5 bf 40
       3.9577558 -0.4466296 0.52886516 5.992801
000280 bb 0f b0 40 30 1c cf 40 b6 f6 d4 3d 39 01 91 3d
       5.50192 6.472191 0.10398619 0.07080311
000290 09 19 33 be 5d 09 9a 3d 1b db 62 bd a0 b7 72 3c
       -0.17490019 0.07521317 -0.055384737 0.014814287
0002a0 2c 74 38 c0 6d da 03 be 5c 35 89 c0 36 8d 29 3f
       -2.8820906 -0.12876292 -4.2877636 0.66231096
0002b0 92 d8 99 40 b3 fa 46 40 ab 3b 12 bc 33 d5 c0 be
       4.807687 3.1090515 -0.008925359 -0.37662658
0002c0 95 9f 27 be 19 88 ee 3d 87 56 72 be 22 ff 82 3e
       -0.1636947 0.11647052 -0.2366582 0.25585276
0002d0 3b 1d 1c 40 d8 99 21 40 79 af 8c bf 46 69 ef be
       2.439284 2.5250149 -1.099105 -0.46760005
0002e0 3c a0 a2 bf bf cb 8b 3f e0 b2 72 3e 1b c9 aa 3e
       -1.270515 1.0921553 0.23701048 0.33356556
0002f0 91 b5 72 bd 5c 25 40 be e0 6d 98 3e 59 47 a8 3e
       -0.059255186 -0.18764251 0.29771328 0.32866934
000300 8a 0c a3 c0 3a 72 37 c0 46 85 83 40 8f be 74 40
       -5.0952806 -2.8663468 4.1100187 3.8241308
000310 99 e5 a1 40 bd 3e fc bf b8 5d 2d be 3a 97 b1 3d
       5.059277 -1.9706646 -0.16930282 0.08671422
000320 c1 32 b9 3d 8f 0f 1c bd d4 26 78 be cc fe ff 3d
       0.09042884 -0.038100775 -0.24233562 0.124997705
000330 52 11 b3 40 82 a8 87 40 6e cc 9b 40 3f 8c 9c 40
       5.5958643 4.23932 4.868705 4.89212
000340 f2 76 c0 40 c0 4d 91 40 1f 1d 91 be fc 02 6b be
       6.0145197 4.540741 -0.2834253 -0.22950357
000350 c4 45 06 3f 28 48 91 bd d3 9a b3 bd ca c5 a3 bd
       0.52450204 -0.07093841 -0.08769765 -0.0799671
000360 a4 10 d6 c0 b6 2c 9a c0 26 0b 18 c0 e3 e9 00 bf
       -6.6895313 -4.817958 -2.3756804 -0.5035688
000370 5c f6 ac c0 61 34 85 c0 6e f7 51 bd 73 24 3e 3d
       -5.405073 -4.162644 -0.051261358 0.04642148
000380 dc a5 0c 3e 23 f5 a1 bd 52 41 b3 bd 7b be a0 3d
       0.13735145 -0.07908084 -0.08752693 0.07848831
000390 64 5c ce c0 6d c4 93 40 22 70 85 c0 d3 f6 f6 3f
       -6.448778 4.6177278 -4.169938 1.9294075
0003a0 d8 57 2c 3f f6 b9 54 be 0d 8a 8e bd ba 21 5a 3e
       0.6732154 -0.20774063 -0.06959925 0.21301928
0003b0 9e b6 8a be 1a 9a 15 bd d2 7b 95 3e 45 26 0e be
       -0.2709245 -0.036523916 0.2919603 -0.13881786
0003c0 f9 6d b0 bf 67 67 85 3f f8 4f d4 bd 0e 93 f3 bf
       -1.3783561 1.0422181 -0.10366815 -1.9029253
0003d0 7b e6 83 c0 51 04 2a 40 35 9e 22 3e 54 39 8e be
       -4.121885 2.6565135 0.15880664 -0.27778113
0003e0 a7 2c 89 3e 3c 64 df bd 46 d0 04 bd 6c 3a e6 3e
       0.2679188 -0.1090779 -0.032425188 0.44966447
0003f0 54 42 89 40 9f 46 f7 be af f3 df 3f 10 a8 71 bf
       4.2893467 -0.48296067 1.7496241 -0.9439707

fc1.bias f4 [24]
000000 09 70 3c 3e 54 7f 2f 3e e2 30 8b bc 76 d3 71 bd
       0.18402113 0.17138416 -0.016991083 -0.059039555
000010 4b 9a 0b 3e 7c fa db be a7 dd 2d 3e 84 24 53 3e
       0.13633077 -0.42964542 0.16979085 0.20619398
000020 db 4f 80 be ed 70 fe bd 05 7c d8 bc d0 31 df 3d
       -0.25060925 -0.12423883 -0.026426325 0.10898173
000030 b4 df ef bd 10 60 63 3e 96 29 e7 bd 86 06 95 3e
       -0.1171259 0.22204614 -0.11287229 0.2910654
000040 3c d3 6f 3a f0 87 94 be a7 71 13 3b 04 fe 3f bc
       0.0009148603 -0.29009962 0.0022498162 -0.011718277
000050 11 ae 8d bd cd 08 68 be 5d 1d 98 bd 52 f0 26 3e
       -0.06917966 -0.22659607 -0.074274756 0.16302612

fc2.weight f4 [12, 24]
000000 c2 55 2b bf 7a 12 48 40 66 0e d2 bc 04 52 30 c0
       -0.6692773 3.1261277 -0.025641631 -2.7550058
000010 eb f2 e4 bf ea 9d 17 3f 09 a8 87 3c 03 56 31 bf
       -1.7886633 0.5922533 0.016559618 -0.6927187
000020 ee d6 63 3f 0f 4c 26 3d a7 d0 ce 3e 10 90 97 3e
       0.8899983 0.04059988 0.40393564 0.29602098
000030 cb d2 16 c0 5b 25 32 bf 00 0d 43 3e 2b f6 39 bf
       -2.3566158 -0.6958825 0.19047928 -0.7264125
000040 cd 77 ec 3e a8 c1 de 3e 9c f9 83 c0 96 27 c7 bf
       0.4618515 0.43507123 -4.12422 -1.5558956
000050 87 2b 40 be 4e eb 7a bf 6e db c7 be 98 99 10 3e
       -0.18766604 -0.98015296 -0.390346 0.14121091
000060 3c 30 aa bb 9a 1b 3c 3f ae 1b 19 be 98 c6 0f 3f
       -0.0051937383 0.73479617 -0.14951965 0.56162405
000070 19 98 90 bf 2c a2 6f 3d a0 02 63 bf 29 c7 79 3e
       -1.1296417 0.05850427 -0.8867588 0.2439238
000080 82 30 c1 bf 61 32 ce be 73 f8 d4 be ea f7 53 3e
       -1.5092928 -0.4027281 -0.41595802 0.2070004
000090 3e 10 d1 3e 1c cc 93 3f b6 c1 a5 3e b5 b8 e0 3e
       0.40832704 1.1546664 0.32374352 0.4389092
0000a0 99 2b 44 be 8f d3 07 bf 34 d4 1d bf 70 d0 91 3f
       -0.19157256 -0.5305719 -0.6165192 1.1391735
0000b0 b4 35 bc be ca e0 b5 be ee 82 9e 3e 1d 9b 62 be
       -0.36759722 -0.35523063 0.30959266 -0.22129484
0000c0 7a ad 95 bf 80 0f 3b 3f b0 eb 37 3e c4 e5 50 40
       -1.1693566 0.73070526 0.17961001 3.2640238
0000d0 56 8c 4b 3d 0c 69 d6 3d f4 8b 9f be 4b 55 bf be
       0.04969438 0.10469255 -0.31161463 -0.3736976
0000e0 84 17 f8 bf 8c 62 ab 3f c7 e3 06 40 55 15 5e c0
       -1.9382176 1.3389449 2.1076524 -3.470052
0000f0 32 0c 50 bc 74 c1 00 c0 80 5b 33 3f 93 d0 45 be
       -0.01269822 -2.0118074 0.7006149 -0.19317846
000100 b8 8b 6e 3e db a8 25 c0 99 53 b1 40 bd a2 3f 40
       0.23295486 -2.5884311 5.541455 2.9943078
000110 95 87 a8 3f 35 76 45 bf e2 f5 a1 bf 59 fa 91 bf
       1.3166376 -0.77133495 -1.2653162 -1.1404525
000120 d3 61 26 3f 92 24 38 3d 30 54 1f bf 1f 76 39 be
       0.6499302 0.04495675 -0.62237835 -0.18111466
000130 f2 c7 d2 be 15 5c 81 3e 1f 8c 80 3e 57 c3 af 3e
       -0.4116817 0.25265566 0.25106904 0.3432872
000140 e6 57 50 bf f7 80 3f 3e fa c5 6a be 15 58 a3 3f
       -0.8138412 0.1870154 -0.22927085 1.2761256
000150 5d 72 3b 3f 15 ea 3d bf ec be f0 be 80 15 48 bf
       0.7322138 -0.74185306 -0.47020662 -0.78157806
000160 e5 f4 09 bd c2 94 1b bf 1b 64 2a 3f 4f fd e2 3c
       -0.033680815 -0.6077386 0.66559 0.027708678
000170 5e 22 35 be a7 59 12 be 67 89 8e bd dd 28 b9 3e
       -0.17688891 -0.14292012 -0.06959801 0.3616399
000180 ce 13 dd bf 61 9b 17 be 0f ff dd bf cd 24 86 40
       -1.7271669 -0.14805366 -1.7343463 4.1919923
000190 86 cd 5d c0 1c e4 13 bf be 22 89 3e 00 8f 1d 40
       -3.4656692 -0.5776994 0.2678432 2.461853
0001a0 94 c5 c3 3f 4f b8 12 3f ed 75 b9 3e 05 ef 93 c0
       1.5294671 0.5731248 0.36222783 -4.622927
0001b0 61 15 9c c0 23 a2 40 bf 44 66 2e 40 69 dc a7 3e
       -4.8776097 -0.752474 2.7249918 0.32785347
0001c0 45 4d bf 3d 37 97 35 c0 73 45 0a 3f 34 ff af be
       0.0934091 -2.8373544 0.5401222 -0.34374392
0001d0 2a 73 8b bf 19 8a 91 3e 76 14 a3 bf ce 67 9f be
       -1.089452 0.28425673 -1.2740619 -0.31133884
0001e0 1f 5d 0b 40 ac 04 d0 3f 6c 1d 57 c0 4e d9 5f bf
       2.1775587 1.6251426 -3.3611708 -0.87440956
0001f0 8f f2 26 bf 73 b8 39 3e ca 65 02 bf 24 63 01 3f
       -0.65213865 0.18136768 -0.5093657 0.505419
000200 8f 5f 67 3f a8 cd 68 bf 5c b1 df 3d e3 b8 84 40
       0.90380186 -0.90938807 0.109225005 4.147569
000210 e5 bf 85 40 2e fe 6d 40 f0 e0 5b 40 d5 bc 0f 3f
       4.1796746 3.718639 3.435604 0.5614751
000220 4b 37 f2 3d 3b cb 3e 40 f8 33 78 c0 25 62 c4 3f
       0.118269525 2.9811542 -3.878172 1.5342451
000230 5b 19 2a bf 57 5b 3d bf cb 6b 26 3f 86 35 81 bf
       -0.6644494 -0.739675 0.6500823 -1.0094459
000240 4d f7 c5 bf e8 38 e3 3f b7 a5 24 bf 64 5b 88 3f
       -1.5466095 1.7751741 -0.6431536 1.065289
000250 c8 2f 18 c0 01 6f 9f bf 6d e6 e0 3e 8a f2 fc bf
       -2.3779163 -1.2455751 0.439258 -1.9761517
000260 aa 95 7f 3f c7 45 57 bf 54 5e 86 3c 82 28 51 c0
       0.99837744 -0.84090847 0.016402401 -3.2680974
000270 07 df 94 c0 25 a1 34 bf 3e c2 39 3f af 3d 50 bf
       -4.652225 -0.7055839 0.72562015 -0.8134412
000280 4b d7 05 40 4b 60 40 c0 36 42 7f 40 91 7d 00 3f
       2.0912654 -3.0058773 3.9884162 0.501916
000290 ad 52 f5 bf 30 0c d4 3f 5c 7f 82 bf 88 cc 5d bf
       -1.9165856 1.6566219 -1.0195117 -0.86640215
0002a0 88 41 2d bf 47 0b 69 40 e9 e6 a5 bd 0d bc 91 bf
       -0.6767812 3.6413133 -0.08100683 -1.1385514
0002b0 a9 49 b7 c0 f3 4c 87 3e b6 54 0c bf 72 b9 bb bf
       -5.7277417 0.26425895 -0.5481676 -1.4665968
0002c0 14 e6 33 bf 1d 85 a6 3e ae 11 b8 be 02 0e 0f c0
       -0.70272946 0.32523432 -0.3595099 -2.23523
0002d0 e8 59 96 bf f4 04 db bf 95 e7 e8 bf fa 89 90 bc
       -1.1746187 -1.7110887 -1.8195673 -0.017643917
0002e0 a9 53 bc bf 5c 6e d5 bf 00 23 9a 40 c1 72 f9 be
       -1.4713031 -1.6674304 4.8167725 -0.48720363
0002f0 87 78 1a 3f 38 aa 4b 3e dc 4d 3e bf 50 6b 04 bf
       0.6034016 0.19889152 -0.74337554 -0.51726246
000300 36 9a 7b be ef 42 73 bd 0f 01 63 bf f8 7c ec be
       -0.24570546 -0.059390005 -0.8867349 -0.46189094
000310 e1 1d 4e 3e 39 62 9d 3e 81 79 e5 3e 1d 52 c2 3e
       0.20128585 0.30739 0.44819263 0.37953272
000320 2b 01 fb bd 20 8d 25 3f 30 6b da 3d cb e5 b5 3e
       -0.12256082 0.64668465 0.10664976 0.3552688
000330 d9 40 06 3f bb b2 9b bf 4b 89 34 bf 3f 31 34 bd
       0.524427 -1.2163919 -0.7052199 -0.043992277
000340 d4 66 4d 3e 63 68 94 be 3d 13 7c bf 62 3b ab 3e
       0.20058757 -0.2898589 -0.98466855 0.33443743
000350 bd 6f a5 bd cb 76 99 3d d1 79 42 be ec 98 2c 3d
       -0.08077953 0.07493361 -0.18991782 0.042138025
000360 f4 a5 0a c0 49 fc de 3f 3d 95 72 bf 16 9e 7f 40
       -2.166379 1.7420741 -0.9475897 3.9940238
000370 c4 63 41 c0 ad 68 f3 be 65 39 a1 bf 80 83 c4 3f
       -3.0217142 -0.475408 -1.259564 1.5352631
000380 58 45 5a bf 40 d8 6e 3f f1 be 18 3f 3e 2c 2a c0
       -0.8526206 0.9329872 0.59666353 -2.6589503
000390 93 53 17 c0 12 6a 37 c0 b4 18 cd be 33 fd 0f 3f
       -2.364476 -2.865849 -0.4005791 0.56245726
0003a0 66 e6 f9 bf 14 45 f5 bf a4 ef f2 3f 40 32 41 be
       -1.9523437 -1.9161706 1.8979383 -0.18866825
0003b0 9b 52 c7 be 34 41 83 3f 89 d1 2b bf db 4a 01 3f
       -0.3893021 1.0254273 -0.671166 0.50504845
0003c0 12 6d d9 be 1c 1b 8b 3f f6 35 02 3f 55 2a c9 3d
       -0.42466027 1.0867648 0.5086359 0.09822527
0003d0 11 da 5a 3e 28 54 2b bf 34 14 cb 3e 1e 31 32 3f
       0.21372248 -0.6692529 0.3966385 0.69606197
0003e0 e0 c1 05 3e 9d 67 6d bf 23 a5 9f 3e 20 8b 81 3f
       0.13062239 -0.92736226 0.31180677 1.0120583
0003f0 63 21 c0 bf 46 23 6d bf e3 f0 15 bf a0 38 f7 bc
       -1.5010189 -0.9263195 -0.5857069 -0.030178368

fc2.bias f4 [12]
000000 4e 70 3c bf 6b 28 27 3e a3 7c 24 3d 9d 4c 50 3e
       -0.73608863 0.16324012 0.040157925 0.20341726
000010 be e3 a5 bd 7d 60 51 3c 2c c2 9b be 98 93 0f 3d
       -0.08100079 0.012779352 -0.3042158 0.035052866
000020 53 18 43 bd bb 86 b6 3c 57 8e 10 3e 0f b9 21 3e
       -0.04763062 0.022281041 0.14116798 0.1579325

fc3.weight f4 [6, 12]
000000 a4 69 8b 3f 1d 91 2b 3e 38 53 3a c0 7f 4b b4 bd
       1.0891614 0.16754575 -2.9113293 -0.08803462
000010 a5 e2 8d 3e 20 30 4a 3e fe c4 4a bf ed ae a2 3f
       0.2771198 0.1974492 -0.79206836 1.2709633
000020 06 df 97 3e cf 93 fb 3f 30 cf a7 3d 8f 63 85 3d
       0.2966234 1.9654483 0.08193815 0.0651313
000030 fa a7 05 bf d4 ae 9f 3e 24 eb 32 40 d8 bf b0 bc
       -0.52209437 0.3118807 2.7956018 -0.021575853
000040 46 24 94 be d3 dc 56 3e cd 3d cd bf a9 13 ff be
       -0.28933924 0.20982675 -1.6034485 -0.49819687
000050 61 99 37 3f 61 08 00 40 7f 79 a2 3d 4a f0 c5 bf
       0.7171841 2.0005114 0.0793333 -1.5463955
000060 b1 e2 a0 be 60 ef 4d bf 95 ae 15 bf d2 65 20 3e
       -0.31422952 -0.8044338 -0.58469516 0.15663841
000070 5e 9d 71 bf ab 24 39 c0 19 85 97 3e ab 99 09 bf
       -0.9438075 -2.892863 0.29593733 -0.53750104
000080 87 dc e5 3d 58 ab 5f bf c5 af e0 3d ba 99 16 bf
       0.11223703 -0.87370825 0.109710254 -0.5882832
000090 c2 6c 97 bd 65 d9 af 3e 4e ba 8c 3f 28 65 7f 3f
       -0.07393791 0.34345546 1.0994356 0.9976373
0000a0 13 32 84 bf 7e 5b b7 3f 0b 65 f0 3f 66 b5 1f 40
       -1.0327781 1.4324796 1.8780836 2.4954467
0000b0 2c f9 82 bf 0b 86 bd bf ba b6 8b 3d 38 cc 07 bf
       -1.0232291 -1.4806532 0.06821962 -0.5304599
0000c0 7b 64 93 3b 3e 3f 7f bd 81 13 2f bf 68 d3 96 bf
       0.004498062 -0.06231617 -0.68389136 -1.1783266
0000d0 e8 9e cb 3f 73 c3 07 3f ed 6a 06 40 9b 8b 11 c0
       1.5907869 0.53032607 2.1002762 -2.2741458
0000e0 82 05 27 bd e1 fc 56 be 60 7d 1b 3f 9b 21 ca be
       -0.040776737 -0.20994903 0.6073818 -0.39478764
0000f0 13 7f f7 bb 0f 81 6f 3c a7 af 33 3f 6d 7c 88 3d
       -0.00755299 0.014618172 0.701899 0.06664357
000100 bd 67 ef 3e 93 9d c9 3e f5 66 e8 bf a4 7e e4 be
       0.46758834 0.39378032 -1.815642 -0.4462787
000110 d7 bf f8 bc 0b 89 c3 bf 32 55 82 bf ad 7e 46 40
       -0.030364914 -1.5276197 -1.018225 3.1014817

fc3.bias f4 [6]
000000 7f 95 2a 3f 63 7d d4 3d 08 4f ad 3d 55 c3 38 3e
       0.6663436 0.10375478 0.0846234 0.18043263
000010 68 7a 56 38 25 1f 74 3f
       5.1135576e-05 0.9536002
