LIAR Unchanged/TunedModels/roberta/roberta-large/NNetwork/Tanh_MSE_adam4731.pth (torch_old, 3774 bytes, 6 tensors)

fc1.weight f4 [24, 12]
00000000: a2b0 09bf 01f1 e7bf 1e57 bebf 6155 a1bf
00000010: 1a87 88be 512f 6540 4122 b9bd b1d9 a03e
00000020: d806 ea3d d08b 503c 8cdd b13e 1424 28bf
00000030: bd89 80c0 1996 26c0 f772 853f 1644 a7be
00000040: f28d fe3f 200a 58bf f60f 09be 5bc4 c9bd
00000050: 2ad3 a53b ef6d 573d f92c 91be 4a84 953b
00000060: 2615 0c40 c60e 7b3f 67bd 96bf 6991 a5bf
00000070: 8780 66c0 b2f6 80c0 29db f0bd 387a 753e
00000080: 5370 fc3d fcd2 dbbe 93d3 c33d e406 093e
00000090: 31b8 373e 22ec 8740 b6a5 8d40 07bd b3bf
000000a0: c914 86c0 c2e3 1240 ff5b 1abe 8685 3fbc
000000b0: f4ff b73d a141 173e fc58 66be 99bc 163e
000000c0: c455 f83e 049e 2240 1fb7 e6be 5bcc 13c0
000000d0: 7809 cd3f c9c1 a8bf 51df 9fbd bd0e 103f
000000e0: b030 c0bd 4415 02be 8fd7 cf3c a2ec 1bbe
000000f0: c2f4 0bc0 cf2c 4bc0 6565 29c0 407c 3bc0
00000100: 2d13 c23e d496 44c0 ff24 d0bc fefe 993e
00000110: 0a34 203c 0870 ea3e b518 20bf 7c3b 833e
00000120: e740 5bc0 9599 9ebf 1b99 9f3f 8ee3 92be
00000130: dea8 873f 876b 70bf c2c5 b5bd 33e4 55be
00000140: 4ee5 ae3e 87b0 58bc 7df8 abbe 2cf8 653e
00000150: 2f7f b040 8e26 bc40 916f b040 d7dd b540
00000160: 3320 8740 d4e9 c53f da58 8f3d cb55 6cbd
00000170: 3ad1 fbbd 9dbb da3d df30 aebd 3543 9bbc
00000180: 06a8 7d3f 7cf0 4f3f 2151 68c0 26b3 2ac0
00000190: 7f2d 2fc0 ade4 e63f 316c bc3d 23c9 363d
000001a0: 089a 6f3e a903 2a3e aee8 bc3d e1c1 0ebe
000001b0: 73c5 a3c0 40db a1c0 45c5 d9c0 72a7 5540
000001c0: b773 c0c0 2eac dec0 c23a c6bd 686f 9c3c
000001d0: ed32 103d d199 f63d 68b6 89bd 9950 0c3d
000001e0: 573e 4840 5609 a040 39f7 91c0 da58 c13f
000001f0: 61b5 fc3e 4e78 1ec0 3820 443d a915 34bc
00000200: 7a79 bb3c 6ea5 443d 8247 10be 2d0c b4bd
00000210: 0d42 a5c0 2d60 93c0 1430 8040 d32d 74bf
00000220: 9889 d8be 0e86 e43e 8af8 91bb b586 673e
00000230: 1e93 1fbe a9ed ad3d d7c1 75be 9786 103d
00000240: 0162 ba40 cb0d 98c0 875e de3c 4f91 5040
00000250: 85ca 92c0 77af 7b40 b2c5 6f3c dcc1 c3bd
00000260: a526 f1bc 334e 7b3d db8a ffbd 5e3e a83c
00000270: cafa e6bf a894 a63f 5d7c e3bb 1b69 bb3f
00000280: b004 42c0 9cb0 2740 4514 e9bc 26c6 453e
00000290: a194 1a3d 1794 9d3e 5204 fbbe 9701 393e
000002a0: e8c9 913c 1c5c 44c0 a5bd a6c0 7511 bec0
000002b0: 87ab 96c0 3257 d5c0 a054 1c3d f91a 57be
000002c0: eb4e 0c3d a81e 643e 673a 85be 2327 503e
000002d0: 2429 48bf 7924 c7bd 41e1 e1bf 6700 31c0
000002e0: 023c 13c0 f7ff 0fc0 cba0 1abe 2983 333e
000002f0: 5c0c 5d3e 2e29 07bc 0a92 e83d 16eb e3bd
00000300: cf4f 56bf cfc6 1440 88fc 0240 f51f 6c3f
00000310: 3c29 e23f 89d8 85c0 6757 d7bd 0c7f ac3e
00000320: 0b67 f23d 2e6a f2bc b3dd 993e 0342 22bf
00000330: 3b46 5440 1de3 0ec0 41a1 2ebf e50f c63f
00000340: 58f1 4d3e 3324 87c0 1d82 893e f069 9dbe
00000350: 1cbe 9ebe 391b d2bd 372e 64bd ce1b cdbd
00000360: f4b2 18c0 61cc 49be f2b0 993f a663 c63e
00000370: a61d 303f 287a 17c0 718d a43c 2d77 0a3e
00000380: 0130 b4be 297e 1c3e a338 5a3e 0c32 d4bd
00000390: 08e0 b23c e791 9e40 384f f83f 0dbb bd40
000003a0: 5a7f bb40 84ab b640 8d75 98ba 292d 763d
000003b0: 1086 e03d d891 8f3d e951 bfbd d14b 923d
000003c0: df96 a640 9480 58c0 e088 d63f 8dd4 cfbf
000003d0: 0bd6 2e40 7491 cfbf 2e1c 26bd 39a5 bbbc
000003e0: cf4d 423d e6ce 333e 1d0b 2fbe ad20 0ebd
000003f0: 984d 2a3f 5c7e 3040 0a67 b2c0 d72b 20c0
-0.53785145 -1.8120424 -1.4870336 -1.260418 -0.26665574 3.581013 -0.090397365 0.31416085
0.114270866 0.012728646 0.3473934 -0.6568005 -4.0168138 -2.6029112 1.042571 -0.32669133
1.9887068 -0.8439045 -0.13384995 -0.09851905 0.005060573 0.052595075 -0.28354624 0.004562889
2.1887908 0.9806942 -1.1776551 -1.2935001 -3.6015947 -4.030114 -0.117605515 0.23972404
0.12326112 -0.42934406 0.09561839 0.13381535 0.17941357 4.247575 4.4264784 -1.4042062
-4.1900373 2.2951512 -0.15074156 -0.011689549 0.08984366 0.14771129 -0.22494882 0.14720382
0.48502934 2.5408945 -0.45061585 -2.3093479 1.6018515 -1.3184139 -0.07806266 0.5627249
-0.093842864 -0.12703425 0.025371341 -0.15226987 -2.1868138 -3.17461 -2.6468136 -2.9294586
0.37905255 -3.0717058 -0.025408266 0.30077356 0.009778032 0.45788598 -0.625377 0.2563132
-3.4258363 -1.239062 1.2468599 -0.28689235 1.0598409 -0.93914074 -0.0887561 -0.20887832
0.3415932 -0.013225681 -0.3358802 0.22457951 5.5155253 5.8797064 5.513619 5.68333
4.2226806 1.5461984 0.06999369 -0.057699006 -0.12295766 0.10680316 -0.08505415 -0.018952945
0.9908451 0.81226325 -3.6299517 -2.6671844 -2.7371519 1.8038536 0.092003234 0.044625413
0.23398602 0.16602959 0.09224068 -0.13941146 -5.1178527 -5.058014 -6.8053308 3.338345
-6.0141253 -6.958518 -0.09679176 0.019096091 0.035204817 0.12041057 -0.06724244 0.03425655
3.128805 5.0011396 -4.5614285 1.510524 0.4935713 -2.4760928 0.04788229 -0.010991492
0.022885073 0.04800933 -0.14089778 -0.08791385 -5.164313 -4.60549 4.005869 -0.9538242
-0.42292476 0.44633526 -0.004454677 0.2260998 -0.15583465 0.08492596 -0.23999725 0.035284605
5.8244634 -4.7516837 0.027144684 3.258869 -4.5872216 3.9325845 0.014634537 -0.0955846
-0.029437372 0.061353873 -0.124776565 0.020537551 -1.8045285 1.3014116 -0.0069423155 1.4641451
-3.031536 2.6201544 -0.028452048 0.19313869 0.0377394 0.30777046 -0.49026734 0.18067013
0.017796472 -3.068122 -5.21065 -5.939631 -4.7084384 -6.666894 0.038166642 -0.21006383
0.03425495 0.2227732 -0.2602112 0.2032743 -0.78187776 -0.097237535 -1.7646867 -2.7656496
-2.3005376 -2.2499979 -0.151004 0.17530502 0.21586746 -0.008249564 0.1135598 -0.111288235
-0.8371553 2.3246343 2.0466633 0.9223626 1.7668834 -4.1826825 -0.105147175 0.3369068
0.1183606 -0.029591646 0.30051956 -0.63381976 3.3167865 -2.232612 -0.68214804 1.5473601
0.20111597 -4.223169 0.2685708 -0.30744886 -0.31004417 -0.102590986 -0.055708136 -0.10015069
-2.3859224 -0.1970687 1.2007124 0.387479 0.6879524 -2.3668308 0.020086976 0.13522024
-0.35192874 0.15282501 0.21310668 -0.10361108 0.021835342 4.9553103 1.9399176 5.9290833
5.859296 5.708437 -0.0011631713 0.06010166 0.109630704 0.07010239 -0.09341795 0.07143367
5.205917 -3.3828478 1.6760521 -1.623674 2.7318141 -1.6216264 -0.040554218 -0.022905933
0.047437485 0.17559394 -0.17094083 -0.03469913 0.6652465 2.7577124 -5.575078 -2.5026758

fc1.bias f4 [24]
00000000: 9502 b13e da40 ac3d 546a b7bb dedb 78be
00000010: b411 8cbe 633a 883e 28ae 80be 2e9e 4c3e
00000020: 0389 48be 6ba5 aabe 3533 7dbd 9224 e8bd
00000030: 9396 693d 6e6a 943e a912 213d d844 46be
00000040: a90d 8b3e 72d2 24bf a1b2 643e 59ad d23d
00000050: 24e7 c3bb e555 02be 83d2 6dbc 2b07 633e
0.34572282 0.08410807 -0.005597392 -0.24302623 -0.27357256 0.26607046 -0.2513287 0.19982216
-0.19583516 -0.3332933 -0.061816413 -0.113351 0.057028364 0.2898745 0.039324436 -0.193622
0.2715886 -0.64383614 0.22333767 0.1028697 -0.005978482 -0.12728079 -0.014515522 0.22170703

fc2.weight f4 [12, 24]
00000000: 07ce 37bf 829b c53e 4e64 11bf c830 f6bf
00000010: 00c9 103e 0ead 8bbd c216 8b3d 73f7 6740
00000020: 660e 11be 3e72 3ebf 52a0 023f 63b1 88be
00000030: cfac 27c0 dbd1 ccbf b703 f6bf 8e45 36bf
00000040: b2ae bc3e b117 023d 6dbd ecbd d2ca 4640
00000050: 1f88 ed3f 5d4f 1d3e 99f3 ee3e 6070 31c0
00000060: 7288 8c3d fbb8 dabe a326 743c b6a0 013d
00000070: 807e 50bf 4f9f 7d3e cb36 6dbe 6dbf c1bd
00000080: 5793 983d 94b2 183f 1a9c 5fbc d307 b73e
00000090: e0bb 96be c622 d8be ed99 cdbe c4be d9be
000000a0: b073 8d3e 4288 aebe b472 a1bd 0c94 023d
000000b0: 0d4c 8d3e 1af8 053e 8976 0dbe bb6a bcbd
000000c0: a6d6 82bd 7bd0 3dbf 398a 0bbf cbf5 0fbe
000000d0: af4e d7be bcc1 2a3f 8a16 14be 292a 80bf
000000e0: 8012 fabe 7d0f e4be a93c f3be 5ef7 c53d
000000f0: 88f5 0d3c 236a d0bf 11ed c33d 56b3 3b3d
00000100: 5d0a 183f 5f3c 8b3c 4a2e d6be 0345 503e
00000110: bd63 12bf 814c a73e dfe7 c23b 4274 82be
00000120: 603e 5dbe f5f1 533f 986e cfbf 2b66 4f40
00000130: 5a66 69bd f25e 89bf ae86 603f a767 4d40
00000140: 99d9 3a3e 350e 1ac0 dc4a 3ebf 7178 b23f
00000150: 0f07 4dc0 5773 853e 5896 debf 029d 33be
00000160: 31e3 903d 0cc5 c6be ad02 a63e 12d5 2140
00000170: 03f3 21c0 750a 33bf 3913 debe f838 583d
00000180: 04ef 253f 0423 f43e cf93 13bf bd92 fcbf
00000190: e54f 46bf 7e55 12be 0ff3 833e b791 993f
000001a0: c4b8 0bbf 7e55 99bf 45c9 00c0 6ec2 303f
000001b0: a626 3740 a23f c3bf ab8f 06c0 add2 f1be
000001c0: 4d07 8fbf 0f68 013e 762e 72be 22be 3040
000001d0: 60d9 0a40 472f c8bf 56e5 fe3f b3bd 0ac0
000001e0: ca5f 00bf 799b 7ebf 9ab0 ed3e 3c92 6d40
000001f0: fc50 833e 36ac b9bf b567 f2be 7b0a 9540
00000200: ad9b 873e 4f0b 27c0 9684 8c3e 61f2 8cbf
00000210: a067 cc3f 8194 4d3f edb3 4fbf 8e44 803d
00000220: ce84 fe3e cba9 c03e 686f 98bd 5d99 e33d
00000230: 5bc2 273e 35ab c3bf b252 af3f d4dc 92bf
00000240: d7aa 94bf 5bc3 1e3e fce6 f83f 4f31 46bf
00000250: cc0e 30be e911 9e3f 2f10 ad3e 0031 d63e
00000260: 766f adbe 9e90 5740 560b c7be e6d4 fd3d
00000270: 69b0 b7bf 20fd fbbe 7840 4740 e2e9 e03e
00000280: a71d 953f ee18 ea3d 2b5c ed3e 8dd3 6fc0
00000290: c300 933f 191b e5bf d6d4 3abe a6a1 da3f
000002a0: 4e81 2d3f 91e0 6c3d d983 503e 58ac b5bd
000002b0: 35c3 043f b7af 763e 3b39 c4be 3247 cc3f
000002c0: 212b c7be e2f0 733f e728 c0be 04c8 30bf
000002d0: 8cfd a9bd 17e2 e0be 0812 283f 092a bdbe
000002e0: c48a 593f 7b55 12bd c064 2abd 1648 3bbc
000002f0: 263a 993e 8b33 cabe baf2 58be 9aca 16be
00000300: c3e5 b9be 4b30 00bf 7b15 85bf 3804 1f3e
00000310: 6099 92bc fe18 37c0 04c7 8dbe aeb7 9140
00000320: 7c5f 07bf b5da 3740 8255 ad3f 1f4f fabe
00000330: 85ca 1640 dc2f 1540 ad2f 4fc0 a79d 37bf
00000340: 155f 8e3e 291e 94bc 9c7e 15bf 7d90 8640
00000350: 8667 6ec0 633a 97bf 0e7e 513f d2e7 11c0
00000360: d3db f33d f131 a0bf 03b2 6a3d 448c fcbc
00000370: 2030 fb3e e9bc 6abf 2773 78bf a411 6e40
00000380: 7591 293f 77cc 21c0 c78c 983f ddb9 06c0
00000390: d48f 613f e09c 9dbe 339a 2bbf 1a5b 713e
000003a0: d13c dcbe 37fe f63e 5ec8 adbe 8235 e43f
000003b0: 6469 ce3d 6b41 1440 8974 47bd 2775 2fc0
000003c0: 9cfc 9f3d 9197 cabe a2cb ccbe 298b bfbd
000003d0: 3438 153e 0eac 94bd a2bc 1a3f f9d7 c6be
000003e0: db38 b4be 2fd8 7cbf 2aab 2bbe 5d21 8a3c
000003f0: 56da 17be 4326 69bd 2b31 0a3e 1827 293f
-0.7179875 0.38595206 -0.5679368 -1.9233637 0.14139175 -0.06820117 0.0679145 3.624478
-0.14165649 -0.7439307 0.5102588 -0.26697835 -2.6199224 -1.6001543 -1.9219884 -0.7119988
0.36852032 0.031760875 -0.115595676 3.1061292 1.8557166 0.15362306 0.46670225 -2.7724838
0.068619624 -0.42719254 0.01490179 0.031647407 -0.81443024 0.24767803 -0.23165433 -0.0946034
0.07449978 0.5964749 -0.013648057 0.35748157 -0.29440212 -0.4221403 -0.401565 -0.42528355
0.27627325 -0.3408833 -0.07883206 0.03187947 0.27597085 0.13082924 -0.13814749 -0.09200045
-0.06388597 -0.7414624 -0.54507786 -0.14058606 -0.42052218 0.66701865 -0.14461723 -1.0012866
-0.4884224 -0.44543067 -0.47507218 0.09666322 0.008664496 -1.628239 0.09566701 0.045825325
0.59390813 0.01699656 -0.4183219 0.20338826 -0.5718344 0.32675555 0.0059480513 -0.25479323
-0.21605825 0.8279107 -1.6205626 3.2406108 -0.056982376 -1.07321 0.87705505 3.2094514
0.1824707 -2.4071171 -0.74332976 1.3943006 -3.2035558 0.2606456 -1.7389631 -0.17540362
0.07074583 -0.3882221 0.32423916 2.5286298 -2.5304573 -0.6993783 -0.4337404 0.052788705
0.64817834 0.47682965 -0.57647413 -1.9732281 -0.7746566 -0.14290425 0.25771376 1.1997594
-0.54578805 -1.1979215 -2.0122845 0.69046676 2.861734 -1.5253794 -2.1025188 -0.47231045
-1.1174103 0.12637351 -0.23650536 2.7616048 2.1695175 -1.5639428 1.9913738 -2.1678283
-0.5014616 -0.9945598 0.464238 3.7120504 0.25647724 -1.450568 -0.47344747 4.6575294
0.2648596 -2.6100652 0.27444905 -1.1011468 1.5969124 0.80304724 -0.8113392 0.06263076
0.49710697 0.37629542 -0.07443124 0.11113236 0.16382734 -1.5286623 1.3697112 -1.1473641
-1.1614636 0.1550421 1.9445491 -0.7741899 -0.17193145 1.2349216 0.3380141 0.4183426
-0.338741 3.3682017 -0.38875836 0.12394123 -1.4350711 -0.49216557 3.1133099 0.43928438
1.1649674 0.11430536 0.4635938 -3.747287 1.1484607 -1.7898895 -0.18245253 1.7080581
0.6777543 0.05783135 0.20362796 -0.088707626 0.5186036 0.24090467 -0.38324913 1.5959227
-0.38900092 0.95289433 -0.37531206 -0.690552 -0.08300313 -0.43922493 0.65652514 -0.36946133
0.84977365 -0.03572605 -0.04159999 -0.011430761 0.29927176 -0.3949245 -0.21186343 -0.14725724
-0.36308107 -0.5007369 -1.039718 0.15528953 -0.0178954 -2.8609004 -0.276909 4.553672
-0.5288007 2.8727238 1.354172 -0.4888849 2.3561108 2.331046 -3.237285 -0.71724933
0.27806917 -0.018080788 -0.58396316 4.2051377 -3.7250686 -1.1814693 0.8183297 -2.2797742
0.119071625 -1.2515241 0.05729867 -0.030828603 0.49060154 -0.91694504 -0.9705071 3.7198267
0.66237575 -2.5281045 1.1917962 -2.1050942 0.8811009 -0.3078375 -0.67032164 0.23569909
-0.4301515 0.48240826 -0.3394193 1.7828829 0.100786954 2.3164928 -0.04869512 -2.7415254
0.07811853 -0.3956876 -0.3999911 -0.093527146 0.14572221 -0.07259379 0.6044408 -0.3883665
-0.35199627 -0.9876737 -0.16764513 0.016861612 -0.14829382 -0.056921255 0.13495319 0.6607528

fc2.bias f4 [12]
00000000: 8216 a2bd ec23 57be 3f13 07be 4c33 703d
00000010: f91a 21be b0df 7fbd 4103 043e ca80 a13e
00000020: b9ec 5c3e f1f9 c63e ba15 24be 98ad 1bbd
-0.07914449 -0.21009797 -0.13190936 0.05864267 -0.15732946 -0.062469184 0.12891866 0.3154357
0.21574678 0.38862565 -0.16023913 -0.03800735

fc3.weight f4 [6, 12]
00000000: 379f 8fbd df72 e1be 2dbb e73d f851 23c0
00000010: dce4 823e b034 753f ba81 983e d505 543e
00000020: 7c91 0abf 132c a03f ed84 8a3e 3be7 23bf
00000030: b6ba f43d 5fc1 6abf c2f9 f43d 3e3b ba3f
00000040: 6f67 75c0 089e e63e 69d2 d93e 3a59 d63e
00000050: 38df 933e 89ba 7f3f 0047 3bbf 00f7 583e
00000060: 6cde e5be 584e c03e 8393 56be 03d1 a73f
00000070: a1e3 bb3e 682a 363f 0bcf 383f c8cd 9d3d
00000080: 49e6 25bf a29a ffbf 2c48 ac3f 223e 02c0
00000090: 4b84 963e c906 9f3f 7f81 2dbf 1db9 80bf
000000a0: 4646 493f 394a 4bbf 2395 a93f 31ef 193e
000000b0: e2f2 1f40 374c 46bf 404d 4ebf 99e0 013f
000000c0: 9954 1d40 1729 5bbe 2c08 233f c3cc 2a3e
000000d0: 450c 0e3f 3fc2 f6bf 4726 ec3d 2a85 923e
000000e0: 21c1 9dbf 444f 043f e448 75bd e79e 9f3d
000000f0: 1424 26c0 aa88 bdbb 99a7 6a3a 1012 43bd
00000100: 21f9 1f3f 8d11 2fbf 4b84 56c0 3962 97bf
00000110: 2bec f3bd 4f79 3c3e bcd9 b4bd dc0b 8d3d
-0.0701279 -0.44032952 0.11314998 -2.551878 0.2556523 0.9578352 0.29786474 0.2070535
-0.5412824 1.251345 0.2705454 -0.64024705 0.11949675 -0.9170131 0.119617 1.4549329
-3.834438 0.45042443 0.42543343 0.4186495 0.2888124 0.99894005 -0.7315521 0.21187973
-0.44896257 0.37559772 -0.20954709 1.311066 0.36697105 0.71158457 0.7219092 0.07705265
-0.6480451 -1.9969065 1.3459525 -2.0350423 0.29397807 1.2423946 -0.6777572 -1.0056492
0.78622854 -0.7941013 1.3248638 0.1503265 2.4991994 -0.77460045 -0.80586624 0.50733334
2.4582884 -0.21402393 0.63684344 0.16679673 0.5548747 -1.9278029 0.11530738 0.2861722
-1.2324563 0.5168345 -0.059883967 0.0779398 -2.595952 -0.005784114 0.00089513656 -0.047624648
0.62489516 -0.68386155 -3.3518245 -1.182685 -0.1191028 0.1840565 -0.08830592 0.068870276

fc3.bias f4 [6]
00000000: 9585 013f bfc6 023f 10ad de3e 14cf 3f3d
00000010: dc69 35be e037 d93e
0.50594455 0.5108451 0.4349141 0.046828344 -0.17716163 0.42425442
