ReputationOnly/Old result/Sigmoid_linearMSE_adam_43.pth (torch_old, 47071 bytes, 6 tensors)

fc1.weight f4 [120, 6]
00000000: 45e2 61bf 130a edbe 4afe 373d a9a4 94be
00000010: e073 83be 82fc 3f3f 030a c9bf 995c d0bd
00000020: 70ca 603f 1a26 883e 7aea 13be d387 2a3f
00000030: 29c3 833f 19b9 c9bf 2591 dbbf facc 933f
00000040: 93ad 0e3d 3d5e bebe 324d fcbd e1b5 213d
00000050: fa5f d8be 168e e6be 7ff2 1c3f b94d 7b3f
00000060: b290 1e3f 7279 133f 4ccb 473e e4a4 69be
00000070: 2cc9 a63e 7060 15be cf73 bd3e 28d8 093e
00000080: cd5b 8f3e f7d8 b13e 6db1 0cbe d861 a83e
00000090: d99a dabd 27a2 bfbe 0afe 20bf 942f ff3e
000000a0: 6b83 003f ee5e 94bd 7abf 9e3d 31a9 20be
000000b0: d30f 013f 46a2 203f f522 b9b9 63c3 633e
000000c0: 1e0a 7c3f c387 8dbf 2fa0 9f3e 9872 9a3f
000000d0: f584 dfbe eb1c 80bc 307e c23d 7c26 0c3f
000000e0: 07a3 04be 000e 24be 1aa3 b83d 8f0a 403e
000000f0: 1365 a3bf 291f 2a3e 99f3 243e 20bb cdbd
00000100: 7b42 333f f856 fcbd eac3 fb3e bd4b e13d
00000110: f452 84be 1a57 73bf b522 463f e0cb 9fbe
00000120: 92ac 3dbf 1778 d83b cc14 b83c f3f5 593d
00000130: 6e87 9e3d 8ead 273e a9b2 45bd 57a2 f43e
00000140: f62f c1be 7bff e23e 6244 213f ac05 44bd
00000150: f9d4 1e3d 1c5a 88be 008a 4d3d 57b9 abbe
00000160: 1c64 e83f da00 a4be fc0b d63e 80c6 80bf
00000170: 21a7 fcbe bc44 833f 6e56 abbf 2470 bfbd
00000180: fc20 2840 bfa3 d5be e56e fcbc bda7 853e
00000190: 6f03 05bf 8ece 6b3e 0b9e 84bf 1f7a c73e
000001a0: 6396 9ebe cb64 e4be 9513 b03f 4263 47be
000001b0: 691d b13f 2403 2f3e d427 f53e a2b6 18bf
000001c0: 3c7d 03bf a976 9cbe f4bc 793e 4a93 09bf
000001d0: 8d59 873e d68f 8dbe cdde 71bc 4af8 763d
000001e0: 4db9 08bf c0fa 453f 730c fcbe fd03 043e
000001f0: 2479 fb3e 6812 e73e ac36 9bbe af0e 8c3e
00000200: 62e5 cb3e bba3 e03e 3977 a1be e037 dabe
00000210: 64d2 ffbf aebf 313d 54ec 5e3f 4ba8 e03c
00000220: 51e3 b13e bfd9 ac3c 0a54 c33d 0020 003e
00000230: bc2d 0abe e375 6bbe a81e 1bbd 2e76 b83e
00000240: 9afb 063d 6c89 f2bd 8280 1c3f ab6f 243e
00000250: 4987 ebbe 9344 1f3d 2223 943f dcac 10bf
00000260: 3bf2 29bf 107b 3dbf c017 a43f 195e ccbd
00000270: 8d7b 033f f63a 953d 9cdf 5e3e a808 243f
00000280: 2d27 c9bd e729 7e3e fbe5 02bf b7ca 35bd
00000290: 7f02 873f 240b a73f dcb8 283d d38e 893e
000002a0: 25e5 8abf 3497 e53d 83b0 edbe 4061 5dbe
000002b0: 198b 0fbf 2a5a a03f 35ea 3fbe aa8c 85bd
000002c0: dfe7 22bf 9800 d93e 8fa0 163f 099d b03d
000002d0: c2b7 ecbd b6de 1e3f 2563 c1be 186c 8c3f
000002e0: eaea a6bd b18d 8d3e ae10 40bd c339 cd3e
000002f0: d574 5bbf b1b8 933e f332 cc3d e8e1 85bf
00000300: e80e c8bf a12a d7be bf60 4b3f 8f0b 52bd
00000310: bf8a 953f 13ce 7b3d 92c1 353f 5ddc 273c
00000320: 96a8 a8bd 42d2 813e 0dcf d2be 0560 7a3e
00000330: fab9 2fbe a8b1 383f a728 adbe c499 863f
00000340: 78ee b7bd b12a be3e 1f9f 47be df40 8d3e
00000350: 258c a93e 54e4 743f 946f 26be efd5 013f
00000360: f9d1 0abf 3727 c03f 89e1 4fbe ee28 133f
00000370: 7bfd 91be 15f0 9e3f 3d1b 343f 6851 263d
00000380: c702 0abf 8da1 ec3e 4fc3 c33f b9fe 91bf
00000390: 4cc9 6d3f 53ea 91bd 11c3 86be 93b0 f33e
000003a0: 9919 5a3e b04f 8a3e 13e0 b9bc d679 5e3e
000003b0: 9251 40bf f5bb 1f3f 4c33 d3be 1fbd 1dbe
000003c0: 8e0b 743d c7da d2bd 6d61 adbe 70e7 023e
000003d0: 4656 4abc 95ef d13e 1a91 bf3d fd43 c33e
000003e0: 2f19 3c3e 6b40 043e 68a8 283e 9bff e13d
000003f0: 5757 ff3d 3e8a b73e acbc 903d f26e cebe
-0.88235885 -0.4629675 0.044920243 -0.29031876 -0.25674343 0.7499467 -1.570618 -0.101739116
0.87808895 0.2659157 -0.14444914 0.666135 1.0293933 -1.5759612 -1.715367 1.1546929
0.034833502 -0.37181273 -0.12319411 0.039480094 -0.42260724 -0.45030278 0.6130752 0.9816547
0.6193954 0.57607186 0.19511145 -0.22816807 0.32575357 -0.14587569 0.37002417 0.13461363
0.27999726 0.34735844 -0.13739558 0.3288715 -0.10674066 -0.374284 -0.6288763 0.49840987
0.5020053 -0.07244669 0.07751365 -0.15689541 0.5041477 0.6274761 -0.00035311995 0.22242503
0.9845294 -1.1057056 0.31176898 1.2066221 -0.43656126 -0.01563879 0.094967246 0.5474622
-0.12952815 -0.16020966 0.09015484 0.18754028 -1.276522 0.16613449 0.1610855 -0.10045457
0.70023316 -0.123212755 0.49172908 0.11000774 -0.25844538 -0.9505478 0.7739671 -0.31210232
-0.74091446 0.0066061127 0.022470854 0.05321307 0.07740675 0.163748 -0.048266087 0.47780105
-0.37731904 0.4433554 0.6299497 -0.04785697 0.038777325 -0.26631248 0.050180435 -0.3353984
1.8155551 -0.320319 0.41806018 -1.0060577 -0.4934626 1.0255351 -1.3385751 -0.09347561
2.6270132 -0.4172649 -0.030814597 0.26104537 -0.51958364 0.23028013 -1.0360731 0.38960359
-0.3097411 -0.4460815 1.3755976 -0.19471458 1.38371 0.17091042 0.4788195 -0.59653676
-0.5136297 -0.3055928 0.24388486 -0.5374037 0.2643551 -0.276488 -0.0147625925 0.06029538
-0.53407747 0.7733574 -0.49228248 0.12892146 0.4911586 0.4513123 -0.3031515 0.27354953
0.39823443 0.43874916 -0.31536272 -0.42620754 -1.9986081 0.04339569 0.8707936 0.027423998
0.3474374 0.021099923 0.095375136 0.12512207 -0.13494009 -0.22994189 -0.037871033 0.36027664
0.03295479 -0.118426174 0.6113359 0.16058223 -0.46001652 0.038883757 1.1573222 -0.5651376
-0.6638524 -0.74015903 1.2819748 -0.09978885 0.513604 0.072866365 0.21764988 0.6407571
-0.09821925 0.24820672 -0.5113217 -0.044382777 1.0547637 1.3050275 0.04119192 0.2686678
-1.0851179 0.1121048 -0.4642373 -0.21619129 -0.5607162 1.2527516 -0.18741687 -0.0652097
-0.6363506 0.42383265 0.5883874 0.08623702 -0.115584865 0.6205858 -0.37770954 1.0970488
-0.08150275 0.27647164 -0.046890907 0.4008313 -0.85725147 0.28851846 0.09970655 -1.0459566
-1.5629549 -0.4202471 0.794445 -0.051280554 1.1682967 0.061475825 0.7099849 0.01024541
-0.0823528 0.25355726 -0.41173592 0.24450691 -0.17160788 0.7214608 -0.33820078 1.0515676
-0.08981031 0.37141946 -0.19494294 0.27588555 0.33114734 0.956609 -0.16253501 0.5071706
-0.5422664 1.5011967 -0.20300879 0.5748433 -0.28513703 1.2417017 0.7035406 0.04060498
-0.5391049 0.46217003 1.5293978 -1.140586 0.9288528 -0.07124772 -0.263207 0.47595653
0.21298827 0.27013922 -0.022689855 0.21726164 -0.75124466 0.62396175 -0.41250074 -0.15404175
0.059581332 -0.10295635 -0.33863392 0.12783599 -0.012349671 0.410031 0.09353848 0.38137808
0.18368982 0.12915199 0.16470492 0.11035081 0.12467831 0.35847658 0.07067236 -0.4031902

fc1.bias f4 [120]
00000000: 2937 c03f daff efbd 7d1d 693f 010b a03e
00000010: 636b ae3e c88b 81be 7a99 7fbe 4000 2cbe
00000020: 6173 8cbf f9ed 0a3e b837 8b3e 8768 0e3f
00000030: c6dc 6abd eb6d 36bf a79b 403f 2328 833f
00000040: ac18 743d a390 3ebe d658 133f 4e3c cebe
00000050: fd60 b3be b431 9d3d 4882 cbbe 7b73 4a3e
00000060: ad05 c5be 6245 8e3f 3b95 08bf 4eb0 87bf
00000070: 959f 0040 e9f2 da3e 5dfb 2ebf 3dc3 b5be
00000080: 116e f3be 4d5b 0e3e 8bae 36bf 1d76 04bf
00000090: 460c 87bd 605a 7a3f a0fd 12be 94b7 98bb
000000a0: a4ea 20bd de2b bebe d292 983e 485c e7bd
000000b0: b67e be3e 208b 1240 3508 af3e a282 afbe
000000c0: 3898 e93d c7b3 6fbe 8c64 0a40 ada3 2bbf
000000d0: d6f9 613e 663e 0cbf 0005 8abd 87b7 35bf
000000e0: 11f3 93bf 70ae 23bf 22ee cbbf 942a cf3e
000000f0: 597c 2f3f d4fb debe 1dcc b83f 4e35 65be
00000100: 3f13 5d3f f677 9bbe 1cc4 c6be 631e 853f
00000110: c780 33bf 9aa5 173f f961 823e 7951 91be
00000120: 2ac1 f83e ad98 f83f 3781 febe b2c6 d03f
00000130: d7a1 a53e beea d13e 62c3 fbbd ddb0 0dbf
00000140: c783 44be 645c 1a40 6188 9ebd bd5d d6bc
00000150: cce0 8d3e 7e44 b03e bd55 9abd 1d0e 5b3f
00000160: 0135 fa3d 5eba 8b3d eec6 023e d6d7 453f
00000170: 2763 0c40 e460 aebe 7437 e93e 3ad6 c43e
00000180: 248e c53f 53d2 f33b 32a0 06bf ce18 ef3d
00000190: 65b2 64bf 38cb aabe 3eab e4be 5939 8cbf
000001a0: 9437 adbe f627 fdbe ca9e 15bf 7a83 82bf
000001b0: 6285 b83e 5950 603c 82a1 e93e 656c 673d
000001c0: f9e7 9ebf e490 95bf 9a4d 58be 274c 06bf
000001d0: 7b06 f13f ca7c 8dbe 6910 35bf aa42 4c3f
1.5016834 -0.11718722 0.9106062 0.31258395 0.34066305 -0.25301957 -0.2496089 -0.1679697
-1.0972711 0.13567342 0.27190948 0.55628246 -0.057339452 -0.7126147 0.75237507 1.0246624
0.05959384 -0.18609862 0.5755743 -0.40280384 -0.35034934 0.07675496 -0.39747834 0.19770615
-0.38480893 1.1114924 -0.5335271 -1.0600679 2.00974 0.4276345 -0.683523 -0.35500517
-0.47544912 0.13902016 -0.7136008 -0.51742727 -0.06594138 0.9779415 -0.14354563 -0.004660556
-0.03928627 -0.37142843 0.29799515 -0.11296898 0.37206048 2.2897415 0.3418595 -0.34279352
0.114059865 -0.23408423 2.162387 -0.67046624 0.22067961 -0.5478271 -0.06739235 -0.70983166
-1.1558553 -0.63938046 -1.5932047 0.40462172 0.68549114 -0.43551505 1.443729 -0.22383615
0.8635749 -0.3036496 -0.38821495 1.0399898 -0.70118374 0.5923706 0.25465372 -0.2838247
0.48584872 1.9421593 -0.49707958 1.6310637 0.32350037 0.40999407 -0.12293126 -0.55347997
-0.19190894 2.411889 -0.07740856 -0.026167745 0.2771057 0.34427255 -0.075358845 0.8556841
0.12217141 0.06822656 0.12771198 0.77282465 2.1935518 -0.34058297 0.4555012 0.38444692
1.5434003 0.007440844 -0.5258819 0.11674653 -0.8933471 -0.3335817 -0.44661897 -1.0955001
-0.33831465 -0.4944455 -0.5844542 -1.0196373 0.36039263 0.013691031 0.45631033 0.056499857
-1.2414542 -1.1684842 -0.21123353 -0.5245995 1.8830103 -0.2763427 -0.70728165 0.7978922

fc2.weight f4 [84, 120]
00000000: ba2c 7a3e 2082 0c3e 557c 7f3d 02c4 6ebe
00000010: f028 a23d 6b8a 833d e690 fdbd a4a1 a03d
00000020: a20b 89bd 7003 75bd b7c0 9cbe 9954 1c3d
00000030: 2674 47bd cc20 9cbd 139a 0cbf e1cd df3e
00000040: f7e0 123e 1c05 5cbd 7c30 093d 5f95 ff3d
00000050: 0b85 23be 8370 a1bc 7a9e 7bbe 9da6 e4bc
00000060: c623 403d 14e0 2abe 4d04 59bd 373a 11bd
00000070: 3f74 fe3d 8310 9abd ad9f 15bd 9e84 cdbd
00000080: 3765 c4bd 9222 2d3d 85f1 a6bc 00fc 143d
00000090: 3f61 98bc c15a 3ebe f5d3 1b3d 898e 0a3d
000000a0: e381 263e 76e3 2a3d 9e25 8a3e 09cc d3bd
000000b0: 7290 7e3d 8892 5dbf f3d4 103e a9c3 353e
000000c0: e575 c53d 3e0e 803d b0a0 2bbf 3cad 783c
000000d0: c329 9a3e a9eb 9c3c 3bf3 03be 3a89 2abe
000000e0: dc57 f0be 6019 5fbd 0f0e 5ebd 414b eabb
000000f0: 90d4 e53d aa45 893d a277 aebe 73f9 8cbc
00000100: 3fc2 d43e b62f 57bd 1f77 90bd 73d5 c1bd
00000110: d884 68bd da0f 743e 0f5c 153e 1e2d f33d
00000120: 46c1 aebd ce8f e03e cb24 33be ab13 0c3e
00000130: 2905 8abb 1a7a 49be 5634 36be d82c 103c
00000140: 7570 8bbd f923 063d 12ab 953d c94e 8ebc
00000150: 8e6d 543d d3a5 9bbd a7a5 703d 8e3e edbb
00000160: 8485 f3bd 4633 053e 6949 9dbc 43d2 733e
00000170: d787 6bbe 0e84 44be b9a2 a03c e1df 4d3d
00000180: 6b20 ddbe bdf2 213d dd2b 1c3e 0fc6 0eb8
00000190: aa20 6bbd 4e4b dfbd b10b 9fbd 8e99 b0bd
000001a0: 26ec c63b 6686 98bd 6a5e e1bd adfd 713d
000001b0: 6c39 1c3d a776 1fbf 7f23 5dbe 0689 a2bd
000001c0: fb2e 5e3f cfca 6d3e 4567 da3d a319 d5bd
000001d0: 5da2 aabe 1b0d 40bd 1299 133f 7d9d 3b3e
000001e0: f21d ca3e e5d0 2c3e 3ae3 22bf 6f79 113e
000001f0: d57e 8bbe 8866 cfbe 3a36 d03d 5308 ffbd
00000200: baeb 39be 42af 8cbe 17d5 773e a7c4 d4be
00000210: 7180 a53d d3a7 bfbd 19fe 523e 6ce8 4fbf
00000220: 781f 0fbf 2dc8 1e3e 3ea3 89be 0e7d 4abe
00000230: fbbc 7c3d 93bb 433e cc10 cf3e a968 46be
00000240: 3303 bb3c 8ff5 5ebf a4db 99be 64f7 523e
00000250: ed0f d53e 9ea7 263d 4335 10be 31ab a9bd
00000260: 7c71 a53e 52ad b2be 62cf e53b 9fa5 6f3b
00000270: eaea d3bd f7f5 7f3e 03b3 25bf dc4e 56be
00000280: 9a77 99be 1ff3 adbe 825b ba3e 817a c3bd
00000290: 39c5 79be 8427 e03e aefc b0bd 6c7b d83c
000002a0: 5323 12bf 20e9 b0bd f824 f53f 17a3 c5bd
000002b0: f977 49be b26a 3c3e 5d87 653f 7a6b 113f
000002c0: 427f 433e caff 923d d81f 04bf c810 0a3f
000002d0: 8419 66bb 1b39 44be a301 213f d24b 2c3d
000002e0: a414 e1bd 5a79 f83d 47bf 20bf bfbc 463e
000002f0: e6fd ad3f 8f05 7f3e 4a09 86bc 1b80 43bf
00000300: 310e dcbe 3422 7ebd 88b1 903e 5f2d 29be
00000310: 45f1 863e c587 8f3f 32e6 f33d 25b4 74be
00000320: 68b9 32be 77ce d5bd 4970 27bf f096 853e
00000330: fd18 33bb 2fa4 4b3f f048 0d3f 5661 2e3e
00000340: 80ec 5b3e e6d1 0c3e 1899 62be d90c 4dbd
00000350: cce8 ea3f bc62 823e 0595 803e a735 033f
00000360: 5729 323f e882 18bf 4f13 f8bc d1f3 8ebe
00000370: fe52 c5b9 f692 e7bc 5015 203e d686 35bf
00000380: dbd7 ecbc ef4c cabe bbb1 21bd 9851 88be
00000390: e93c aebc d270 a33e 9c91 063f 9816 92be
000003a0: fb68 8fbf 7982 153f 9552 cebe b9ee 1a3e
000003b0: e155 4a3f 0427 5b3e 5b05 523e c90c 8fbe
000003c0: dd52 803d 5bcc dabb c3c6 9f3d 7f9c a03d
000003d0: e55d b63d fc15 6a3d d739 123d ef91 413d
000003e0: dd0f cb3d 5bef 963d f5a2 c1bd d9d6 a2bc
000003f0: 43a6 e43d a5b0 3abd ebd0 54bd 8f06 863d
0.24431124 0.13721514 0.06237443 -0.23316959 0.079179645 0.064228855 -0.12381153 0.078433305
-0.06691672 -0.05981773 -0.3061578 0.038166616 -0.048694752 -0.07623443 -0.549226 0.4371176
0.1434363 -0.05371581 0.033493504 0.12479662 -0.1596872 -0.01970697 -0.24572173 -0.027911479
0.046909116 -0.16687042 -0.052982617 -0.03545591 0.12424516 -0.075226806 -0.03652923 -0.1003506
-0.09589618 0.042269297 -0.020378837 0.03637314 -0.018601058 -0.18589307 0.038043935 0.03382734
0.16260485 0.04172083 0.26981825 -0.10341651 0.062149473 -0.86551714 0.14143734 0.1775042
0.09641627 0.062527165 -0.67042065 0.015178021 0.30109987 0.01915534 -0.12885754 -0.1665391
-0.4694203 -0.05446756 -0.054212626 -0.0071500842 0.11222184 0.067027405 -0.34075648 -0.01720879
0.41554448 -0.052535735 -0.070539705 -0.0946454 -0.056767315 0.23834172 0.14585899 0.1187384
-0.08532958 0.43859714 -0.17494504 0.13679378 -0.004212041 -0.19675484 -0.17793402 0.008799754
-0.06808559 0.03274915 0.0730802 -0.017371552 0.051862292 -0.07599988 0.05875173 -0.007240123
-0.118907005 0.1300784 -0.019200044 0.23810677 -0.23001038 -0.19191 0.019608842 0.050262336
-0.43188795 0.039538134 0.15251108 -3.4039895e-05 -0.057404198 -0.10903035 -0.07765902 -0.08623038
0.0060706316 -0.074475095 -0.11004336 0.059079815 0.0381407 -0.62290424 -0.21595572 -0.079362914
0.86790437 0.23221897 0.10664228 -0.104052804 -0.33326998 -0.0468875 0.5765544 0.18321796
0.3947597 0.16876562 -0.6362797 0.1420648 -0.27245203 -0.40507913 0.10166593 -0.124527596
-0.18156329 -0.2747746 0.24202381 -0.41556284 0.08081139 -0.09358182 0.20604743 -0.8121402
-0.5590739 0.15506049 -0.26882356 -0.19774267 0.061703663 0.19114523 0.40442502 -0.19375862
0.022828674 -0.8709344 -0.30050385 0.20602185 0.41613713 0.040687196 -0.14082818 -0.08284605
0.32313144 -0.34897858 0.0070132473 0.0036567224 -0.10347541 0.24996172 -0.64726275 -0.2092852
-0.2997406 -0.3397455 0.3639794 -0.0954485 -0.2439164 0.43780148 -0.08641945 0.02642604
-0.5708515 -0.08638215 1.9151907 -0.096502475 -0.19674672 0.18400076 0.8965967 0.5680462
0.19091514 0.07177694 -0.5161109 0.53931856 -0.0035110423 -0.19162409 0.6289312 0.042064495
-0.10990265 0.12132521 -0.62791866 0.19407938 1.3593109 0.24904464 -0.016361851 -0.7636735
-0.42979577 -0.062044337 0.28260446 -0.16521214 0.2635595 1.1213309 0.11909141 -0.23896845
-0.1745354 -0.10439771 -0.6540571 0.2609172 -0.0027328127 0.795474 0.5518942 0.17029318
0.21476936 0.13751945 -0.22128713 -0.05006108 1.8352294 0.25465953 0.25113693 0.5125374
0.6959433 -0.5957475 -0.030282645 -0.27920392 -0.00037636602 -0.028268319 0.1563313 -0.7090887
-0.028911522 -0.3951182 -0.039476138 -0.2662475 -0.021269279 0.31922013 0.5256593 -0.28532863
-1.1203912 0.5840221 -0.4029738 0.15130128 0.7903729 0.21401602 0.20509855 -0.27939442
0.06265805 -0.006677193 0.07801583 0.07842349 0.08904628 0.057149872 0.03569969 0.047258314
0.09915135 0.07369872 -0.0945491 -0.019877838 0.111645244 -0.045578618 -0.051957052 0.0654422

fc2.bias f4 [84]
00000000: 266a 143d 1c1e e2bd a5d4 c33b 6433 b8bc
00000010: 7a6b 313d 9285 7dbd b1f1 acbc dc15 663d
00000020: 73d0 1e3d f413 163d 2a01 82bd 6ac0 04be
00000030: 408c e5bc dead 403d b201 1d3d ebcc d43c
00000040: 2a95 febb e93d d93d 3a7e b7bd 08de e73c
00000050: 5891 e33c 0390 c8bb b0fc 14bd f52d 0ebc
00000060: 3279 a7bd 7234 a03d df30 cdbd e853 8a3d
00000070: 6f6b 833c 5af5 8a3d fe79 21bc 655f 86bd
00000080: 7c93 e6ba 542a bcb9 dc7c 023d 6086 ccbd
00000090: 2903 4d3d c759 b2bd 6fbf 9dbd 3f55 83bd
000000a0: 9478 cb3b 0722 3ebd 8520 e03c ed55 5ebd
000000b0: 99f3 c6bc b603 05bb 69a2 fb3a 98e7 663d
000000c0: 9113 423c e265 abbd 058e 0d3c 94b7 5dbd
000000d0: 3a59 c2bd 8b53 c03d 0d5b a03d 6f22 113d
000000e0: dae3 9dbc 6988 b2bc da67 81bd 9f07 80bc
000000f0: 39d6 afbd 1911 d9bd 56cb a6bd 263c 84bd
00000100: cee8 3fbc 009f 47bd ec97 b9bc 7950 ee3c
00000110: d93b 603c 16eb f2bd 183f 4e3d 0253 073d
00000120: 4fa8 97bd 984f 873b 3f79 e33d fe49 97bd
00000130: d16a 0abe 88d9 9c3c 6374 a0bc d755 4ebc
00000140: 58ab 6a3b 3fa8 c83d 0a54 29bd 088c a03d
0.036234044 -0.11040899 0.005976277 -0.022485442 0.04331539 -0.06189496 -0.021111341 0.05617319
0.03877301 0.036640123 -0.06347878 -0.12964025 -0.028020978 0.047040813 0.038331695 0.025976619
-0.0077692466 0.106075116 -0.08959623 0.028304115 0.027779266 -0.006120683 -0.036373794 -0.008677949
-0.08177413 0.07822503 -0.10019087 0.06754285 0.01604244 0.06785078 -0.009855745 -0.06561164
-0.0017591561 -0.0003588969 0.031857356 -0.099865675 0.050051842 -0.0870853 -0.07702529 -0.06412744
0.0062094424 -0.04641917 0.027359257 -0.054281164 -0.024286078 -0.0020296401 0.0019198182 0.05637321
0.011845485 -0.08369042 0.008639817 -0.054130152 -0.09489675 0.093909346 0.078298666 0.03543323
-0.019273687 -0.021793561 -0.06318636 -0.015628634 -0.085857816 -0.10598964 -0.08144252 -0.06456785
-0.01171322 -0.04873562 -0.02265545 0.029091107 0.013686144 -0.11861245 0.05035314 0.033038147
-0.07405149 0.0041293614 0.1110711 -0.0738716 -0.1351731 0.019146696 -0.019586748 -0.012593708
0.0035807695 0.097977154 -0.04133991 0.07839209

fc3.weight f4 [6, 84]
00000000: b27c d43d 1fc4 a7be a31f a4bd 5d0a 4cbe
00000010: f1b5 3dbe 5fac ee3d 682a b9bd bbc4 23be
00000020: 272b 39be 4638 2dbe 845b 9fbd fd99 573d
00000030: f9a7 6abe c009 893d 565f 3fbe 2f95 40bc
00000040: a675 4a3d c4ec dd3d cb7a 4cbd 26ae abbd
00000050: 4a27 1a3c 4e20 0a3e 1d8b f33d d7a4 febd
00000060: 4624 2dbd cd6d 84bd 8e0e 21bc 2b77 113e
00000070: a3ba 37be 81df 79be 9e97 51be f0e9 0cbe
00000080: 8d4c 1cbe 7d5c 3cbe a8e4 6bbc d144 9b3d
00000090: 4c0e aa3d 0521 cebc 30da c83b 3797 10be
000000a0: 7906 c1bd 0f88 d6bd 2a28 3d3d 7d37 3fbe
000000b0: fe9a 4cbe f47b 4abe d1bf 0bbe 09f3 b2bd
000000c0: df09 9f3d 3d19 6d3d 3352 17be ee77 243d
000000d0: fd90 7ebe 2ec2 0cbe 188a 95bd cd6d 9e3d
000000e0: 779b b7be dafb 1abd 1441 8bbd 38b7 4d3c
000000f0: 40c7 b43d 5391 f73d 6fd9 033c df20 48be
00000100: ad39 2e3d 721d 83bd 98ef febd c590 e1bd
00000110: 24d6 973d dd39 c83d 0abf 48be 8101 54be
00000120: 745d 2ebe 6d16 bc3c db02 c53c 816c 7ebe
00000130: 8399 d9bd 77a3 c73d 3fa4 b03d dffd 793d
00000140: 872e 1f3e 56a3 f83a bb97 273d 7d7b 253e
00000150: 48f5 cbbd 1f8b 6e3d bf15 f2bd cd70 22be
00000160: 30e0 aa3d 8728 df3d 1bb4 d43d 403d 913d
00000170: 2efb 98bd 8166 803d f882 0cbe 0c04 063e
00000180: a108 8abd 5c4a 1cbd e199 a6bd 66ed 89be
00000190: e45a c3bd 2083 15be 8284 5dbd 8619 003e
000001a0: ea45 59be 58f6 033e 4d77 74be 97a3 9dbe
000001b0: 35e5 433e 9f65 6a3e 2ed8 5e3e f89a a7be
000001c0: b322 8e3d b5cc 72bd 5090 01be 277e 0cbe
000001d0: a3a3 60be 89f7 253e d946 0d3e 4d7b 11be
000001e0: c592 42be b0ac fc3c 9a17 d63e 9b26 d8bd
000001f0: cd71 253e 046c 3a3e aef0 32be 8f70 edbb
00000200: 8e26 a2bc 3598 b1bc 6ab3 8a3c 9000 37be
00000210: e3d3 38be 046f bf3e 0b80 583e a017 59be
00000220: a158 d33d 85f4 dbbe 1f4e b4bd b6fd 803e
00000230: 8128 4ebe 327c 09be 7208 cebd ba4d a33c
00000240: 22b3 523c 53a6 15bd 8b64 0ebf c869 5fbe
00000250: fa53 6bbe cbdc 5dbd 9895 debd d228 7b3b
00000260: ab56 033c b9a5 143a 2e93 09be 2272 583e
00000270: c5f7 a93d 8d2f 1abd 54ba de3e c3b5 dfbe
00000280: 8a3f c5be 5b8a 92be 98da 773d 9f66 843e
00000290: 6ea2 b7be e649 a0be 2bd6 6dbe 5820 21bd
000002a0: 147b c5bd fff9 6d3c 6ad0 24be a3f3 4ebe
000002b0: bf61 1a3c 126e 783d 19d2 3bbe 2f56 1d3e
000002c0: 8b14 d53d 8ba4 0abd 4e45 c8bd 5ee4 96be
000002d0: 0a76 28bc 05fa 0c3e 08ae 07be 8ec9 a13d
000002e0: c95c 113e 6476 00be fbcf 56be 0990 f3bd
000002f0: 76de 9bbe 1288 6fbe c940 c43d 64c8 3dbc
00000300: 05d6 4dbe 2dba 4d3e fa86 ac3d 2261 a83d
00000310: ee44 bf3d d4d0 6fbd d5e0 1b3d 5959 0abd
00000320: cd9d c1bd 502b dabd cef3 ccbc c1d9 933c
00000330: d444 36be e27b 12bd e8cc 9dbe 36a9 0fbe
00000340: 1fb8 2d3d 34ac c6bd 0739 093d a902 34be
00000350: 63bb 8bbd f4d6 9bbd cc3f 5cbc b6f9 42be
00000360: c970 4d3e 1104 4fbd f379 10be b9cd efbd
00000370: 75ca fbbd e1c1 47be 8e31 47bd 32ca 6cbe
00000380: 5c33 b43d 8984 41be 8235 ccbd 68a5 0fbd
00000390: 5042 eabd 3a7d d13d d9a7 ac3e 3cf6 df3d
000003a0: e0b7 2b3e 4310 46be 8fdb 2ebe dcc6 55bd
000003b0: 4623 5cbd ad16 5ebd 75c9 fa3d 1180 95bd
000003c0: 45d5 483e 054e f03d b2c2 ebbd 8c04 bb3d
000003d0: a8a8 7f3d 2adf cebd c410 413d e6bd 33be
000003e0: bbcc 86be 6961 773b 4537 fd3d bdc4 42be
000003f0: 0a8c 14be 1b60 fd3d acb2 b1bd ad95 04bc
0.10375346 -0.32766816 -0.08013847 -0.19925828 -0.18526436 0.11653971 -0.090412915 -0.15993015
-0.18082868 -0.16915998 -0.07781127 0.05263709 -0.22915639 0.06691313 -0.18688712 -0.011754318
0.049428605 0.10836175 -0.049921792 -0.083828256 0.009408781 0.13488886 0.11891768 -0.124337845
-0.04227092 -0.06466255 -0.00983013 0.14205615 -0.1794229 -0.24401666 -0.20467994 -0.13761115
-0.15263577 -0.18394656 -0.014397778 0.07581485 0.08303508 -0.02516223 0.0061295256 -0.14120184
-0.09425063 -0.1047517 0.04618088 -0.18673511 -0.19981 -0.19773847 -0.13647391 -0.087377615
0.07765555 0.057885397 -0.1477745 0.040153436 -0.24859996 -0.13745949 -0.0730173 0.077357866
-0.35860798 -0.03783784 -0.06799522 0.01255589 0.088270664 0.12088265 0.008047446 -0.1954379
0.042535473 -0.064021006 -0.12448043 -0.11013941 0.07413891 0.097766615 -0.19604126 -0.20703699
-0.17027837 0.022959912 0.024049213 -0.24846078 -0.10624983 0.09747975 0.086250775 0.061033126
0.15545093 0.0018969576 0.040916186 0.16160388 -0.09958893 0.058238145 -0.11820554 -0.15863343
0.083435416 0.10896402 0.10385915 0.07091761 -0.07469784 0.06269551 -0.13721836 0.13087481
-0.06739927 -0.038156852 -0.08134819 -0.26938933 -0.095388204 -0.14600801 -0.054081447 0.12509736
-0.21218076 0.12886941 -0.23873635 -0.30788872 0.19130404 0.22890328 0.21762154 -0.3273542
0.06940212 -0.059277255 -0.12652707 -0.13719998 -0.21937422 0.16207708 0.13796557 -0.14207192
-0.190013 0.030844063 0.41814882 -0.105542384 0.16156693 0.18205267 -0.17474625 -0.007246084
-0.019793775 -0.021679023 0.016931254 -0.17871308 -0.18049578 0.37389386 0.21142595 -0.21200418
0.10319639 -0.4295999 -0.08803963 0.25193566 -0.20132639 -0.13426283 -0.100602046 0.019934524
0.012860091 -0.036535572 -0.55622166 -0.21817696 -0.22981253 -0.054165643 -0.108683765 0.0038323891
0.008016269 0.00056704466 -0.13435051 0.21137288 0.082992114 -0.037643004 0.43501532 -0.4369336
-0.3852504 -0.28621182 0.0605112 0.25859544 -0.35866112 -0.3130638 -0.2322623 -0.039337486
-0.09642616 0.014524936 -0.16095129 -0.20210128 0.009422719 0.060651846 -0.18341865 0.15364908
0.10404309 -0.033848327 -0.09778844 -0.29471105 -0.010282049 0.1376725 -0.13249981 0.07899772
0.14195551 -0.12545162 -0.20977776 -0.11892707 -0.30443162 -0.2339175 0.09582669 -0.011583421
-0.20101173 0.20090552 0.08424182 0.082216516 0.09339319 -0.058548763 0.038056213 -0.033776615
-0.09453926 -0.106527925 -0.025018599 0.01804817 -0.17799693 -0.035762675 -0.30820394 -0.14029393
0.04241192 -0.09700814 0.03350165 -0.1757914 -0.068228506 -0.076093584 -0.013442945 -0.1904057
0.20062555 -0.050540987 -0.1410902 -0.1170916 -0.12294475 -0.19507553 -0.048631243 -0.23124006
0.087988585 -0.18898214 -0.09971143 -0.035069853 -0.11438429 0.10228963 0.33721808 0.10935637
0.16769361 -0.19342141 -0.17075942 -0.0521916 -0.053744577 -0.054220844 0.12245456 -0.07299817
0.19612606 0.11733631 -0.115117446 0.091317266 0.062416703 -0.10101159 0.04713513 -0.1755291
-0.26328072 0.003774727 0.123640575 -0.19020362 -0.14506546 0.12371846 -0.08676657 -0.008092326

fc3.bias f4 [6]
00000000: cc5b e2bc fb17 dfbc 0272 a63c 43e4 4a3c
00000010: bb18 3b3d 0439 b33c
-0.027631663 -0.027233114 0.020318035 0.012383523 0.04567788 0.021877773
