ReputationOnly/Reputation Based Classifier for Cleaned-LIAR/Sigmoid_linearMSE_adam_4478.pth (torch_old, 3197 bytes, 6 tensors)

fc1.weight f4 [24, 6]
1.8740621 -0.6280134 2.3262374 2.927012 3.59751 0.38748652 -0.7206204 -0.9009933
4.6896753 4.184055 3.3620489 1.6826755 3.0344553 4.1808095 -0.34700283 -1.6864785
-0.2620893 0.013365034 1.3893056 2.7330117 0.5851657 1.7623167 -2.861973 -1.2071247
-0.76847637 0.13843122 1.6055027 0.5828823 -0.056983005 -0.39031592 -2.4540224 -0.31346592
2.178526 -0.17453063 -0.31257895 4.1656947 -2.0022233 1.5977896 -0.964795 -1.1458966
0.48860666 1.2099525 0.38261306 2.5441468 1.7091919 0.53510666 0.5655583 3.0037541
0.06658727 3.004229 -0.83871746 2.463698 3.330637 0.10408357 2.0618303 -0.038336564
0.5708911 3.0335152 -0.0040812055 1.5841954 -0.907483 -1.2175514 -0.32794118 4.0996046
0.22347844 -0.719488 4.387798 2.767956 0.07556822 0.3565326 3.191224 4.0235963
3.1653512 0.21325187 0.26361388 2.7524955 2.518306 3.5360332 4.182719 -0.4185743
3.5329432 -0.26166284 -1.0591582 -0.36050835 -2.0969763 3.4344714 -0.9230003 2.156618
-0.6096965 -0.18447977 5.5061936 3.4364045 4.321763 -1.3205936 -0.7111319 0.6574749
-0.26884308 0.11066519 2.7906168 -1.1697452 2.8547106 -2.4152234 1.0857562 0.2804082
1.4794588 -2.3873932 2.0783753 3.2273698 0.25898597 -2.576049 -2.694639 -1.9821062
-0.48111635 -0.6574834 0.88457716 1.4561372 0.6122397 1.2465777 -4.4052806 -2.1409428
2.262738 3.0073676 3.40444 -0.9173769 3.0340538 -0.17549296 0.09763765 0.20836733
-1.3106191 1.7797576 0.10194041 -1.14348 1.9635075 -0.20962639 -0.4056059 0.19310008
-0.61918515 2.0886192 -4.1681285 -0.83665675 1.5028074 0.85196173 0.7271456 0.38153255
00000000: 44e1 ef3f 7cc5 20bf 13e1 1440 2a54 3b40
00000010: 9b3d 6640 a264 c63e 947a 38bf 7fa7 66bf
00000020: d211 9640 c7e3 8540 cf2b 5740 e961 d73f
00000030: 8434 4240 31c9 8540 5baa b1be 87de d7bf
00000040: 9230 86be 04f9 5a3c c4d4 b13f aae9 2e40
00000050: 6bcd 153f 9893 e13f 912a 37c0 1083 9abf
00000060: deba 44bf eac0 0d3e 1d81 cd3f c637 153f
00000070: 0367 69bd 7dd7 c7be b40e 1dc0 9b7e a0be
00000080: f86c 0b40 28b8 32be 590a a0be 5f4d 8540
00000090: 6d24 00c0 5f84 cc3f cefc 76bf bdac 92bf
000000a0: a72a fa3e b9df 9a3f dce5 c33e 4dd3 2240
000000b0: cdc6 da3f c0fc 083f 6ec8 103f 823d 4040
000000c0: e85e 883d 4a45 4040 30b6 56bf 3aad 1d40
000000d0: 2829 5540 c429 d53d 07f5 0340 cd06 1dbd
000000e0: eb25 123f 1d25 4240 a2bb 85bb eac6 ca3f
000000f0: ce50 68bf b9d8 9bbf e8e7 a7be f62f 8340
00000100: 88d7 643e 5e30 38bf d768 8c40 3126 3140
00000110: 83c3 9a3d 718b b63e 043d 4c40 4dc1 8040
00000120: 1d95 4a40 b35e 5a3e 66f8 863e e328 3040
00000130: ed2b 2140 5e4e 6240 d6d8 8540 5f4f d6be
00000140: be1b 6240 acf8 85be 7f92 87bf 8d94 b8be
00000150: dc34 06c0 61ce 5b40 bf49 6cbf 0806 0a40
00000160: 1215 1cbf 44e8 3cbe bd32 b040 0dee 5b40
00000170: e24b 8a40 3609 a9bf bd0c 36bf 4650 283f
00000180: cda5 89be 6ea4 e23d 7799 3240 36ba 95bf
00000190: 94b3 3640 0593 1ac0 0ffa 8a3f aa91 8f3e
000001a0: e85e bd3f 0dcb 18c0 1a04 0540 3a8d 4e40
000001b0: cf99 843e fddd 24c0 f774 2cc0 a8b5 fdbf
000001c0: e254 f6be d550 28bf a673 623f b462 ba3f
000001d0: bebb 1c3f dc8f 9f3f 0ff8 8cc0 3505 09c0
000001e0: b3d0 1040 b678 4040 58e2 5940 36d9 6abf
000001f0: f02d 4240 6db4 33be 40f6 c73d 3f5e 553e
00000200: 5ec2 a7bf 19cf e33f 22c6 d03d 8d5d 92bf
00000210: 3754 fb3f 4da8 56be 94ab cfbe 07bc 453e
00000220: eb82 1ebf f0ab 0540 4f61 85c0 232f 56bf
00000230: fe5b c03f 2a1a 5a3f 3726 3a3f 3c58 c33e

fc1.bias f4 [24]
-0.5991909 -0.60597724 0.36342403 1.1886815 -0.43757215 0.09890701 0.5174908 -1.3737451
-1.1673529 -0.66385174 -0.31768057 -1.898452 -1.169047 0.22131523 0.006835216 0.37394965
-0.5009938 -1.407584 2.3903213 -0.088148914 0.10365566 -1.1651348 0.14198424 0.32074955
00000000: 9364 19bf 5321 1bbf b712 ba3e b726 983f
00000010: 7509 e0be c28f ca3d 477a 043f e1d6 afbf
00000020: d26b 95bf 30f2 29bf 07a7 a2be 7a00 f3bf
00000030: 55a3 95bf 76a0 623e f3f9 df3b 5476 bf3e
00000040: 2141 00bf b62b b4bf 06fb 1840 6b87 b4bd
00000050: 6b49 d43d 2323 95bf 5164 113e 4939 a43e

fc2.weight f4 [12, 24]
1.1516386 1.4634748 -1.3384038 -1.3608298 1.4514968 0.31182423 -0.9429024 0.34433097
-0.24206343 0.4433163 0.6635835 -0.4906092 0.37723252 0.6727431 -0.2105532 -0.44572878
0.9162676 -0.0012136231 -0.5378436 -0.056386244 -1.026088 -0.10481578 -0.36199695 1.6705036
1.5763851 0.7047021 -0.34564266 -2.0157816 0.31611452 1.4705911 1.2682623 1.5731112
-0.88580406 0.5870524 -0.4360932 1.3182439 1.6255338 0.468204 -2.0290675 0.22972997
0.8764138 1.2964822 -2.1697493 -2.3494828 1.0543311 -0.514193 -0.07058935 -0.054550204
-1.6116183 -1.0393261 -0.24692649 0.88389146 -0.8316873 2.2376246 -0.51259315 1.2763681
-2.009078 -0.8262546 -1.3768404 0.2240471 -0.758562 1.0200871 -0.4690864 1.408274
-0.570417 0.19547461 1.351506 0.7061896 -0.65742594 -0.571896 1.0535113 0.8233688
0.23242389 -1.8696011 0.66705364 0.14868619 -0.44815475 -1.1697798 0.74599487 -0.88662875
2.890302 -1.9375921 -0.5930118 1.6816105 -1.8615417 -0.8819322 0.18420938 -0.5420621
0.31499514 0.52284086 0.7540021 -1.0808656 2.6705925 0.31048688 -0.70105064 -0.29440063
0.16611582 0.22815385 -0.24249797 0.44009283 0.6124542 0.059843715 0.8436143 0.08065955
0.3191123 -0.66932595 -0.32891446 -0.9274259 -2.298701 -0.6696449 1.4256152 0.4786841
0.46993545 -0.3424715 -1.4710491 0.8026095 1.2891682 0.2686098 -1.5287457 1.0526121
0.11799442 -1.0889183 0.1615449 1.0181266 -0.018270172 -1.670071 -0.62278426 -0.81329435
0.90370613 2.6326013 0.8481376 0.08750103 2.1936615 -0.15837231 1.0789226 0.18647194
-0.45326707 -0.9193612 -1.8500599 1.6899495 -1.654135 0.43943003 0.29541185 -1.4164402
-1.1402216 -0.818644 1.4359959 -0.5749302 -0.28315374 -1.2871988 0.40351722 -0.60099727
-1.104074 -0.5673551 -0.5245849 -0.5587464 -2.1875105 1.7491225 -0.28682968 2.322228
0.22663195 -0.23040521 -0.65417635 1.7518483 2.3566155 -0.57816434 -1.1923031 -0.17948115
0.34348336 -0.48338583 0.09813133 -1.3052268 -1.0264008 -0.45393392 -0.31082368 -1.243393
0.17161515 1.3221942 0.84043115 1.2537616 2.9058313 -0.48028097 -0.43516958 -1.0630428
-0.33819056 -0.860095 3.5044174 -0.6184563 -1.3843334 0.63193244 0.49746063 -0.48516622
-1.8836827 -0.78093517 -0.88312817 0.3202151 -0.70932037 1.5934112 1.5577595 1.5521975
-0.30384466 0.29692674 -0.13188258 0.35163358 0.09585968 -1.1265926 1.622166 -0.5710604
-0.7762183 -0.15412818 1.4398099 0.91701114 -2.3552582 -0.37320793 0.25784737 1.3727986
-0.5198581 0.6408835 -0.21989198 0.95885056 0.5210967 0.5855346 1.7569145 2.4348488
0.74544054 2.0031786 -0.93559974 -0.4577371 -0.7303653 -1.0825716 2.5846105 0.45428216
-1.2957351 0.23036754 -2.9973238 1.1272577 -1.7003745 1.39049 -0.8737617 0.5565392
-0.06555308 0.20502841 -0.7516553 -0.441287 0.2052852 -1.1787001 1.6605822 0.03850549
0.47077268 0.8199725 -0.2982052 -1.1157677 -2.0735493 -0.9186341 2.2295072 0.73380554
00000000: e568 933f 2453 bb3f d150 abbf ac2f aebf
00000010: a6ca b93f 6da7 9f3e 0d62 71bf 264c b03e
00000020: 7adf 77be 5bfa e23e 9ce0 293f 2131 fbbe
00000030: 9f24 c13e e438 2c3f 429b 57be 9036 e4be
00000040: 8390 6a3f 6f12 9fba 1eb0 09bf 43f5 66bd
00000050: da56 83bf a8a9 d6bd aa57 b9be 10d3 d53f
00000060: fdc6 c93f 5b67 343f 13f8 b0be 9102 01c0
00000070: c3d9 a13e 543c bc3f 6b56 a23f b55b c93f
00000080: 0ec4 62bf 1149 163f 9c47 dfbe 37bc a83f
00000090: 7e11 d03f 6fb8 ef3e 3edc 01c0 553e 6b3e
000000a0: a85c 603f 21f3 a53f 2cdd 0ac0 ed5d 16c0
000000b0: 52f4 863f 27a2 03bf 2691 90bd 0970 5fbd
000000c0: 8249 cebf a308 85bf 4cda 7cbe b646 623f
000000d0: 75e9 54bf 3e35 0f40 4e39 03bf 0860 a33f
000000e0: bc94 00c0 6c85 53bf 4e3c b0bf 9a6c 653e
000000f0: 1f31 42bf 3792 823f 182c f0be 5342 b43f
00000100: d906 12bf 7f2a 483e 26fe ac3f d7c8 343f
00000110: 114d 28bf c767 12bf 75d9 863f 4cc8 523f
00000120: 8700 6e3e 174f efbf 07c4 2a3f 3141 183e
00000130: 8a74 e5be 58bb 95bf 85f9 3e3f 1afa 62bf
00000140: b5fa 3840 0503 f8bf 9fcf 17bf 033f d73f
00000150: 0047 eebf 4fc6 61bf 62a1 3c3e 95c4 0abf
00000160: 0b47 a13e e6d8 053f 4806 413f ce59 8abf
00000170: fdea 2a40 23f8 9e3e 0e78 33bf aebb 96be
00000180: 441a 2a3e 2aa1 693e 6351 78be d953 e13e
00000190: ccc9 1c3f af1e 753d 1bf7 573f d630 a53d
000001a0: b062 a33e f258 2bbf 7a67 a8be c96b 6dbf
000001b0: eb1d 13c0 d96d 2bbf 8f7a b63f 1516 f53e
000001c0: 619b f03e 6d58 afbe 564b bcbf d177 4d3f
000001d0: 7703 a53f 3987 893e f0ad c3bf febb 863f
000001e0: 0fa7 f13d ad61 8bbf 076c 253e f951 823f
000001f0: 54ab 95bc e3c4 d5bf ca6e 1fbf 0f34 50bf
00000200: 4959 673f 8a7c 2840 8c1f 593f bd33 b33d
00000210: f364 0c40 5a2c 22be 231a 8a3f 80f2 3e3e
00000220: 9f12 e8be 415b 6bbf c3ce ecbf 4450 d83f
00000230: b2ba d3bf f9fc e03e 3940 973e ea4d b5bf
00000240: c8f2 91bf a792 51bf b7ce b73f a02e 13bf
00000250: 87f9 90be eec2 a4bf cf99 ce3e f5da 19bf
00000260: 4c52 8dbf 2f3e 11bf 324b 06bf 010a 0fbf
00000270: 2c00 0cc0 3fe3 df3f 57db 92be 629f 1440
00000280: 3512 683e 58ef 6bbe 1a78 27bf 913c e03f
00000290: cad2 1640 9402 14bf 639d 98bf e8c9 37be
000002a0: 0ddd af3e 597e f7be 14f9 c83d ac11 a7bf
000002b0: 1a61 83bf 076a e8be 4824 9fbe 8027 9fbf
000002c0: e2bb 2f3e a93d a93f 7f26 573f 437b a03f
000002d0: 24f9 3940 63e7 f5be 8cce debe c911 88bf
000002e0: 5027 adbe 302f 5cbf 6048 6040 2753 1ebf
000002f0: d631 b1bf 53c6 213f 29b3 fe3e b567 f8be
00000300: 841c f1bf 5eeb 47bf b014 62bf 3cf3 a33e
00000310: 0596 35bf e6f4 cb3f aa64 c73f 68ae c63f
00000320: 8791 9bbe c806 983e 3a0c 07be 5109 b43e
00000330: 1452 c43d 3034 90bf 23a3 cf3f 0431 12bf
00000340: 3eb6 46bf c7d3 1dbe b14b b83f 3ec1 6a3f
00000350: 8dbc 16c0 1c15 bfbe 9204 843e ddb7 af3f
00000360: 6c15 05bf f110 243f 5d2b 61be 3b77 753f
00000370: 9866 053f 98e5 153f 93e2 e03f 90d4 1b40
00000380: 31d5 3e3f 1434 0040 7783 6fbf 845c eabe
00000390: 38f9 3abf b591 8abf 426a 2540 ac97 e83e
000003a0: a6da a5bf 78e5 6b3e 27d4 3fc0 fb49 903f
000003b0: dfa5 d9bf 94fb b13f d9ae 5fbf 5a79 0e3f
000003c0: b140 86bd f8f2 513e 7b6c 40bf 5ff0 e1be
000003d0: 4936 523e a5df 96bf f58d d43f efb7 1d3d
000003e0: 1e09 f13e b8e9 513f 5aae 98be 7ad1 8ebf
000003f0: 08b5 04c0 9b2b 6bbf 3fb0 0e40 aeda 3b3f

fc2.bias f4 [12]
0.12824102 -0.5328385 0.70065683 0.03929474 0.06213399 -0.06469063 0.764613 0.19474258
-0.047771424 -0.18883884 0.33400583 0.5462501
00000000: 9d51 033e 1b68 08bf 3f5e 333f 85f3 203d
00000010: 3680 7e3d 857c 84bd adbd 433f 996a 473e
00000020: f8ab 43bd f85e 41be d002 ab3e 0cd7 0b3f

fc3.weight f4 [6, 12]
-1.0375361 -0.32189533 0.5572715 -0.46123827 -1.4818772 1.7056434 1.2138838 0.5204541
-1.9250808 -1.4054095 -1.2203499 -0.9093712 -1.2283664 -1.2975519 -0.17829466 0.8037335
1.1539167 0.49419925 0.4845208 -1.5645071 0.16396946 0.53782046 0.5056444 -2.8386102
0.4355469 0.24441825 0.62027633 -2.297352 1.2139978 -1.323708 1.1929077 -2.094262
-1.6510891 -0.27199557 -0.47177368 0.8424024 0.041814845 -1.7162094 -1.8430529 -1.8990806
0.18851973 2.0443232 -1.9126539 0.18216224 0.20954047 0.3639121 0.7446138 0.85088354
0.1589534 0.6858586 -2.099005 2.0405817 0.19687219 -1.516958 -1.88911 0.22163208
-1.1421837 -0.79388106 -0.89217335 0.5746256 -0.3842645 0.62035793 1.1097784 -1.7589617
-1.5624968 -1.5073837 -2.0089414 -0.004815221 2.488678 0.30830026 -1.5101938 -1.8009995
00000000: fccd 84bf 77cf a4be 58a9 0e3f 6c27 ecbe
00000010: 27ae bdbf 8652 da3f 8b60 9b3f 7b3c 053f
00000020: 0c69 f6bf 75e4 b3bf 6d34 9cbf 8dcc 68bf
00000030: 1c3b 9dbf 2e16 a6bf e092 36be 7bc1 4d3f
00000040: 8bb3 933f af07 fd3e 1c13 f83e c541 c8bf
00000050: 9ce7 273e 9aae 093f e971 013f caab 35c0
00000060: 0100 df3e c748 7a3e 6eca 1e3f d107 13c0
00000070: 4864 9b3f 446f a9bf 33b1 983f 6308 06c0
00000080: e356 d3bf 0143 8bbe 528c f1be afa7 573f
00000090: 0b46 2b3d c0ac dbbf 28e9 ebbf 1315 f3bf
000000a0: 510b 413e 31d6 0240 d8d1 f4bf bd88 3a3e
000000b0: c791 563e b052 ba3e 039f 3e3f 81d3 593f
000000c0: aec4 223e 6e94 2f3f 1956 06c0 e498 0240
000000d0: dd98 493e ae2b c2bf 5bce f1bf 85f3 623e
000000e0: 1333 92bf ca3b 4bbf 7965 64bf aa1a 133f
000000f0: 51be c4be c7cf 1e3f 380d 8e3f a825 e1bf
00000100: e5ff c7bf f3f1 c0bf 7f92 00c0 00c9 9dbb
00000110: 8046 1f40 88d9 9d3e 084e c1bf 2787 e6bf

fc3.bias f4 [6]
-0.2978667 -0.37661314 -0.72549886 -0.8004623 -0.09728371 -0.21865548
00000000: fc81 98be 70d3 c0be 4bba 39bf 19eb 4cbf
00000010: af3c c7bd 39e7 5fbe
