ReputationOnly/Reputation Based Classifier for Cleaned-LIAR/Sigmoid_linearMSE_adam_44.pth (torch_old, 47071 bytes, 6 tensors)

fc1.weight f4 [120, 6]
0	0xbf173630	-0.5906706
1	0xbfc96ca2	-1.5736277
2	0xbfc57e16	-1.5429103
3	0xbeeefdb9	-0.4667795
4	0xbf08722d	-0.5329922
5	0xbe29f4ae	-0.16597244
6	0xbe5ef5db	-0.21773474
7	0xbd9ade3d	-0.0756192
8	0xbdc16cf7	-0.094446115
9	0x3ddba990	0.10725701
10	0x3f10fa32	0.5663177
11	0x3fa187f1	1.2619611
12	0x3f86343b	1.048469
13	0x3ef04824	0.4693004
14	0xbf8abc19	-1.0838653
15	0xbf0f6b3b	-0.56022996
16	0x3f0552e1	0.5207959
17	0x3d921ee5	0.07134799
18	0x3fc692bf	1.5513533
19	0xbfad90a0	-1.3559761
20	0xbfc824a7	-1.5636185
21	0x3e0545ce	0.1301491
22	0x3b38149e	0.002808846
23	0x3e4590a3	0.19293456
24	0xbfa11037	-1.2583073
25	0xbf43aa3a	-0.7643162
26	0xbfb233af	-1.3922023
27	0x3ec3f7d2	0.3827501
28	0xbe9d9bbe	-0.30782884
29	0xbfa327b7	-1.2746495
30	0x3f968ab0	1.1761074
31	0x3ed6dc9f	0.41965196
32	0xbf4e15fe	-0.8050231
33	0xbe120c14	-0.1426242
34	0xbf45fc0a	-0.77337706
35	0xbfb3d283	-1.4048618
36	0x3fb57048	1.417489
37	0x3e9f0b62	0.31063372
38	0x3f65506b	0.89575833
39	0x3fcd4090	1.6035328
40	0x3c8fd9b2	0.01755986
41	0x3e32993b	0.17441265
42	0x3fc799ae	1.5593774
43	0x3e7eecd8	0.24895036
44	0x3d9eadc3	0.07747986
45	0x3f57a849	0.8424116
46	0x3f088dc5	0.53341323
47	0x3fd52e2f	1.6654719
48	0x3f60d435	0.878238
49	0xbe2b8397	-0.16749416
50	0x3e47b1ac	0.1950137
51	0xbec13f41	-0.3774357
52	0xbf951067	-1.1645631
53	0x3f468b21	0.77556044
54	0x3ee86d6c	0.45395982
55	0xbed59e3e	-0.41722292
56	0xbeb8484e	-0.35992664
57	0x3f3d3d49	0.7392164
58	0xbdda5844	-0.106613666
59	0x3e283cb4	0.16429406
60	0x3f3bee5e	0.73410594
61	0xbf35ba42	-0.7098733
62	0xbecaa630	-0.39579916
63	0xbed0d290	-0.40785646
64	0x3f70ff01	0.94139105
65	0x3dc2e265	0.095158376
66	0xbeac4236	-0.33644265
67	0x3f7a5a71	0.9779425
68	0x3f02b526	0.5105766
69	0x3ee921ba	0.45533544
70	0x3fa8e62b	1.3195242
71	0x3f833995	1.0251948
72	0xbf0c80b8	-0.5488391
73	0x3eb4df54	0.35326636
74	0x3fbb163a	1.4616158
75	0xbb8c69c5	-0.0042850696
76	0x3f91faef	1.1404704
77	0x3f94a0d3	1.161158
78	0x3f889e5a	1.0673325
79	0x3f88d12b	1.0688833
80	0xbe1abfe1	-0.15112258
81	0x3e3c08e5	0.18362768
82	0x3f93fdfb	1.1561884
83	0x3f488eeb	0.78343076
84	0xbebe1033	-0.37121734
85	0x3f5cfd42	0.8632394
86	0x3fce8d87	1.6136941
87	0x3fd64189	1.673875
88	0x3e6b677b	0.22988693
89	0x3e25f5ee	0.16207096
90	0xbda5087c	-0.08058259
91	0x3ebe0401	0.3711243
92	0xbf999dc3	-1.200127
93	0xbf2b4ec4	-0.6691706
94	0x3e606327	0.21912824
95	0x3f8b0b7c	1.086288
96	0x3fbc7997	1.4724606
97	0x3db3b702	0.0877514
98	0x3ed8dad0	0.4235444
99	0x3fc087b7	1.5041417
100	0xbe0a1f44	-0.1348849
101	0x3f2589cc	0.64663386
102	0x3f9daddd	1.2318684
103	0x3f4e427a	0.80570185
104	0xbe096049	-0.13415636
105	0x3e433cfd	0.19066234
106	0xbf5a5a94	-0.8529446
107	0xbfa1b41a	-1.2633088
108	0xbee57855	-0.4481837
109	0x3fc090de	1.504421
110	0x3f9db650	1.2321262
111	0x3fccafa3	1.59911
112	0xbe25ac7e	-0.16179082
113	0x3ee1b433	0.44082794
114	0xbfce45cb	-1.6115049
115	0xbf7ad3f8	-0.9797969
116	0x3e175b4b	0.14780919
117	0xbf4f9830	-0.81091595
118	0x3e617c28	0.22020018
119	0x3fb17020	1.3862343
120	0x3f8138eb	1.0095495
121	0x3f739eec	0.9516437
122	0xbd1985e4	-0.037481204
123	0x3f08d680	0.534523
124	0xbebfd0d4	-0.3746401
125	0xbf36a7ac	-0.71349597
126	0x3f9d46fa	1.2287285
127	0xbf8c1fd3	-1.0947212
128	0xbf67f170	-0.9060278
129	0xbfadf886	-1.3591468
130	0x3ea6b29d	0.32558146
131	0xbf7caa0c	-0.9869697
132	0xbfb227ff	-1.3918456
133	0x3d8a9726	0.067671105
134	0x3f2531fb	0.6452939
135	0x3fb02f66	1.3764465
136	0xbeeb2480	-0.45926285
137	0x3d79a8cd	0.060951997
138	0xbf811bbd	-1.008659
139	0x3d3cc1e9	0.046083365
140	0x3e072ab2	0.1319988
141	0xbee10ef5	-0.43956724
142	0xbfafb655	-1.3727518
143	0xbf2ffbcb	-0.6874358
144	0x3f2cbeff	0.67478937
145	0x3eaa552b	0.33268103
146	0xbf34bfd5	-0.7060521
147	0x3f7de442	0.9917642
148	0x3ecfe66a	0.4060548
149	0xbf7974df	-0.97443956
150	0x3e0519bd	0.129981
151	0x3ec8bfc1	0.39208797
152	0xbf042a9e	-0.5162753
153	0xbf7cdb2d	-0.98771936
154	0xbf01cb4a	-0.5070082
155	0xbf85c24b	-1.0449919
156	0x3f62913d	0.88502866
157	0xbea6a9a9	-0.32551315
158	0x3f475552	0.77864563
159	0x3e7ad12c	0.24493855
160	0x3f2dded0	0.6791811
161	0xbdf09f99	-0.11749191
162	0xbe895c23	-0.26828107
163	0xbd4ea4f7	-0.05045029
164	0xbfac7e1b	-1.3475984
165	0xbf9b01cd	-1.2109925
166	0x3e3ab35f	0.18232487
167	0xbfcdf3c8	-1.6090021
168	0xbe41c520	-0.18922853
169	0xbf911f9f	-1.1337775
170	0xbd975a00	-0.07390213
171	0x3e6aa302	0.22913745
172	0xbf97c488	-1.1856852
173	0xbec0f961	-0.3769026
174	0xbdc16ddb	-0.094447814
175	0x3fad34dc	1.3531756
176	0x3f7c198a	0.9847647
177	0xbcb1fbca	-0.021726508
178	0x3f7668fa	0.9625393
179	0xbcab8329	-0.020936565
180	0x3f529748	0.82262087
181	0x3fa5ebd6	1.2962596
182	0xbf3ebe7b	-0.745094
183	0xbe95d526	-0.29264182
184	0xbfa65dc9	-1.2997371
185	0x3f18b32c	0.59648395
186	0x3e9cba61	0.30610946
187	0x3f50176b	0.81285733
188	0xbe1b3a44	-0.15158945
189	0xbefa55e1	-0.48893645
190	0x3f1c24f2	0.60993874
191	0x3f1b41e3	0.6064741
192	0xbed01508	-0.40641046
193	0xbe36e644	-0.17861277
194	0xbec93c69	-0.39303902
195	0xbe4ac75c	-0.19802612
196	0x3f271b16	0.65275705
197	0x3f7b51b1	0.98171526
198	0x3fa5e189	1.2959453
199	0xbe992b7e	-0.29915994
200	0x3edb828b	0.42873034
201	0xbf1d8c70	-0.61542416
202	0xbe8dca98	-0.2769363
203	0x3f8f17f5	1.1179186
204	0x3f1013fa	0.5628048
205	0xbeb69e83	-0.3566781
206	0x3fa3250c	1.2745681
207	0xbe22ba56	-0.15891394
208	0xbfb66aec	-1.425138
209	0xbf9040c2	-1.1269763
210	0x3fbf43ed	1.4942604
211	0x3e5aba40	0.21360111
212	0xbccd0a3f	-0.0250293
213	0x3fad77b6	1.3552158
214	0x3ee108d8	0.4395206
215	0x3f99bf3b	1.2011484
216	0xbfd7db31	-1.6863767
217	0xbea0b31c	-0.3138665
218	0x3d9a8198	0.07544249
219	0xbfdf52db	-1.744716
220	0xbfd471ab	-1.6597189
221	0xbecd64b2	-0.40115887
222	0xbe8c40f6	-0.2739331
223	0x3f991800	1.1960449
224	0x3ef702f7	0.4824445
225	0x3dfe1965	0.12407187
226	0x3f4b8ec3	0.7951471
227	0x3e6f3ce7	0.23363076
228	0xbfe044e3	-1.7521023
229	0x3d8836b7	0.06651061
230	0xbfc76d4e	-1.5580232
231	0x3ee2ae58	0.4427364
232	0xbfa95f33	-1.3232177
233	0xbfc014d1	-1.5006353
234	0x3f924018	1.142581
235	0xbe9eed1b	-0.31040272
236	0x3f31e5f2	0.69491494
237	0xbefee453	-0.49783573
238	0xbdfc0972	-0.12306489
239	0x3d4b3512	0.04961116
240	0xbfd0cb2f	-1.6312007
241	0x3eeff5f8	0.46867347
242	0xbe0bfd86	-0.1367093
243	0xbed0912c	-0.40735757
244	0x3f5ea106	0.8696445
245	0x3f2ab3bb	0.66680497
246	0x3f906943	1.1282123
247	0x3d0ed73b	0.03487323
248	0xbf8a103c	-1.0786204
249	0xbd97e581	-0.07416821
250	0x3e3c4ffc	0.18389887
251	0xbeaef32d	-0.34169903
252	0xbe8ad851	-0.2711816
253	0x3ebe605c	0.3718289
254	0x3f9d1550	1.2272129
255	0xbd0e50b5	-0.034744937

fc1.bias f4 [120]
0	0x3f7e9c9a	0.99457705
1	0xbc9ac097	-0.018890662
2	0xbdf289b1	-0.11842669
3	0x3e37dd65	0.17955549
4	0x3e770940	0.24124622
5	0x3e6e9b1a	0.23301354
6	0xbee3133f	-0.4435062
7	0xbf40a14d	-0.75246125
8	0x3e228b79	0.15873517
9	0x3d2c46dd	0.042059768
10	0x3ea8cae7	0.32967302
11	0xbf40d332	-0.7532226
12	0xbeb8a5b6	-0.36063927
13	0xbec81687	-0.39079687
14	0xbf2530d6	-0.6452764
15	0x3db3419d	0.08752749
16	0xbed3f635	-0.4139878
17	0x3d855825	0.06510953
18	0xbf084e73	-0.53244704
19	0x3ec34420	0.38137913
20	0xbe357060	-0.17718649
21	0x3e189ff6	0.1490477
22	0xbe2e3c29	-0.17015137
23	0x3ee2fe72	0.4433475
24	0xbdf5f841	-0.12010241
25	0xbd22911c	-0.03968917
26	0x3d0411a2	0.03224338
27	0x3ef04f4b	0.46935496
28	0x3f217c82	0.6308061
29	0xbeba53f3	-0.36392173
30	0x3e0e930b	0.1392328
31	0xbd031a33	-0.032007407
32	0x3e167e67	0.14696656
33	0xbcd96647	-0.026538027
34	0x3cf22b8b	0.029561779
35	0xbf1347f9	-0.57531697
36	0x3f474c57	0.7785086
37	0xbdaacb40	-0.08339548
38	0x3ec2c592	0.3804136
39	0x3e3dcd3d	0.18535323
40	0x3cf3cb05	0.029759893
41	0x3dd2dee0	0.10296416
42	0xbe8fc854	-0.28082526
43	0xbd2330c2	-0.03984142
44	0xbec5b824	-0.3861705
45	0xbe076247	-0.13221084
46	0xbe5c0137	-0.21484838
47	0xbd657423	-0.05601896
48	0xbd6173a2	-0.055041917
49	0xbed24e28	-0.41075253
50	0xbe9597a2	-0.2921725
51	0x3dbb8196	0.09155576
52	0x3de5f4f8	0.11228365
53	0x3e9c2b99	0.30502012
54	0x3e000b90	0.1250441
55	0xbe6de40e	-0.23231527
56	0x3e42516d	0.18976374
57	0xbec15b13	-0.37764797
58	0x3dfce3df	0.123481505
59	0x3ed865a7	0.42265055
60	0x3ef80d74	0.48447764
61	0xbd2cb3fb	-0.04216383
62	0xbddca1e7	-0.10773068
63	0xbed99d50	-0.42502832
64	0xbe41afb0	-0.18914676
65	0xbe30f1e8	-0.1727978
66	0xbd16eb4d	-0.036845494
67	0xbdfe7437	-0.1242451
68	0xbf1bb7db	-0.60827416
69	0xbeda9c64	-0.42697442
70	0xbeaa83d2	-0.33303696
71	0x3f1f651f	0.62263674
72	0xbf50473c	-0.81358695
73	0x3e66fd42	0.22557548
74	0x3e45c2df	0.19312619
75	0x3e8cf103	0.27527627
76	0x3e4dceb8	0.20098388
77	0xbe827443	-0.25479326
78	0xbe172b8d	-0.14762707
79	0xbe8ff51a	-0.28116685
80	0xbf33f1e6	-0.7029098
81	0x3d81aea7	0.063321404
82	0xbe83d902	-0.257515
83	0x3f0506af	0.51963323
84	0xbe056758	-0.13027704
85	0xbd925249	-0.07144601
86	0x3eb6d0e9	0.3570626
87	0xbe3f7c77	-0.18699823
88	0x3eb3baa6	0.3510334
89	0xbf006eaa	-0.5016886
90	0xbedacd3b	-0.42734703
91	0x3e97eeed	0.29674473
92	0xbf1cef17	-0.6130232
93	0x3dc83f99	0.09777755
94	0xbe2347c3	-0.15945344
95	0x3d895fa8	0.06707698
96	0xbccbc54b	-0.02487435
97	0xbe128ffa	-0.14312735
98	0x3d167d51	0.036740605
99	0xbda569ec	-0.080768436
100	0xbebc0415	-0.36721864
101	0xbf0fcaa5	-0.56168586
102	0xbeb05de1	-0.34446624
103	0xbe70b305	-0.2350579
104	0x3df63001	0.12020875
105	0xbe96bdb6	-0.29441613
106	0x3e143bcb	0.14475934
107	0xbe3200fa	-0.17383185
108	0x3f19a2b8	0.60013914
109	0xbe80f2d0	-0.2518525
110	0x3d6c9f49	0.057769094
111	0x3e2a4293	0.16626959
112	0xbea2c2e9	-0.3178933
113	0x3dceaa25	0.10091046
114	0xbee87bd6	-0.4540698
115	0x3d5c89a0	0.053842187
116	0xbf115794	-0.5677426
117	0xbcd29030	-0.02570352
118	0xbe4a8c3d	-0.19780059
119	0xbd99d445	-0.0751119

fc2.weight f4 [84, 120]
0	0xbef5e7ee	-0.4802851
1	0xbdf3e722	-0.119093195
2	0x3c0eab94	0.0087079
3	0xbefa1971	-0.48847535
4	0x3d46d8d8	0.048546642
5	0x3df2f4b8	0.11863083
6	0xbd29d07d	-0.041458596
7	0xbdf6c183	-0.12048628
8	0xbea95c3e	-0.33078188
9	0xbcc27e2a	-0.0237418
10	0xbd32e481	-0.04367495
11	0x3e10f806	0.14157113
12	0x3bc6fbbe	0.0060724905
13	0xbd3f5ec8	-0.04672125
14	0x3e84b069	0.2591584
15	0xbe12fef2	-0.14355066
16	0xbd82b8cc	-0.063829035
17	0x3dfa7bae	0.12230621
18	0x3e721abd	0.23643012
19	0xbdec2a8e	-0.11531554
20	0x3d3348d7	0.043770637
21	0xbe26dbe8	-0.16294825
22	0x3dd91ed2	0.10601582
23	0xbc7d9f20	-0.015479833
24	0x3d5d5259	0.05403361
25	0x3d648fe9	0.055801306
26	0x3cd5c039	0.026092635
27	0x3de71b72	0.11284532
28	0xbe92e152	-0.2868753
29	0x3e58ab22	0.21159032
30	0xbe034136	-0.12817845
31	0x3d35e4f1	0.04440779
32	0xbd21811e	-0.039429776
33	0xbe5398b4	-0.2066372
34	0xbd96a257	-0.073551826
35	0xbd1bf1c0	-0.038072348
36	0xbdae31de	-0.08505605
37	0x3e30ea8c	0.17276973
38	0x3eae6a3b	0.34065422
39	0xbdae6fb9	-0.08517403
40	0x3e35eda9	0.17766441
41	0xbd6c434f	-0.057681378
42	0x3e400eb0	0.18755603
43	0xbe23397c	-0.15939897
44	0x3d965395	0.07340161
45	0xbd3fa70f	-0.04679018
46	0x3e1a14d7	0.15047012
47	0x3dd91681	0.105999954
48	0xbca77545	-0.02044166
49	0x3e068e30	0.13140178
50	0x3e13acbc	0.14421362
51	0xbc9828f7	-0.018574221
52	0xbe43a2e9	-0.19105114
53	0x3ed04b15	0.40682283
54	0x3db9bc18	0.09069079
55	0x3e1eb7f0	0.15499854
56	0x3e2fcf3b	0.17168896
57	0x3e979a93	0.29610118
58	0xbf195481	-0.5989457
59	0xbe8860ae	-0.2663626
60	0xbe4e7381	-0.20161249
61	0x3e032819	0.12808265
62	0x3df4f326	0.119604394
63	0x3e7af06d	0.24505778
64	0xbce48083	-0.02789331
65	0x3e550925	0.2080427
66	0x3e30fdd9	0.17284335
67	0x3e59dcdf	0.21275662
68	0x3e1c9ef1	0.15295006
69	0x3ce82096	0.02833585
70	0x3c6cf778	0.014463298
71	0xbec22989	-0.37922314
72	0x3e8b0c8a	0.27158004
73	0x3e538e60	0.2065978
74	0xbec0cb7c	-0.37655246
75	0xbe396433	-0.18104629
76	0x3e242936	0.16031346
77	0x3e16c2de	0.14722773
78	0xbd495cd0	-0.04916078
79	0x3de72433	0.11286201
80	0x3e530ccb	0.20610349
81	0x3e132095	0.14367898
82	0x3e224d88	0.15849888
83	0x3d31f508	0.04344657
84	0x3e27f264	0.16401058
85	0x3e0cc20e	0.13745901
86	0xbf39c538	-0.72566557
87	0x3da04b30	0.07826841
88	0xbddcbabd	-0.10777805
89	0x3db1bc10	0.08678448
90	0x3e47a37e	0.19495961
91	0x3d34b346	0.04411628
92	0x3e8546ff	0.26030728
93	0xbd8000f1	-0.062501796
94	0xbe47c38a	-0.19508186
95	0xbd8c7220	-0.06857705
96	0x3e16dbba	0.14732257
97	0x3e043bd7	0.12913452
98	0xbb89a9b1	-0.004201137
99	0x3e6d28d8	0.23160112
100	0x3e62ec38	0.22160423
101	0xb8ea860e	-0.00011182959
102	0xbb12923c	-0.0022364995
103	0xbe7a4e08	-0.24443829
104	0xbe10f4fa	-0.14155951
105	0x3dc02586	0.09382157
106	0x3e65f178	0.22455394
107	0xbd04980b	-0.032371562
108	0xbe7ffeef	-0.24999593
109	0x3e2b6785	0.16738708
110	0x3c6b68ea	0.014368275
111	0x3e5e9bfe	0.21739194
112	0x3cf384e8	0.02972646
113	0x3de77195	0.11300961
114	0x3d9b0617	0.07569521
115	0x3dcca9cc	0.09993324
116	0xbc5292ca	-0.01285238
117	0xbd90009f	-0.070313685
118	0x3dc6a805	0.09700016
119	0xbc861cf6	-0.016371232
120	0x3c5a5eb8	0.013328247
121	0x3d3d81ff	0.046266552
122	0xbd364847	-0.044502523
123	0x3caa38a8	0.020778969
124	0x3e3490fd	0.17633434
125	0x3dbde13c	0.09271476
126	0x3df2b9bb	0.118518315
127	0xbcd21e33	-0.025649166
128	0xbde39c5a	-0.11113806
129	0x3deba49a	0.11506005
130	0x3deca211	0.11554349
131	0xbc8d5416	-0.01725201
132	0x3cccc7e6	0.024997663
133	0x3cbc4bec	0.022985421
134	0x3e0306be	0.1279554
135	0xbcf2f0cf	-0.029655842
136	0xbd11e9f3	-0.035623502
137	0x3e05605b	0.13025038
138	0x3d121dfc	0.035673127
139	0xbd837548	-0.06418854
140	0x3ce5b57d	0.028040642
141	0xbbdd800a	-0.006759648
142	0xbb715cd4	-0.0036829012
143	0x3d8dfc0f	0.06932842
144	0x3c1df359	0.009640538
145	0x3e123de8	0.14281428
146	0x3c5219ba	0.0128235165
147	0x3d021fc1	0.031768564
148	0xbd4a6dca	-0.04942111
149	0x3c63bce7	0.013900018
150	0x3db8d9a8	0.0902589
151	0xbd43eae4	-0.04783143
152	0x3d71b227	0.05900779
153	0xbd64ccb5	-0.055859286
154	0xbc15cbef	-0.00914286
155	0x3df5d51e	0.120035395
156	0xbdcdbaf7	-0.10045426
157	0x3d8f9578	0.07010931
158	0x3dd17b35	0.10228578
159	0xbd725fc4	-0.05917336
160	0x3dae0ee0	0.08498931
161	0xbc2e5d98	-0.010642432
162	0x3ccf7806	0.025325786
163	0x3cb26c5f	0.021780191
164	0xbcbb0d93	-0.022833621
165	0x3c87f72a	0.01659735
166	0x3dc81d84	0.09771255
167	0xbd3260d7	-0.043549385
168	0xbd048fdd	-0.03236376
169	0xbc086321	-0.008324415
170	0xbd5ae0b1	-0.05343694
171	0x3d249a45	0.040186185
172	0xbc940073	-0.01806662
173	0x3dc812b0	0.09769189
174	0xbdb180d6	-0.08667152
175	0x3d61fd38	0.05517313
176	0x3e0604fd	0.1308784
177	0x3bd37f64	0.006454395
178	0xbccf46b6	-0.025302272
179	0xbd28747e	-0.04112672
180	0x3da18651	0.07886947
181	0x3d1f8438	0.038944453
182	0x3d5b3198	0.053514093
183	0x3e0515bb	0.12996571
184	0xbd0fb434	-0.035083964
185	0x3d44d309	0.04805282
186	0x3c8217ff	0.015880583
187	0xbad83866	-0.00164963
188	0xbc53d9cb	-0.012930344
189	0x3d9dc8dd	0.07704327
190	0x3ce5a797	0.028034015
191	0xbb0ebe93	-0.0021781072
192	0x3cc60aa3	0.024174994
193	0x3db06237	0.08612483
194	0xbd220da8	-0.039563805
195	0xbd5c6253	-0.053804707
196	0x3e00aed8	0.12566698
197	0x3e12885b	0.14309828
198	0x3d8d0d0e	0.068872556
199	0x3ce253c2	0.02762783
200	0xbc861fb8	-0.016372547
201	0x3d70c8dd	0.05878531
202	0xbcdf1903	-0.027233606
203	0x3df604fa	0.12012668
204	0xbccb0d53	-0.024786627
205	0xbc8209a9	-0.015873747
206	0xbd696ac0	-0.05698657
207	0x3d2a38ca	0.041558065
208	0xbd5f3667	-0.05449524
209	0x3de0c43b	0.10974928
210	0x3d880ffd	0.066436745
211	0x3d4fafaa	0.050704636
212	0x3d4c45e3	0.049871337
213	0x3d923579	0.07139105
214	0xbd2d573c	-0.04231952
215	0xbcbcf79f	-0.023067294
216	0x3d097a4c	0.033563897
217	0x3d69da6f	0.05709308
218	0xbb6ce50b	-0.0036147262
219	0x3d96766f	0.07346808
220	0x3d5bc731	0.05365676
221	0x3dc8d94d	0.09807072
222	0x3dc9e7e5	0.098586835
223	0xbd89bca5	-0.06725434
224	0x3d03d857	0.03218874
225	0x3dc271d9	0.09494371
226	0x3d79a78c	0.0609508
227	0xbd8eb725	-0.06968526
228	0xbe661320	-0.22468233
229	0x3de0b694	0.10972324
230	0x3b58ae34	0.0033062818
231	0xbbb18306	-0.0054172305
232	0xbc9de910	-0.019276172
233	0x3dd45b97	0.10369032
234	0x3db2f1ae	0.08737503
235	0x3d97f8a1	0.07420469
236	0xbd629f3c	-0.05532764
237	0x3d26c4a9	0.040714893
238	0x3da49459	0.080361076
239	0x3dad6ef9	0.08468432
240	0xbedce24f	-0.4314141
241	0xbc803864	-0.01565189
242	0xbeabc6a3	-0.33549985
243	0x3f0f3d48	0.5595288
244	0xbe5f1a41	-0.21787359
245	0x3d5b2234	0.053499416
246	0x3f0a2302	0.5395967
247	0x3eb3f328	0.3514645
248	0xbd903395	-0.070410885
249	0x3ed5f990	0.41791964
250	0x3ec427b1	0.38311532
251	0x3df5d798	0.12004012
252	0x3e38cd2e	0.1804702
253	0x3e6eeabb	0.2333173
254	0x3ebeac80	0.37240982
255	0xbf3fffa9	-0.7499948

fc2.bias f4 [84]
0	0x3d52bd52	0.05145008
1	0x3d9b25b5	0.075755514
2	0x3cdbd193	0.026833331
3	0xbda3f50e	-0.08005725
4	0x3de38d85	0.11110977
5	0x3d709413	0.058734965
6	0x3d06c3e3	0.032901656
7	0x3ca1fae1	0.019772949
8	0xbce25e5e	-0.027632888
9	0xbcf08aca	-0.029363055
10	0x3d7ec958	0.062203735
11	0x3db2408e	0.08703719
12	0x3a745576	0.0009320596
13	0x3c12c1fc	0.008957382
14	0x3d7f4d50	0.06232959
15	0xbd3e6e79	-0.046492074
16	0xbd080f76	-0.03321787
17	0x3d9b3738	0.075788915
18	0xbd95771d	-0.0729811
19	0x3d113b14	0.035456732
20	0x3cf8fa7b	0.030392876
21	0x3d217cf7	0.039425816
22	0x3c2156bd	0.00984734
23	0xbde02184	-0.109438926
24	0xbc350cca	-0.011050412
25	0xbca4edb3	-0.020132875
26	0x3d9fd2f4	0.07803908
27	0xbd35d3ee	-0.044391565
28	0xbc5b6175	-0.013389935
29	0xbc8c0aa7	-0.017094923
30	0xbca61eb2	-0.020278309
31	0x3d2bdef0	0.041960657
32	0x3c9d5af4	0.019208409
33	0x3c962e34	0.018332578
34	0xbd925314	-0.07144752
35	0xbc14cff5	-0.009082784
36	0x3daeece8	0.0854128
37	0x3db1fd73	0.0869092
38	0x3c959a51	0.01826206
39	0x3bc728e8	0.0060778745
40	0x3d809370	0.062781215
41	0x3d28c23c	0.04120086
42	0x3da7636c	0.0817326
43	0xbd9e6064	-0.07733229
44	0x3d240a1b	0.0400487
45	0xbd362ddb	-0.044477325
46	0xbdc7b461	-0.097512014
47	0xbcaf2e26	-0.02138431
48	0xbc2cec97	-0.010554454
49	0x3dbababf	0.0911765
50	0x3c9a4fe5	0.018836925
51	0xbc92737b	-0.017877331
52	0x3cf15368	0.029458717
53	0xbce749f8	-0.028233513
54	0xbca5c7b8	-0.020236835
55	0xbdca3e40	-0.098751545
56	0x3d830021	0.06396509
57	0xbc18bac0	-0.009321868
58	0xbcabdc27	-0.020979
59	0x3c13d723	0.009023461
60	0x3cd6ea32	0.02623472
61	0x3ae91ad7	0.0017784488
62	0xbd49e89b	-0.049294095
63	0x3da187fc	0.07887265
64	0x3d97e448	0.07416588
65	0x3da15441	0.07877398
66	0x3d609379	0.05482814
67	0x3d49ac44	0.04923655
68	0x3d53c7a0	0.05170405
69	0x3d2b1110	0.04176432
70	0x3cebf27c	0.028802149
71	0x3c854fc3	0.016273385
72	0xbd3609a6	-0.044442795
73	0xbce0d13a	-0.027443517
74	0xbccfd7f1	-0.025371524
75	0xbd0de1c8	-0.03463915
76	0x3d579788	0.052634746
77	0x3dc33a77	0.09532636
78	0xbc7ebe78	-0.015548341
79	0x3c022779	0.007943981
80	0x3d86d0b5	0.065827765
81	0x3b869180	0.0041067004
82	0xbbe01464	-0.0068383683
83	0xbd3bf8cb	-0.045891564

fc3.weight f4 [6, 84]
0	0xbe659c83	-0.22422986
1	0xbdd6ac95	-0.10482136
2	0x3e41d05a	0.18927136
3	0xbdacae64	-0.084317
4	0xbe3a7893	-0.18210058
5	0xbd72cfdf	-0.059280273
6	0xbe5cf505	-0.21577843
7	0x3e3f9ad5	0.18711407
8	0x3c9aa73c	0.018878572
9	0x3d8f5b11	0.069997914
10	0xbdc1357e	-0.09434031
11	0xbd06bf04	-0.03289701
12	0x3e16ed06	0.14738855
13	0x3e8392d7	0.25697967
14	0xbe43b90f	-0.19113563
15	0xbe40dcd7	-0.18834244
16	0xbe0c43a6	-0.13697681
17	0xbddd5352	-0.10806908
18	0xbe8a8671	-0.27055696
19	0xbebafbfc	-0.36520374
20	0xbe2a3728	-0.16622603
21	0xbe11b954	-0.14230853
22	0x3d9673c5	0.073463
23	0xbe55f1f4	-0.20893079
24	0xbd0d2f8f	-0.034469184
25	0xbeb35e99	-0.3503311
26	0xbe4cc2a3	-0.19996123
27	0xbe701bfc	-0.23448175
28	0x3df2aef8	0.11849779
29	0xbd751f81	-0.059844498
30	0xbec6f6ce	-0.38860172
31	0xbec9094f	-0.39264914
32	0xbe02f00c	-0.12786883
33	0x3e03ca5b	0.12870161
34	0xbd8315c3	-0.06400635
35	0x3e74bfdb	0.23901312
36	0xbe1cfc9b	-0.15330736
37	0x3dd6842d	0.10474429
38	0x3c056f90	0.008144274
39	0xbe151e8e	-0.14562437
40	0x3e185216	0.14875063
41	0xbd19427b	-0.037416916
42	0x3de15c12	0.11003889
43	0xbda1ca20	-0.078998804
44	0xbccdf6e3	-0.025142139
45	0x3be3dab3	0.006953561
46	0xbdf0a2b3	-0.117497824
47	0x3ddbdc1d	0.10735343
48	0x3d672f1e	0.05644142
49	0x3bece6ee	0.0072296774
50	0xbeb999f2	-0.36250263
51	0x3df13d43	0.11779263
52	0x3c90adb2	0.01766095
53	0x3dbda26a	0.09259494
54	0x3c44a104	0.01200128
55	0x3ec8b6e1	0.39202026
56	0xbe26f549	-0.16304506
57	0x3df3d0d9	0.11905069
58	0xbe9a132f	-0.3009276
59	0x3d40b4bd	0.047047365
60	0x3d914cb7	0.0709471
61	0x3cc7b89c	0.02438002
62	0xbe21664f	-0.15761684
63	0x3df57ce2	0.1198671
64	0x3d893df5	0.067012705
65	0xbe3762a4	-0.17908722
66	0x3df0ad68	0.117518246
67	0xbdb1e9e4	-0.08687189
68	0xbc0a0771	-0.008424626
69	0xbdf1f251	-0.11813796
70	0x3d155937	0.036462035
71	0xbde98a44	-0.11403325
72	0xbe03ca72	-0.12870196
73	0xbbb62a60	-0.0055592507
74	0x3cfba584	0.030718572
75	0xbe6cc83b	-0.23123257
76	0x3da3fb9f	0.08006977
77	0xbe86140a	-0.26187164
78	0x3c78d9a7	0.015188611
79	0xbe192eb5	-0.14959224
80	0x3e0019eb	0.12509887
81	0x3de0d524	0.10978153
82	0x3e4821d2	0.19544151
83	0x3d947d77	0.07250493
84	0x3e1fe8df	0.15616177
85	0xbd0ebe68	-0.034849554
86	0xbefd10cc	-0.49426877
87	0x3e03352b	0.1281325
88	0xbe57adf5	-0.21062453
89	0x3b9323e3	0.004490362
90	0xbe441ba3	-0.19151168
91	0x3dc71cb0	0.097222686
92	0x3e93a53d	0.28837004
93	0xbe1275ab	-0.143027
94	0x3d886b69	0.06661112
95	0xbe244fe3	-0.160461
96	0xbead6e62	-0.33873278
97	0x3ee04b34	0.43807375
98	0x3e96546a	0.29361278
99	0xbedbd893	-0.4293867
100	0xbea33879	-0.31879023
101	0xbe09085f	-0.133821
102	0x3ae8684b	0.0017731277
103	0x3df84748	0.12122971
104	0xbe1aac92	-0.15104893
105	0x3e4d0149	0.20020021
106	0x3b5e9136	0.0033961064
107	0xbe55b315	-0.20869096
108	0x3d1d9269	0.038469706
109	0x3e53dbd7	0.20689331
110	0xbec884f0	-0.39163923
111	0x3dc009a7	0.09376841
112	0xbda8270e	-0.08210574
113	0xbe17ba0f	-0.1481707
114	0xbe86f7e0	-0.2636099
115	0xbd12e013	-0.035858225
116	0xbe8ccbd4	-0.2749926
117	0xbdd18226	-0.10229902
118	0x3c3ed033	0.011646318
119	0xbef700cf	-0.48242804
120	0xbe92cba7	-0.28671
121	0xbe9aee76	-0.30260056
122	0xbe927244	-0.28602803
123	0x3e1df0a6	0.15423831
124	0x3e3176bd	0.17330451
125	0x3d50ddd5	0.050992806
126	0xbef1ace6	-0.47202224
127	0x3e44b611	0.19210078
128	0x3e388292	0.18018559
129	0xbc6ee47b	-0.014580841
130	0x3e52f286	0.20600328
131	0xbecd8d4d	-0.40146866
132	0x3d86a350	0.06574118
133	0x3deebaa6	0.11656694
134	0x3dd65926	0.104662225
135	0xbe510958	-0.2041372
136	0x3db90dfd	0.09035871
137	0xbead8ca2	-0.33896357
138	0x3d830bb1	0.06398714
139	0xbdffc729	-0.12489159
140	0x3ea852ae	0.3287558
141	0xbe9b5f26	-0.3034603
142	0xbdb7ec97	-0.08980673
143	0x3e6aa2f1	0.2291372
144	0xbd1ca00d	-0.038238574
145	0xbe200763	-0.15627818
146	0x3dfc9664	0.12333372
147	0xbea67f9b	-0.3251923
148	0x3e996272	0.2995792
149	0xbd887942	-0.06663753
150	0x3e173d7f	0.14769553
151	0xbe19bc8d	-0.15013333
152	0x3e6257b7	0.22103773
153	0x3e066fa5	0.13128527
154	0x3db9611f	0.090517275
155	0xbe08beb3	-0.13353996
156	0x3c42ee05	0.011897569
157	0xbd2cc7f2	-0.04218287
158	0xbdeee6fd	-0.11665151
159	0xbe39790a	-0.18112579
160	0x3da09101	0.07840157
161	0x3e15bb22	0.14622167
162	0xbedf2a58	-0.43586993
163	0xbe35f814	-0.17770416
164	0x3cd777a8	0.026302174
165	0xbe522997	-0.20523678
166	0xbec87981	-0.391552
167	0xbdf574e2	-0.11985184
168	0xbbf5dd25	-0.007503169
169	0xbe324703	-0.17409901
170	0x3dcc71bc	0.099826306
171	0xbd280894	-0.041023806
172	0x3e66c349	0.22535433
173	0xbdc18f8d	-0.09451208
174	0x3d87fbcb	0.066398226
175	0xbdd1b1da	-0.102390006
176	0x3e2c4107	0.16821681
177	0xbd91090a	-0.07081802
178	0xbddf7fd0	-0.1091305
179	0xbd43f5ad	-0.047841717
180	0x3ae53426	0.0017486855
181	0xbea20468	-0.31643987
182	0xbe8eecc4	-0.27915013
183	0xbed96922	-0.42463022
184	0x3ddcfb2c	0.10790095
185	0xbda5e1f4	-0.08099738
186	0x3df9f28e	0.12204467
187	0x3e7635b3	0.24043922
188	0xbe156401	-0.1458893
189	0x3db9591a	0.09050198
190	0x3dde9910	0.10869038
191	0xbea74bce	-0.32675022
192	0x3a72caf1	0.0009261808
193	0x3e490e08	0.19634259
194	0xbde2c9c7	-0.11073642
195	0xbe42d882	-0.19027904
196	0xbdf88663	-0.12135007
197	0x3c45823c	0.012054976
198	0x3d5bc9cb	0.05365924
199	0x3e07e154	0.1326955
200	0x3c367ea0	0.011138588
201	0xbe812a99	-0.25227812
202	0xbe8fbc62	-0.28073412
203	0x3e7a5508	0.244465
204	0x3e2cabfd	0.16862483
205	0x3e06aaa1	0.13151027
206	0x3e95dc48	0.29269624
207	0xbe629e90	-0.221308
208	0x3d055d9a	0.03255997
209	0xbd84d778	-0.0648641
210	0x3e2d844c	0.16944999
211	0xbf016ee3	-0.50559825
212	0x3d0e0d5f	0.03468072
213	0xbdb2ced4	-0.087308556
214	0x3e507117	0.2035564
215	0x3e90a5ad	0.282514
216	0xbd2baed4	-0.041914776
217	0x3c85a4f1	0.016314002
218	0xbda2c80c	-0.07948312
219	0xbcdd2c39	-0.026998626
220	0xbcd83941	-0.026394488
221	0xbe50bc61	-0.20384361
222	0xbe063cb6	-0.13109097
223	0xbd1ff274	-0.03904958
224	0x3e22c959	0.1589712
225	0x3d96f8c7	0.07371669
226	0xbd80ac6a	-0.062828854
227	0xba600e6f	-0.00085470726
228	0x3d7a3f77	0.06109568
229	0x3dab37c5	0.083602466
230	0x3dc65fc4	0.096862346
231	0x3c367909	0.0111372555
232	0xbe90bd1b	-0.28269276
233	0x3da4e38f	0.08051216
234	0xbd66c055	-0.056335766
235	0xbe05c8d1	-0.13064887
236	0xbe6ff375	-0.23432715
237	0x3db0dc9a	0.086358264
238	0xbe682ece	-0.22674105
239	0x3cd11ff6	0.025527935
240	0xbdd9d04a	-0.10635431
241	0xbe3e32e7	-0.18574105
242	0xbf05556d	-0.52083474
243	0x3e07da88	0.13266957
244	0xbd0e088e	-0.034676127
245	0x3dece06c	0.115662426
246	0xbe11fbdc	-0.14256233
247	0xbe257e55	-0.16161473
248	0xbe5fa699	-0.21840896
249	0x3d115871	0.035484735
250	0x3e0747dc	0.13211006
251	0xbe76b2d6	-0.24091658
252	0x3c38a1fa	0.011269087
253	0x3d2d9e3b	0.04238723
254	0x3e5517a8	0.20809805
255	0xbe20f771	-0.15719391

fc3.bias f4 [6]
0	0xbd9e20e8	-0.0772112
1	0xbdb38c50	-0.08766997
2	0xbd6b5a8c	-0.0574594
3	0xbcd76941	-0.026295306
4	0xbd326394	-0.043551996
5	0xbd6e74b2	-0.058216758
