ReputationOnly/Reputation Bias Test/Sigmoid_linearMSE_adam_4427.pth (torch_old, 3197 bytes, 6 tensors)

fc1.weight f4 [24, 6]
000000 76 7a 3a 3d c5 fc 22 bf 0e b4 11 bf d8 9d 80 bd
       0.045526944 -0.63666946 -0.56915367 -0.06280106
000010 8c 6b 72 3e 28 b0 c3 3e 0e 6c 2c bf 9a 9a 23 3f
       0.23673838 0.38220334 -0.6735238 0.6390778
000020 43 9c 9e bf c3 bc bb 3f 95 80 14 bf c5 9d d3 bd
       -1.2391437 1.466698 -0.580087 -0.103328265
000030 9b 11 58 40 bd 0a 2e 3f 6e 09 92 be 23 b6 26 3f
       3.3760746 0.67985135 -0.2852282 0.6512167
000040 28 f2 0e 3e 86 7e e1 bf 09 a4 8c 3e a5 ec 75 be
       0.13959563 -1.7616737 0.274689 -0.24016054
000050 a6 e7 04 3e ce 08 d5 be 30 94 ab bf fd a2 7c 3f
       0.12978992 -0.4160828 -1.3404598 0.986862
000060 9a db 05 3e ab 88 e6 3e a5 57 cf bd c0 82 81 3e
       0.13072053 0.45026144 -0.10124139 0.25295067
000070 07 9e 71 3e 38 da 3f c0 2c e2 8b 40 ea 0c 04 40
       0.23595439 -2.997694 4.371359 2.0632882
000080 b0 2a 96 3f 93 2e 70 bf cf 7f 0d 3f 1f 2e 08 be
       1.1731777 -0.93821067 0.55273145 -0.13298844
000090 f1 e4 a0 3f 8e 45 1d bf 2f 7d f8 bf 2b a2 0c 40
       1.2569867 -0.6143426 -1.9413203 2.197398
0000a0 37 ee 9d 3e b7 ff 33 3f 3b 66 88 be 1e 84 2a c0
       0.30845806 0.70312065 -0.26640496 -2.6643138
0000b0 eb c2 fd 3d d6 0a 4c 3e aa fb 08 3f 25 bb 82 3e
       0.12390693 0.19926009 0.5350901 0.25533405
0000c0 82 71 61 40 fe 83 cf be 67 8c 1c 40 e8 41 f7 bf
       3.522553 -0.4053039 2.4460695 -1.9316988
0000d0 c0 56 f4 be 87 e9 df 3f 07 b2 19 bf 49 25 14 3e
       -0.47722435 1.7493142 -0.60037273 0.14467348
0000e0 ce 2c 95 3f 28 43 02 40 a7 83 d8 3e ce d4 9f 3f
       1.1654298 2.035349 0.42287943 1.2486818
0000f0 ff 87 81 40 9d 8c 61 3f 8c 9a c9 bf f8 7d 6d 3d
       4.047851 0.88105184 -1.5750289 0.05798146
000100 10 4e 5f bf bf 54 bd bf da bc 66 bf 4a 6a 5d 3f
       -0.8722849 -1.4791487 -0.90131915 0.8649031
000110 51 21 22 bf 6d f0 fd be 94 82 61 3f 69 c5 0f bf
       -0.63332087 -0.49597493 0.8808987 -0.561606
000120 cb 78 eb 3e 74 89 13 bf 42 40 f3 3f 45 bb 99 3f
       0.45990595 -0.5763161 1.9003985 1.2010275
000130 69 31 35 bf fc 26 9e 3e 05 c2 b5 3d 35 a4 37 be
       -0.7077852 0.30889118 0.08874897 -0.17933734
000140 71 37 55 3f b3 b1 19 3f d1 97 c4 bf 02 a4 18 be
       0.8328772 0.6003677 -1.5358831 -0.14906314
000150 5e 73 2b bf 56 b4 d8 3f bd 8e 1d be a5 61 7b 3f
       -0.6697291 1.6930034 -0.15386482 0.9819587
000160 0d 37 09 bf 5b 9e 38 be 5d 5b 6e be 68 a2 d0 3c
       -0.53599626 -0.18029158 -0.2327704 0.025468066
000170 2d 59 16 40 ac ba 14 be 06 1a 3a be 0f e4 86 be
       2.3491929 -0.14524335 -0.1817399 -0.2634587
000180 26 65 7c 3f 3e 2a 28 bf ec 33 94 bf 9e 30 5b 3f
       0.9859184 -0.65689456 -1.1578345 0.8562106
000190 9e f2 34 bf 6a f7 8a 3f ff 92 1e c0 98 8f b3 be
       -0.70682704 1.0856755 -2.477722 -0.3507049
0001a0 3a 33 74 3e 58 fa 1d 3f 2a 66 65 be a3 ec 2f 3e
       0.23847666 0.6171012 -0.22402254 0.17180113
0001b0 7f 34 98 be 9b ff 6a 3f 60 8b 4e 3f 04 dd 2b c0
       -0.2972755 0.91796273 0.8068142 -2.6853647
0001c0 71 1c 95 3e 1c 73 ac 3d 69 0e f5 bf 5c 8f 69 3e
       0.29123262 0.08420393 -1.9145023 0.22808594
0001d0 e0 99 16 bf 2f 44 8c 3f 5c e0 d3 3e 05 2d a1 be
       -0.58828545 1.0958308 0.4138211 -0.3147966
0001e0 09 9d ca 3e 1c 5b 30 3f c2 8e 22 be ca 5f c6 be
       0.39572933 0.6888902 -0.1587477 -0.38744956
0001f0 c6 f2 f8 bf ad 06 01 be da 01 3d 3f eb 22 00 bf
       -1.9449089 -0.12600203 0.7383095 -0.5005328
000200 30 45 82 3e 67 f6 94 bf 3d bf 01 3e 7d 0c 89 3e
       0.2544341 -1.1637696 0.12670608 0.2676734
000210 e8 68 48 3f 1f 9f dc be ee a9 1b bd f4 4d 3c bd
       0.78285074 -0.4309015 -0.038003854 -0.04597278
000220 78 43 ee 3e 37 13 a7 be 6e 6e 09 c0 e9 ae 20 40
       0.4653585 -0.32631847 -2.147365 2.5106757
000230 e0 67 37 be 28 49 c4 bf 87 db 15 40 e6 02 d3 3d
       -0.17910719 -1.5334826 2.341524 0.10303287

fc1.bias f4 [24]
000000 66 65 b7 bd fa 42 c9 3f a2 9c 6d bf bd af dc be
       -0.08954887 1.5723565 -0.9281713 -0.43102828
000010 43 9c aa 3e d9 da fb bf 86 dd 9c 3f a9 48 98 3d
       0.33322343 -1.9676162 1.2255104 0.07435734
000020 16 a1 3c bf fb cf e3 bf f3 ef 72 bd b8 61 00 c0
       -0.736833 -1.7797846 -0.059310865 -2.0059643
000030 1a eb 11 bf bb 25 11 c0 3d 81 e0 be e2 54 c1 be
       -0.5699936 -2.267928 -0.438486 -0.37760073
000040 41 90 96 bf 15 ad ff be 0c 55 48 bf 3e 70 f7 bf
       -1.1762773 -0.4993674 -0.7825477 -1.9331129
000050 75 df 77 3f f0 a8 5e 3d 1c 33 80 be 37 e7 60 bf
       0.96825343 0.05436033 -0.25038993 -0.87852806

fc2.weight f4 [12, 24]
000000 30 b3 73 3f bf 59 e7 bd 82 90 c3 be 27 74 4d 3e
       0.95195293 -0.112964146 -0.38196188 0.2006384
000010 47 84 ab 3f 52 95 bc be c5 ef 45 3e 32 a6 c2 3e
       1.3399743 -0.36832672 0.19329746 0.38017422
000020 09 e2 6b be f5 22 9f be d1 67 2e 3f 54 de fc bb
       -0.23035444 -0.31081358 0.6812716 -0.0077169333
000030 ae ab 02 3f bb 34 b9 bf 56 02 48 bf 4a e1 d1 bf
       0.5104321 -1.4469217 -0.78128564 -1.6396878
000040 fe c2 30 3f 5d b7 4a bf 08 49 b9 bf 7b e6 e4 3e
       0.69047534 -0.7918604 -1.4475412 0.44707093
000050 f6 39 a9 3d e8 e2 12 be 4f 7b 7f 3f 1b 8e a0 be
       0.08263008 -0.1434437 0.9979753 -0.31358418
000060 bb 29 d1 3e 32 ba db bd 99 17 8e 3f 46 45 db bd
       0.4085215 -0.10728873 1.1100951 -0.10706572
000070 91 6d c2 3f d2 11 ca 3d 40 3d 04 bc 1f 5c 34 bf
       1.5189687 0.0986668 -0.008071244 -0.70453066
000080 d8 65 aa 3e 95 ca 0d c0 27 08 5c be fc 7f 82 3e
       0.33280826 -2.2154896 -0.21487485 0.2548827
000090 06 0a 08 bf fd b4 bc be a0 3b 5e 3e 06 7d 68 bf
       -0.53140295 -0.36856833 0.21702433 -0.9081577
0000a0 71 92 f8 bf 37 9c a1 bf 2a c0 ae 3d 91 8e 3f be
       -1.941969 -1.2625798 0.08532746 -0.18706729
0000b0 91 df ed 3f 2f 17 ea 3f 6c 94 d8 3f 3d 70 a3 3d
       1.8583852 1.8288325 1.6920295 0.07980392
0000c0 bc d5 9b bf c9 74 8c 3f d1 d2 49 bf 63 6c 63 3e
       -1.2174602 1.097314 -0.78837305 0.22209315
0000d0 37 f1 76 3f aa 0f 30 bd 09 22 94 be 58 fd 80 bf
       0.96461815 -0.04298369 -0.28932217 -1.0077314
0000e0 09 0a 84 bf f9 a5 bc bd df 85 25 3f af 9e 56 3c
       -1.0315562 -0.09211344 0.64657396 0.013099357
0000f0 75 72 28 3f 34 9d 75 3e ed 14 60 3e da 4c eb be
       0.6579965 0.2398575 0.21882983 -0.4595707
000100 5d 5f aa bd f3 82 d7 3f ff 9e 7c 3d 3b 1d e4 be
       -0.0831897 1.6836838 0.061675068 -0.4455355
000110 c9 ce e9 3f d1 0a 90 bf a3 71 a4 bf 41 52 68 bf
       1.8266231 -1.1253301 -1.2847179 -0.9075051
000120 be b7 d6 3e 87 0b 42 3e 7c 06 02 40 36 ab 52 bf
       0.4193706 0.1894971 2.0316458 -0.822925
000130 f0 70 5c 3f 40 82 a4 3e 18 7f a1 3d c1 cc 4b be
       0.8610983 0.32130623 0.07885569 -0.19902326
000140 01 00 b4 3c 31 4e 71 bf be b3 4e 3e 6d 05 bc 3e
       0.021972658 -0.94259936 0.20185754 0.3672289
000150 2a ff b2 bd 83 c6 02 be a1 d4 1f 3d ea c5 7b be
       -0.08740075 -0.12771039 0.039021138 -0.24587217
000160 c0 db 12 bc 81 da fc bd 47 35 4f 3e 6c a4 d1 be
       -0.008963525 -0.12346364 0.20235167 -0.40945756
000170 4b 1c 19 c0 a9 bb 14 3e da 0d 56 3f b3 ff 21 3f
       -2.3923519 0.14524712 0.83614886 0.6328079
000180 18 50 bc bd ed 00 53 bd 14 92 c9 bf f6 4c 5d 3f
       -0.09194964 -0.051514555 -1.5747705 0.8644556
000190 d1 19 c5 bf 33 36 18 3f f7 ab 45 3f fd 65 1c 3f
       -1.5398504 0.594577 0.7721552 0.6109312
0001a0 e1 d3 c3 3e b7 5c b8 bf 47 29 14 be be 39 21 3c
       0.38247588 -1.4403294 -0.14468871 0.009840427
0001b0 4c da 31 be 22 cd 89 bf bb c4 da 3e e4 ad 73 bf
       -0.1736843 -1.0765727 0.42728218 -0.9518721
0001c0 80 06 6b 3f 19 76 88 bf 2f a2 20 3f 67 c1 d5 3e
       0.91806793 -1.066104 0.6274747 0.41749117
0001d0 84 25 81 3f 1b aa a2 3f 0e 5f 8c be 97 7c 0d 3f
       1.0089574 1.2708162 -0.2741627 0.55268234
0001e0 13 bf b5 be 85 fe 98 3e 02 09 8c 3f 57 93 a7 be
       -0.3549734 0.29881683 1.0940249 -0.327296
0001f0 e6 fd 87 3f 7e 42 3c 3e 9e 00 d8 bd c9 a6 43 bf
       1.0624359 0.1838474 -0.10546993 -0.7642637
000200 8c 4b 06 bf 3f 48 24 bf f4 a1 9f 3e 62 5a e1 3c
       -0.52459025 -0.6417274 0.31178248 0.027508918
000210 d9 5f 65 3e 04 82 3c 3f d8 22 b4 3c 83 8c 59 3e
       0.22399844 0.7363589 0.021989271 0.21245007
000220 9d 61 38 bf 0e 6e 60 3f fa 1e a4 be 6b ea e7 3c
       -0.72023946 0.8766793 -0.32054883 0.028310021
000230 3c 1a 3a 3f f2 5e 28 bf 65 dd b4 3e 20 a9 32 ba
       0.7269628 -0.65769875 0.3532516 -0.0006815363
000240 90 ea df 3e b1 aa f6 be 05 06 94 3f 84 9b b0 3f
       0.43733644 -0.48177102 1.1564337 1.379746
000250 14 82 e0 bf 88 67 fe be 7c 1f 93 3e ae 93 8a bf
       -1.7539697 -0.49688363 0.28734958 -1.0826318
000260 a8 ff 13 3f db 34 a7 bf 18 a5 ce bd fb 20 e0 bd
       0.57811975 -1.3063005 -0.10090083 -0.109437905
000270 eb d2 73 3d 6c de a5 3f 81 08 59 3f f4 db 10 bd
       0.05952732 1.2958503 0.847786 -0.035366014
000280 0c 2e 6f be 6e 50 a0 3e 51 04 7f 3f 4f d4 74 be
       -0.23357409 0.31311363 0.9961596 -0.23909114
000290 64 ca cd 3f 04 0d a4 3f 53 54 bf bf 7a 7e 70 be
       1.607739 1.2816472 -1.4947609 -0.23485747
0002a0 7c 5e a6 3e f6 d2 7b 3e 5f 55 3e bf 1f 49 0c 3f
       0.3249396 0.24592194 -0.74349016 0.54799074
0002b0 4b 1c 64 bf a6 a8 93 bf 62 27 91 3f cc 9a 0c 3f
       -0.8910567 -1.1535842 1.1340144 0.549237
0002c0 c5 5a cc be f0 fb 0d 40 38 24 11 3d 54 21 f0 bc
       -0.39913002 2.218502 0.03543493 -0.029312767
0002d0 2d 70 a1 bf ff 9e 87 bc a7 80 01 3d 09 14 84 bf
       -1.2612358 -0.016555307 0.031616833 -1.0318614
0002e0 56 8e a1 3e 73 9e ad 3e 39 40 c7 3e 6c 97 e0 3e
       0.31553906 0.3390995 0.38916185 0.43865526
0002f0 c6 c8 16 bf 45 67 b9 be 86 66 af 3e 3d a5 22 bf
       -0.58900106 -0.362116 0.34257907 -0.63533384
000300 d7 21 d5 be 45 71 ab bd 75 b5 ff bd 85 ba 8a be
       -0.4162738 -0.08371214 -0.12485782 -0.27095428
000310 08 5c 3e 3f 5d 20 77 3e e4 35 43 bf 09 5b d1 3f
       0.7435918 0.2413344 -0.76254106 1.6355907
000320 37 d1 6d bd cf c4 82 be 79 b6 46 3f 3a a6 41 bf
       -0.05806085 -0.25540778 0.7762218 -0.75644267
000330 2e 72 e0 3f 5c 5d a5 3f 33 f4 ae bf cf 2b d3 3f
       1.7534845 1.2919116 -1.3668274 1.6497744
000340 0c 1c be bd 3e 6f 80 be dd ed 88 bf 66 c8 1c bf
       -0.09282693 -0.2508487 -1.069759 -0.61243284
000350 dd 01 b7 3e 36 b3 81 bf 37 45 75 3e 71 52 8f bf
       0.3574361 -1.0132816 0.23952185 -1.1197034
000360 a3 49 5a 3f 40 43 d7 3e c4 3f a4 bf 0c 92 a9 bf
       0.8526861 0.42043495 -1.283196 -1.3247695
000370 fc bb ea 3f d6 92 c7 3d a4 2c fb be db 68 04 3f
       1.8338618 0.097448036 -0.49057496 0.51722497
000380 ab ef 0e bf 15 3e 65 3b a7 ec 9b bf 5a 4d 1a 3f
       -0.55834454 0.003497963 -1.2181596 0.6027428
000390 6f c5 0f bf 95 a9 44 bf 4d c7 c0 be 80 84 52 3f
       -0.56160635 -0.7682126 -0.37652054 0.8223343
0003a0 b9 99 8e bf 3c 5a b6 3f 20 bc 3d 3f 38 01 9c be
       -1.1140662 1.4246287 0.7411518 -0.3046968
0003b0 0d ee 63 be 56 cf 4e 3d 91 01 9d be 93 05 88 3f
       -0.22258778 0.0504907 -0.30665258 1.0626701
0003c0 f5 9d 05 bf 80 f7 e8 3e 4d 49 ad bf f3 c4 a3 bd
       -0.5219415 0.45501328 -1.3537995 -0.079965495
0003d0 44 88 0d bf 86 7b cd 3e 2f 47 17 3f 7b 47 dd bf
       -0.5528605 0.40133303 0.5909299 -1.7287439
0003e0 71 23 d5 bd 70 82 1c 3e f3 bf a8 3f c5 f0 f5 3d
       -0.104071505 0.15284133 1.3183578 0.12008814
0003f0 01 43 a8 3a b7 37 25 3f e3 1c bd 3f 85 99 de be
       0.0012837352 0.6453814 1.477444 -0.434765

fc2.bias f4 [12]
000000 b1 39 7d 3b c0 79 04 be cc 75 e5 bd 30 32 6a bc
       0.0038639123 -0.12937069 -0.112041086 -0.014294192
000010 d8 f3 dc 3e 4c e7 5f be 7c 37 ca bd 11 45 21 3e
       0.43154788 -0.21865577 -0.09873864 0.15749003
000020 62 35 b1 be 57 c5 28 be a4 63 a6 3d a8 d3 d5 be
       -0.3461104 -0.16481529 0.08124474 -0.41763043

fc3.weight f4 [6, 12]
000000 8c 00 a3 3e 41 cf 80 3f db ed a1 be b1 32 a3 be
       0.31836355 1.0063249 -0.31626782 -0.31874612
000010 17 f1 65 3c 28 31 bd be 8c 3b bf 3e cb 56 a7 bf
       0.014034531 -0.36951566 0.37350118 -1.3073362
000020 3e f9 e0 3e a1 be 9e bf f7 3b f4 be 46 29 df bf
       0.43940157 -1.2401925 -0.47702 -1.7434471
000030 3e bc a2 bf b0 30 89 3e da ff 6b 3f 55 e9 92 be
       -1.2713697 0.26794958 0.92187274 -0.28693643
000040 eb fa b7 bd 15 c5 8c 3e 85 3a 10 3f 98 8d a4 bf
       -0.08983406 0.27494112 0.56339294 -1.2855711
000050 aa a2 c2 bf 26 87 cb 3e 09 a1 14 3f ce 9e 94 bf
       -1.5205891 0.39751548 0.5805822 -1.1610963
000060 dd 65 8c bf 3e 1f 24 be c2 91 92 be 5c 67 1f bf
       -1.0968586 -0.16027543 -0.2862683 -0.6226709
000070 0f 53 10 bf 95 b8 9a be 5b 8b 69 be d3 44 bc bf
       -0.5637674 -0.3021895 -0.22807066 -1.4708503
000080 67 3f 82 3f 21 3e 34 bc 61 3c 38 bf b9 ac 87 3f
       1.0175599 -0.011001141 -0.7196713 1.0599586
000090 eb 32 47 3f 26 89 9c bf e3 24 32 3f 86 e5 0b bf
       0.7781207 -1.2229354 0.69587535 -0.546471
0000a0 23 5f b9 bf 6d 9a ce 3e 5d 85 84 bf 70 af 1f 3f
       -1.4482158 0.40352193 -1.0353199 0.6237707
0000b0 fb 02 aa 3d 98 9c 51 bf dd 55 56 3e 3c 4b 11 3d
       0.0830135 -0.8187957 0.20931192 0.03547214
0000c0 76 2e 4c be 5a b0 b2 3d e0 74 81 bf 2b b3 ad 3e
       -0.19939598 0.08725043 -1.0113792 0.33925757
0000d0 e5 73 93 be d4 92 bc be 8b 3f 98 bf e4 1d c7 3e
       -0.28799358 -0.3683077 -1.1894392 0.38889992
0000e0 3e d9 6a bf 1c 48 3c 3f a9 49 50 bf b4 d1 4a be
       -0.91737735 0.7354753 -0.81362396 -0.19806558
0000f0 42 81 05 bf a1 36 72 bf 4a 97 30 bf 0d 66 4e bf
       -0.52150357 -0.9461461 -0.6898085 -0.8062447
000100 44 4e 49 3e 86 9f 90 bf f3 10 f1 3e d8 53 8d 3f
       0.19658762 -1.1298683 0.47083244 1.1041212
000110 e1 0c 50 bf 23 9b 48 bf 18 48 01 be 1c 25 29 3c
       -0.8126965 -0.7836172 -0.12625158 0.010323789

fc3.bias f4 [6]
000000 c5 e5 ed be 14 28 fa be fd ed cd be fb 41 c9 be
       -0.46464363 -0.48858702 -0.40220633 -0.39308152
000010 4c d3 ae 3c 6b d4 30 be
       0.021340989 -0.17268531
