ReputationOnly/Reputation Bias Test/Sigmoid_linearMSE_adam_4536.pth (torch_old, 3197 bytes, 6 tensors)

fc1.weight f4 [24, 6]
0	0xbf27daa5	-0.65568
1	0x3f57162a	0.84018195
2	0x3ee3b3c9	0.44473103
3	0x3ec15bfc	0.3776549
4	0xbea7f6c8	-0.32805467
5	0x3eada6f9	0.33916453
6	0x3f00e89b	0.5035493
7	0x3f0117bb	0.50426835
8	0xbe211b17	-0.1573299
9	0x3f32c704	0.69834924
10	0xbe010953	-0.12601213
11	0xbe2993c2	-0.16560271
12	0xbea8a69c	-0.32939613
13	0x3f30547e	0.68878925
14	0xbf8374c6	-1.0270011
15	0x3dda6a41	0.106647976
16	0x3c9937dc	0.018703394
17	0x3fcb55be	1.5885541
18	0xbea4ae9b	-0.32164463
19	0xbd99188f	-0.07475387
20	0xbdbb124e	-0.09134351
21	0x3f530fb1	0.8244582
22	0xbec00924	-0.37506974
23	0x3ea1b36c	0.315822
24	0x3dc516aa	0.096234635
25	0x3eddacaf	0.4329581
26	0xbf96e844	-1.1789632
27	0xbfc9584b	-1.573007
28	0x3ee3b384	0.44472897
29	0x3e86208c	0.26196706
30	0x3fc90c84	1.5706944
31	0x3ea42c61	0.32065108
32	0x3f807375	1.0035235
33	0x3e1d09d5	0.15335782
34	0xbef87e4d	-0.4853386
35	0xbf4c633e	-0.7983893
36	0x3cf7988e	0.03022411
37	0xbdf08d90	-0.11745751
38	0xbea0d424	-0.3141185
39	0x3cb1a3ca	0.021684546
40	0x3f73abb2	0.9518386
41	0xbee675c9	-0.45011738
42	0x3f65cdc4	0.897671
43	0xbedb2007	-0.42797872
44	0xbf473cf3	-0.77827376
45	0x3f583db9	0.8446918
46	0xbf1c0491	-0.6094447
47	0x3fb39707	1.4030465
48	0xbf98c4d3	-1.1935066
49	0xbf2854bd	-0.657543
50	0x3f226d9c	0.634485
51	0xbebdce80	-0.3707161
52	0x3eb1dc2f	0.347383
53	0x3f788e3e	0.97092044
54	0x3f1111b5	0.56667644
55	0x3fb3fce8	1.4061556
56	0x3e11f4c2	0.14253524
57	0xbef708db	-0.48248944
58	0x3dc90b4d	0.098166086
59	0xbedb038c	-0.42776144
60	0xbf43b956	-0.76454675
61	0x3f62e730	0.88634014
62	0xbddb4cad	-0.10707984
63	0x3e12508c	0.14288539
64	0xbe4821d1	-0.1954415
65	0xbda21dd4	-0.079158455
66	0x3f00bc92	0.50287735
67	0xbf7decf5	-0.9918969
68	0xbcdde523	-0.0270868
69	0x3f9e0a3b	1.2346872
70	0xbb0b9fc9	-0.0021304956
71	0xbe599e5a	-0.21251813
72	0x3fa24fba	1.2680581
73	0x3e72b9e4	0.23703724
74	0xc00f92fa	-2.2433457
75	0xbd9dadda	-0.07699175
76	0x3f13c3a7	0.57720417
77	0x3f0d94aa	0.5530497
78	0x3e4f1467	0.20222627
79	0x3e385523	0.18001227
80	0xbf63951f	-0.88899416
81	0x3f026e21	0.50949293
82	0x3ea00b1b	0.31258473
83	0xbf2ae729	-0.6675897
84	0xbe0af2f5	-0.13569243
85	0xbeab8d58	-0.33506274
86	0x3f804ad1	1.0022832
87	0x3ed50f14	0.41613066
88	0xbe96ac62	-0.29428393
89	0x3f8d8118	1.1055021
90	0xbec73b11	-0.38912252
91	0x3e23ca02	0.15995029
92	0xbf9decf6	-1.233794
93	0x3ee68c9c	0.4502915
94	0x3ecb259b	0.39677128
95	0xbefce847	-0.49395964
96	0xbe9f5546	-0.31119746
97	0xbeb6e904	-0.35724652
98	0xbf054d37	-0.52070946
99	0xbdb8a3b8	-0.09015602
100	0x3fc3d67a	1.5299828
101	0x3e1fb986	0.15598115
102	0x3e2c20bd	0.16809364
103	0xbddc84d4	-0.107675225
104	0x3f815ede	1.0107076
105	0xbf29e2a2	-0.6636144
106	0x3f08cfc7	0.53442043
107	0xbeb6bc29	-0.3569043
108	0x40130e44	2.2977457
109	0xbf2bd7f6	-0.67126405
110	0xbe93174b	-0.2872871
111	0xbdbe2b3f	-0.09285592
112	0x3e444fd1	0.19171073
113	0x3fde12ea	1.7349522
114	0xbecf5ee6	-0.4050209
115	0xbeb3ded1	-0.35130933
116	0x3e9f4513	0.31107387
117	0x3ee3a280	0.44459915
118	0x3fb7940d	1.4342057
119	0x3e3b3c95	0.18284829
120	0xbf42d94d	-0.76112825
121	0x3d767b6b	0.060176294
122	0x3e6c5871	0.23080613
123	0xbeb409a7	-0.35163614
124	0x3f591141	0.8479195
125	0x3f146599	0.57967526
126	0x3e994e45	0.29942527
127	0x3efb813c	0.49122036
128	0xbf95d589	-1.1705791
129	0x3eca0cf9	0.39463022
130	0x3f853678	1.0407248
131	0xbd5298cc	-0.05141525
132	0x3ef7c47d	0.48392096
133	0xbf6f6a04	-0.9352114
134	0xbf4541cd	-0.7705353
135	0xbfad5f41	-1.3544694
136	0x3eef329e	0.46718305
137	0x402bc4de	2.6838908
138	0x3fcefb97	1.6170529
139	0x3d32237f	0.043490883
140	0xbe1b0a9b	-0.15140764
141	0xbed842f4	-0.4223858
142	0xbd98f29f	-0.07468151
143	0x3ec78c22	0.389741

fc1.bias f4 [24]
0	0xbeda1de6	-0.42600936
1	0xbef419d7	-0.47675964
2	0xbef011d9	-0.46888617
3	0x3e9126d9	0.2834995
4	0x3eb9c825	0.3628551
5	0x3db260a3	0.08709838
6	0xbec45169	-0.3834336
7	0xbf813eb3	-1.0097259
8	0xbe922a7c	-0.28548038
9	0x3de468ac	0.11152777
10	0xbe511832	-0.20419386
11	0xbd9cd134	-0.0765709
12	0xbf6c34c6	-0.92268026
13	0xbf7ea291	-0.99466807
14	0xbf081573	-0.5315773
15	0x3eff8044	0.49902546
16	0x3ee9135b	0.4552258
17	0xbe429a34	-0.19004136
18	0xbfbce45e	-1.4757192
19	0xbfb0bb9b	-1.3807253
20	0xbe9e409c	-0.30908668
21	0xbfdd9e8e	-1.7314012
22	0x3f906a35	1.1282412
23	0xbdb02ea2	-0.086026445

fc2.weight f4 [12, 24]
0	0x3e172bc7	0.14762793
1	0x3ed50e9d	0.41612712
2	0x3e594c12	0.21220425
3	0x3dc007b9	0.09376473
4	0x3e8be22a	0.27320987
5	0x3e54d2ae	0.20783493
6	0x3ea01186	0.3126337
7	0x3e4cd7c7	0.20004188
8	0x3ccd8f88	0.025092855
9	0x3e348410	0.17628503
10	0x3df17474	0.1178979
11	0x3e33e952	0.17569473
12	0x3e99d43b	0.30044731
13	0x3f38de4e	0.7221421
14	0xbdfd65f0	-0.12372959
15	0x3ee22a5b	0.4417294
16	0xbdfa921d	-0.122349
17	0xbd9c3f47	-0.07629257
18	0x3e4901e2	0.19629624
19	0xbe1cbb6a	-0.15305868
20	0x3e36b5ef	0.1784284
21	0x3eaa8e4f	0.33311698
22	0x3be0c0ea	0.0068589346
23	0x3ce35b85	0.0277536
24	0x3e401296	0.1875709
25	0xbea5590b	-0.32294497
26	0x3f08f592	0.5349971
27	0x3ef71eca	0.48265678
28	0x3e421d9e	0.1895661
29	0xbfb6ae58	-1.4271955
30	0xbed75638	-0.42057967
31	0x3ea8fcc9	0.3300536
32	0x3ee2fcfc	0.44333637
33	0xbe8d6ad8	-0.27620578
34	0x3dd7098e	0.10499869
35	0xbef9e82f	-0.48809955
36	0x3dea5fc5	0.11444048
37	0xbfa0f29a	-1.2574036
38	0x3eeeab93	0.46615276
39	0x3f33e03a	0.7026402
40	0x3e94f0b7	0.290899
41	0xbfb18729	-1.3869373
42	0x3e8c6ed1	0.27428296
43	0x3c8232b9	0.015893327
44	0x3e4420ff	0.19153212
45	0xbef5dea1	-0.48021415
46	0x3e8b9a9c	0.27266395
47	0x3d776b3c	0.060405
48	0xbf5fe1a7	-0.87453693
49	0xbf534db3	-0.82540435
50	0xbf82b81d	-1.0212437
51	0x3dc78314	0.09741798
52	0xbed8fad9	-0.42378882
53	0xbf8c442e	-1.0958307
54	0x3f7e6a02	0.99380505
55	0xbf64efee	-0.89428604
56	0x3fbb805e	1.464855
57	0xbfb0387e	-1.376724
58	0xbeb82621	-0.3596659
59	0xbe0cc3e9	-0.13746609
60	0xbf0516f3	-0.5198814
61	0xbf08da37	-0.5345797
62	0x3f0d39e3	0.55166453
63	0x3f94ef10	1.1635456
64	0x3f05f6bc	0.5232961
65	0x3f7eba7e	0.99503314
66	0xbeab8a4e	-0.33503956
67	0x4005e001	2.091797
68	0x3f98ebef	1.1947001
69	0xbe569638	-0.20955741
70	0xbf003795	-0.5008481
71	0xbd0e6cdb	-0.03477178
72	0x3e57a7a7	0.21060048
73	0x3e669736	0.2251862
74	0x3eb3689c	0.35040748
75	0x3e141051	0.14459349
76	0x3e06f5f0	0.13179755
77	0x3e9765c7	0.29569837
78	0x3d9d0963	0.07667806
79	0xbd68c809	-0.056831393
80	0x3e2a554e	0.16634104
81	0x3e2bf42a	0.1679236
82	0x3e86031c	0.26174247
83	0x3e7dca1e	0.24784133
84	0x3e07569b	0.13216631
85	0x3f08cfbd	0.53441983
86	0x3e907840	0.28216743
87	0x3db82937	0.08992236
88	0x3e457d44	0.19286066
89	0x3eccde36	0.40013283
90	0x3cf720b9	0.03016697
91	0x3ec83ec1	0.39110377
92	0x3e45cdf2	0.19316843
93	0x3eb98ed5	0.36241785
94	0x3e332531	0.17494656
95	0x3e9ba4ca	0.30399162
96	0x3f119d19	0.56880337
97	0x3e179d6e	0.14806148
98	0xbef5fc90	-0.48044252
99	0xbfc328a7	-1.5246781
100	0x3f435d1b	0.7631394
101	0x3fcdfe1d	1.6093174
102	0xbe81d418	-0.25357127
103	0xbfc968fa	-1.5735161
104	0xbe58d49b	-0.21174853
105	0x3fc94aca	1.5725949
106	0xbe600100	-0.21875381
107	0xbf8221b6	-1.0166538
108	0xbeefcf97	-0.46838066
109	0x3f7349ec	0.9503467
110	0xbebf15ba	-0.37321264
111	0xbf113082	-0.5671464
112	0xbec6a3bf	-0.38796803
113	0x3f962e79	1.1732932
114	0xbea8b5cd	-0.32951203
115	0xbfc03735	-1.5016848
116	0x3f7987ad	0.9747265
117	0x3e80b581	0.25138476
118	0x3e45d6f4	0.1932028
119	0xbeee6fc7	-0.46569654
120	0x3ddb8173	0.1071805
121	0x3db1317a	0.08652015
122	0x3e91a9ba	0.28449804
123	0xbf858628	-1.0431566
124	0x3f6d27b3	0.926387
125	0x3e4cbd26	0.1999403
126	0xbeb62ce9	-0.3558114
127	0x3dd48fea	0.10379012
128	0x3e99746b	0.29971632
129	0x3eb57faf	0.35448977
130	0xbe854629	-0.2603009
131	0xbebcedca	-0.3690017
132	0x3e5d2488	0.21595967
133	0xbfa7ee33	-1.3119568
134	0x3d841de3	0.06451013
135	0xc0001d1f	-2.0017774
136	0xbecfb1f6	-0.4056546
137	0x3ef1c9af	0.47224185
138	0x3f87c643	1.060738
139	0xbf92c981	-1.1467744
140	0x3f3b0821	0.7305928
141	0x3e1f7a7c	0.15574068
142	0x3f720e42	0.94553006
143	0x3eba5a1a	0.36396867
144	0x3f09a50c	0.53767467
145	0xbe383e95	-0.17992623
146	0xbeaf4568	-0.3423264
147	0x3ee2733d	0.44228545
148	0xbf376c77	-0.7164988
149	0xbf3b946d	-0.73273355
150	0x3efab1a6	0.4896366
151	0xbeb62a23	-0.35579023
152	0x3f14fc27	0.58197254
153	0xbe5fee5b	-0.21868269
154	0x3e7e09e0	0.24808455
155	0x3ecee709	0.4041064
156	0xbf1fb9dd	-0.6239298
157	0xbebc8694	-0.36821425
158	0x3f16d10a	0.5891272
159	0x3dd93388	0.10605532
160	0xbe577667	-0.2104126
161	0x3f089386	0.533501
162	0xbe90df9d	-0.28295603
163	0x3f880173	1.0625442
164	0x3e6f5f04	0.2337609
165	0xbea99fb4	-0.33129656
166	0xbf0ad807	-0.5423588
167	0xbeae7aef	-0.34078166
168	0xbf269f1d	-0.6508654
169	0x3f30eb35	0.691089
170	0xbf3c532f	-0.7356443
171	0x3ebe2208	0.3713534
172	0xbf5bdc97	-0.8588347
173	0x3e9a4418	0.30130076
174	0xbe1c6a10	-0.15274835
175	0x3e3c543b	0.18391506
176	0xbeba721a	-0.36415178
177	0xbf2412ca	-0.6409117
178	0xbeeb1f2c	-0.4592222
179	0x3fe58134	1.7930055
180	0xbeafd11a	-0.3433922
181	0x3f40376b	0.7508456
182	0x3eb85233	0.36000213
183	0x3e8dd450	0.27701044
184	0xbf6b9ce6	-0.92036283
185	0x3f34f901	0.7069245
186	0xbdcccde9	-0.10000212
187	0xbe09e1c6	-0.13465032
188	0xbf77d73e	-0.9681281
189	0xbe771b58	-0.24131525
190	0xbe1a83d4	-0.15089351
191	0x3eaa2439	0.3323076
192	0x400a984e	2.165546
193	0x3e994209	0.29933193
194	0x3f02cd03	0.51094073
195	0x3f9f3147	1.2436913
196	0xbf73e065	-0.95264274
197	0xbe6e5fde	-0.23278758
198	0xbf0162c7	-0.5054135
199	0xbe887871	-0.2665439
200	0x3eae6652	0.3406244
201	0xbe9f7382	-0.31142813
202	0x3f654791	0.89562327
203	0xbf0bbb99	-0.54583126
204	0xbe8a5e2b	-0.2702497
205	0xbf83333e	-1.0250013
206	0x3ecafb4d	0.39644852
207	0xbd921c96	-0.071343586
208	0xbf203d00	-0.6259308
209	0xbf766c4f	-0.96259016
210	0xbf11680b	-0.5679938
211	0xbed055b3	-0.40690383
212	0xbdd34dfb	-0.10317608
213	0xbf1f8330	-0.6230955
214	0xbec327e3	-0.3811637
215	0xbf11e5b5	-0.5699113
216	0xbe98e09f	-0.29858872
217	0x3efd5107	0.4947588
218	0x3d38ff13	0.045165133
219	0x3d843c89	0.06456859
220	0xbde2128b	-0.11038693
221	0xbe74aaac	-0.23893231
222	0x3f2e1aeb	0.68009824
223	0x3f4188ea	0.7559954
224	0xbf5a7e69	-0.85349137
225	0x3e5024b4	0.20326501
226	0x3f1c6862	0.61096776
227	0x3d063b00	0.03277111
228	0x3f1402ee	0.5781697
229	0x3fb6f2f3	1.4292892
230	0xbf027ccf	-0.5097169
231	0x3f795b01	0.97404486
232	0x3ed6b3dd	0.419341
233	0xbf2b5812	-0.6693126
234	0xbe8e3fdb	-0.27783093
235	0x3de1f7a1	0.110335596
236	0xbef73d7d	-0.482891
237	0x3f923b90	1.1424427
238	0xbf081e0a	-0.53170836
239	0xbe3f5b57	-0.18687187
240	0xbee855dc	-0.45378006
241	0x3e0424eb	0.12904708
242	0x3e8dddc9	0.2770827
243	0xbe1870a7	-0.14886723
244	0x3efb5d43	0.4909459
245	0xbf418331	-0.7559081
246	0xbb7efbeb	-0.003890748
247	0x3f190519	0.59773403
248	0xbeb9b60e	-0.3627171
249	0x3dcb8064	0.09936598
250	0x3c42f7e3	0.011899921
251	0xbee5ae7e	-0.4485969
252	0x3f199776	0.59996736
253	0x3f5083a9	0.814509
254	0xbe56bfce	-0.20971605
255	0x3f5de6bf	0.86680216

fc2.bias f4 [12]
0	0x3e8d98c4	0.27655613
1	0xbe3557ad	-0.17709227
2	0xbec3ae8a	-0.382191
3	0x3de0d8d9	0.109788604
4	0x3e574994	0.21024162
5	0x3dce4200	0.10071182
6	0x3df45779	0.119307466
7	0x3e0134cb	0.12617795
8	0x3d53a435	0.051670272
9	0xbe501c25	-0.20323236
10	0x3e23d675	0.15999778
11	0x3e05e657	0.13076149

fc3.weight f4 [6, 12]
0	0xbded4677	-0.11585706
1	0xbf584c63	-0.84491557
2	0xbf8d10e6	-1.1020782
3	0xbf037ee9	-0.51365525
4	0x3eeb8429	0.45999268
5	0x3bb9b27c	0.005667029
6	0xbf856f96	-1.0424678
7	0x3f352db6	0.70772874
8	0xbf8d43b8	-1.1036291
9	0xbe9d038f	-0.30666777
10	0xbe4dcd30	-0.20097804
11	0x3f100671	0.5625983
12	0xbdeb3a2a	-0.11485703
13	0xbea03eea	-0.31298
14	0xbf84f1cc	-1.038629
15	0xbe3f8895	-0.18704446
16	0x3f4b6a44	0.79459023
17	0xbdf20725	-0.11817769
18	0xbf06aba3	-0.52605647
19	0xbf6091de	-0.87722576
20	0x3f002dec	0.5007007
21	0x3d41fedf	0.047362205
22	0xbdde2aba	-0.10847993
23	0xbf125be0	-0.5717144
24	0xbf350b6c	-0.70720553
25	0xbeef8dda	-0.46787912
26	0x3e51291f	0.20425843
27	0xbeab21b1	-0.33424142
28	0x3e9ddcdb	0.30832562
29	0xbe1c07b8	-0.1523732
30	0x3dff8d99	0.124781795
31	0x3e92b5b1	0.28654245
32	0x3ea20d83	0.31650934
33	0xbf60910a	-0.8772131
34	0xbf1e60ac	-0.6186626
35	0x3d98f441	0.07468463
36	0xbede0b5c	-0.43368042
37	0xbe8e2f54	-0.27770483
38	0x3d460f03	0.04835416
39	0xbee13807	-0.43988058
40	0xbf9d11e7	-1.2271088
41	0xbf7d9e7b	-0.99069947
42	0xbaf8d357	-0.0018983883
43	0x3f1f47ca	0.62218916
44	0x3f1ff715	0.6248639
45	0x3e54c1d3	0.20777063
46	0xbea7cd8e	-0.32774013
47	0xbe407737	-0.18795477
48	0xbea30f5c	-0.31847656
49	0xbe8eb3eb	-0.27871642
50	0x3fa2c57a	1.2716515
51	0xbe94584e	-0.2897362
52	0xbed7aff6	-0.42126435
53	0xbeef7231	-0.4676681
54	0x3d93fc92	0.07225908
55	0xbf8e677b	-1.112533
56	0xbfa16fa6	-1.2612197
57	0x3e6bb3b1	0.23017766
58	0xbdca1fed	-0.098693706
59	0xbe879c20	-0.264863
60	0xbec760a5	-0.3894092
61	0x3f77585b	0.96619195
62	0xbb70f8c8	-0.003676938
63	0xbeba4716	-0.3638236
64	0xbfa9daae	-1.3269861
65	0x3e2f4487	0.17115985
66	0xbecdabf2	-0.40170246
67	0xbfa9b8f4	-1.3259568
68	0x3e4efc59	0.2021345
69	0xbf0f3fd3	-0.55956763
70	0xbe1f3a7c	-0.15549654
71	0x3e4bb46e	0.19893047

fc3.bias f4 [6]
0	0xbe9711b0	-0.29505682
1	0xbe00b7c4	-0.12570101
2	0xbe563e39	-0.20922174
3	0x3d6edb79	0.058314774
4	0x3d151f20	0.036406636
5	0x3bf36e10	0.007428892
