ReputationOnly/Reputation Bias Test/Sigmoid_linearMSE_adam_4458.pth (torch_old, 3197 bytes, 6 tensors)

fc1.weight f4 [24, 6]
000000 ad 8e 1c bf 93 c3 18 3f ba 0d c3 3e 7b e3 97 3e
       -0.61155206 0.5967342 0.3809641 0.2966574
000010 f0 78 c7 be 64 c1 bf 3e 60 71 f1 3e aa 65 ec 3e
       -0.38959455 0.37452233 0.4715681 0.46171314
000020 4f 96 9d bb 4f 83 0d 3f d8 ec 80 be 51 29 1f be
       -0.004809178 0.55278486 -0.25180697 -0.15543105
000030 4f fe ab be fe 94 52 3f 45 34 4d bf 80 46 53 3e
       -0.3359246 0.82258594 -0.8015788 0.20632362
000040 ad d7 d3 be f8 e7 9f 3f 2e fa d7 be d8 48 de bd
       -0.41375485 1.2492666 -0.4218306 -0.108537376
000050 71 bf 36 bd dc bc 4e 3f 33 97 b2 be 46 6c a1 3e
       -0.044616167 0.80756927 -0.3488098 0.3152792
000060 50 fb 08 3e 76 b2 ad 3e 49 da 62 bf 5a a1 a9 bf
       0.13377118 0.33925217 -0.88614327 -1.3252366
000070 75 c3 0e 3f af 9e fc 3c e7 14 85 3f d8 fd d6 3e
       0.55766994 0.030837385 1.0397004 0.41990542
000080 0b c1 6c 3f da 2a a0 3e 8a 4a e3 be f1 7a 54 bf
       0.9248206 0.31282693 -0.44392806 -0.83000094
000090 15 45 58 3c 13 f7 72 be e9 d7 1b be 93 86 94 3d
       0.013200064 -0.23727064 -0.15219082 0.072522305
0000a0 15 96 42 3f 40 f5 b2 be 8c 82 15 3f aa 82 f0 be
       0.76010257 -0.34952736 0.58402324 -0.4697469
0000b0 b2 7f 4f bf c4 ac 7b 3f f1 85 f6 be 5f 13 90 3f
       -0.8105422 0.98310494 -0.48149064 1.1255912
0000c0 43 a6 37 bf 6c 71 16 bf 5a 85 18 3f 99 2d 05 bf
       -0.7173807 -0.5876682 0.5957848 -0.520227
0000d0 17 06 04 3f 16 62 47 3f 0f 12 27 3f 49 8d 83 3f
       0.5157179 0.7788404 0.6526193 1.0277492
0000e0 35 a1 72 3e d1 4a d4 be 9d 6f 07 3e 9d 96 03 bf
       0.23694308 -0.4146333 0.13226171 -0.5140169
0000f0 34 a9 43 bf 45 3a 07 3f e5 a2 58 be d6 e7 40 3e
       -0.7643006 0.5282329 -0.2115589 0.18838438
000100 e9 a9 17 be bf 6e 58 3e d7 29 0a 3f af 52 6c bf
       -0.1481091 0.21135996 0.5397009 -0.92313665
000110 ba 47 72 3e ec a1 74 3f 28 49 a1 bc c2 61 7c be
       0.23660174 0.95559573 -0.019688204 -0.24646667
000120 91 f9 63 3f 7c 68 17 3f bd 14 01 c0 a7 2d 73 be
       0.89052683 0.59143806 -2.0168908 -0.23747884
000130 6a a4 36 3e d9 bf 56 3f 5d 99 75 3e 23 57 82 3d
       0.17836156 0.83886486 0.23984285 0.06364276
000140 3d 87 32 bf 1a b4 f8 3e ba 71 cc 3e 58 ca 41 bf
       -0.6973761 0.48574907 0.39930516 -0.7569938
000150 e8 23 21 be 8b e3 b5 be 2c 20 45 3f 46 45 de 3e
       -0.15736353 -0.35525164 0.77002215 0.43412226
000160 f4 2d ed bd 45 05 48 3f 02 fe 92 be 05 4e d2 3d
       -0.115810305 0.7813304 -0.28709418 0.10268787
000170 d9 27 6d bf 23 8f 7a 3e 50 73 09 3f d6 b8 0c bf
       -0.9263893 0.24468665 0.5369158 -0.5496954
000180 25 40 0e be 93 c5 84 be 10 21 20 bf 6c b1 03 3c
       -0.13891657 -0.25931987 -0.6255045 0.008037906
000190 22 d0 9f 3f 1f 98 37 3e e9 ae 76 3e 60 77 a2 be
       1.2485392 0.17929123 0.2409016 -0.317317
0001a0 78 f1 69 3f d4 a7 04 bf a0 61 07 3f b8 56 c5 be
       0.9138408 -0.51818585 0.5288334 -0.38542724
0001b0 8a 0f b2 3f e7 fe fe be 13 6c 43 be 98 74 8e be
       1.3910992 -0.4980385 -0.19084196 -0.2782333
0001c0 31 b2 94 3e c1 bd ab 3f 21 ca b8 be 30 13 8c be
       0.290422 1.3417283 -0.36091712 -0.2735839
0001d0 5c b9 dc 3e 0c 9b bd 3e 05 73 7a 3f 1b 79 85 3e
       0.43110168 0.37032354 0.97831756 0.2606896
0001e0 73 57 14 bf 43 f6 82 3d da 0a 7b 3e 68 34 c8 be
       -0.57945937 0.06394627 0.24515858 -0.39102483
0001f0 8e 11 2d 3f 66 cb b7 3e 54 88 0c 3f e2 3c 05 3f
       0.6760491 0.35897368 0.5489552 0.52046025
000200 4d c7 87 bf 6a 29 4b 3d 9a d1 5f 3f 5f 68 30 be
       -1.0607697 0.049600042 0.874292 -0.17227314
000210 ea 81 ca 3e ac b6 28 bf 3d b0 ff be 38 ea ac bf
       0.39552242 -0.65903735 -0.49939147 -1.3508978
000220 46 bb f6 3e 8d a3 10 40 5e d6 0a 3f 28 64 a6 3d
       0.48189753 2.2599823 0.5423335 0.08124572
000230 b4 20 d1 3c 59 81 85 bd 07 38 0f 3d de 8c 37 3e
       0.02552829 -0.06518812 0.03496554 0.1792483

fc1.bias f4 [24]
000000 00 5c 5c be d8 a5 b3 be 64 61 99 3c 53 67 ce 3d
       -0.2151947 -0.35087466 0.018723197 0.10078301
000010 64 b9 b7 3e 1a 5f 80 bd a0 e1 fa be a1 92 5a bf
       0.3588363 -0.06268139 -0.49000263 -0.8537999
000020 77 92 e2 be e9 09 f6 bd 09 03 7e 3d 93 a1 86 be
       -0.4425237 -0.12013609 0.062014613 -0.26295146
000030 f2 73 1f bf e3 12 ca be d9 46 06 bf db ba d6 3e
       -0.62286294 -0.39467534 -0.52451855 0.41939434
000040 5c e5 aa 3e fd 32 57 be 58 de 8e bf 66 34 88 bf
       0.33378112 -0.21015544 -1.1161604 -1.0640991
000050 0f 5a 78 be be c2 8c bf ed 9d 92 3e f4 b3 e8 3e
       -0.24253105 -1.0996931 0.28636113 0.45449793

fc2.weight f4 [12, 24]
000000 da ce 72 3e 00 bc d2 3e 2a 0b 67 3e 06 10 10 3e
       0.2371172 0.41159058 0.22562853 0.14068612
000010 36 48 85 3e cb 17 b6 3e 9e ca ad 3e c2 e1 2a 3e
       0.26031655 0.35565028 0.33943647 0.16687682
000020 85 5f fc 3d 54 f9 3b 3e bb f5 06 3e ca 45 84 3e
       0.123229064 0.1835683 0.13179676 0.25834495
000030 76 49 8d 3e 01 1d 34 3f 8f 1a 4f bd 50 83 d3 3e
       0.2759511 0.70356756 -0.050562438 0.4131112
000040 bc 1b cb bd cf 46 e4 3c 80 57 4a 3e 8c 56 1d bd
       -0.09917399 0.027865795 0.19759941 -0.038412616
000050 ae 55 79 3e f5 9a a0 3e eb 10 d6 3c 28 3a 32 3d
       0.2434909 0.31368223 0.026131114 0.043512493
000060 fa 4c 04 3e 0b bc 5d be c1 c4 f7 3e 32 b2 f5 3e
       0.12919989 -0.21653764 0.483923 0.47987515
000070 90 2e cd 3c 4b e8 b5 bf 48 18 01 be 38 c6 b8 3e
       0.025046617 -1.4211515 -0.12606919 0.3608873
000080 c9 6e dc 3e 32 67 d0 be b4 56 60 3e 6b b1 b2 be
       0.43053272 -0.40703732 0.21908075 -0.34900984
000090 91 99 40 3e b3 ef 8d bf 4b fb cd 3e e7 0e d2 3e
       0.18808581 -1.1088775 0.40230784 0.41026995
0000a0 98 5a bc 3e 0a 3e 9d bf de a2 3f 3e a4 93 94 3d
       0.36787868 -1.2284558 0.18714473 0.07254723
0000b0 cf 2f 68 3e 97 e3 69 be e1 60 92 3e 51 d0 99 bd
       0.22674488 -0.22840725 0.28589538 -0.07510436
0000c0 11 74 59 bf a3 b0 39 bf 7d 9e 6c bf 88 e3 ad 3e
       -0.8494273 -0.7253515 -0.92429334 0.33962655
0000d0 5c 31 e6 be f2 ed a3 bf 42 a2 91 3f 93 84 e9 be
       -0.44959533 -1.280699 1.1377642 -0.4560896
0000e0 ca 0e ad 3f e1 f4 7b bf b2 be 43 be 02 a4 43 3e
       1.3520138 -0.9842053 -0.19115713 0.19105533
0000f0 58 f3 0e bf 95 6a 39 bf e6 14 c8 3e 3d 42 8b 3f
       -0.55840063 -0.72428256 0.39078444 1.0879589
000100 a7 b4 1a 3f 38 31 98 3f 58 95 b5 bd cf 54 d8 3f
       0.60431904 1.189002 -0.08866376 1.6900882
000110 12 9d 80 3f 85 4c f6 bd 24 f6 a1 be a6 e6 5e be
       1.0047934 -0.12026314 -0.31633103 -0.21767673
000120 7f 09 2f 3e 2c 2c 4d 3e 86 94 b2 3e 65 3e 0a 3e
       0.17093466 0.20036381 0.3487894 0.13500364
000130 2c 47 00 3e 92 f4 5b 3e d4 cb 5d 3d ad 39 6d bd
       0.1252715 0.21480015 0.054149464 -0.057916332
000140 67 24 20 3e c0 7b 02 3e 81 13 7b 3e 1e 5a 82 3e
       0.15638886 0.1274252 0.24519159 0.2545938
000150 f5 d4 05 3e 4f 2e 01 3f 92 ea 88 3e 44 aa 8e 3d
       0.13069518 0.50461286 0.26741463 0.06966069
000160 68 3b 3a 3e ca b7 af 3e cb c5 da 3c 35 43 ad 3e
       0.18186724 0.34319907 0.026705643 0.33840337
000170 91 82 2a 3e 26 26 b1 3e 24 34 37 3e 74 05 9a 3e
       0.1665137 0.34599417 0.17890984 0.30082285
000180 e4 93 80 3e c1 2b 97 3e 77 f8 9f be 2c c8 be bf
       0.25112832 0.2952557 -0.3124425 -1.4904838
000190 6e d5 46 3f 8b 11 c6 3f a5 6a ae bd 15 c9 c3 bf
       0.7766942 1.5474104 -0.085164346 -1.529574
0001a0 a5 20 a5 be d1 47 d0 3f 4b f2 79 be 83 7f 75 bf
       -0.32251468 1.6271917 -0.24408834 -0.9589769
0001b0 23 2f ab be 60 ac dd 3e 72 5d f4 be 84 e7 26 bf
       -0.334344 0.43295574 -0.47727543 -0.65197015
0001c0 ef 72 0d bf cf ae 95 3f 1c ae 17 bd 5d 11 9f bf
       -0.552535 1.1693972 -0.037031278 -1.2427174
0001d0 5a f8 1d 3f 34 07 51 3e 3c 5c 90 3e 10 80 89 3d
       0.6170708 0.20412904 0.2819537 0.06713879
0001e0 38 ac 4f 3e e7 95 18 3e d3 76 aa 3e 6b b6 67 bf
       0.2028054 0.14900933 0.3329378 -0.9051272
0001f0 f3 1d 2d 3f 41 7f a6 3d ee d0 15 be 95 7e d6 bd
       0.67623824 0.081297405 -0.14630482 -0.10473362
000200 bf 65 dd 3e 77 6f 21 3e cf ba 83 bd 3e fb c3 be
       0.4324169 0.15765177 -0.06432115 -0.3827762
000210 c2 f1 7a 3e bc ee 8d bf cf e5 69 bc 3e e5 f8 bf
       0.24506286 -1.1088481 -0.014275982 -1.9444959
000220 1e 21 e8 be 66 84 b6 3e 1c 10 60 3f 8f 40 2f bf
       -0.45337766 0.35647887 0.8752458 -0.68457884
000230 da ac 01 3f 58 cf a0 3e 95 a7 65 3f ba 4d 95 3e
       0.50654376 0.3140819 0.89708835 0.29160863
000240 83 24 17 3f f0 53 20 be 98 1d 51 be 53 64 0f 3f
       0.5904009 -0.1565702 -0.20421445 0.5601246
000250 e6 fd 0d bf 74 5f 47 bf d4 19 b8 3e fe 1c 20 be
       -0.55465543 -0.77880025 0.35957205 -0.1563606
000260 48 59 fe 3e ec 61 04 be a1 23 8d 3e e9 1d 0f 3f
       0.4967749 -0.12927979 0.27566245 0.55905014
000270 f1 5a 05 bf ff 32 96 be b7 d6 08 3f 41 88 b0 3d
       -0.5209189 -0.29335782 0.5345263 0.08619738
000280 3f 4f 17 be 70 a1 b7 3e ef 04 0e be 79 2e 5c 3f
       -0.14776324 0.35865355 -0.1386907 0.8600841
000290 4b 67 2a 3e bd 07 99 be 0c 7b da be a5 1e 48 be
       0.16640966 -0.29888716 -0.42672002 -0.1954294
0002a0 df 22 e0 be 78 b4 25 3f e4 67 0b bf 2d 56 88 3e
       -0.43776605 0.647285 -0.544554 0.26628247
0002b0 2f d8 39 bf c5 9e 89 3e ea 1c 75 be 9d 48 79 3e
       -0.72595495 0.26878944 -0.23936811 0.24344106
0002c0 7f 07 fe be 81 bb d9 be 71 6d db be 28 6a f5 3f
       -0.49615094 -0.42525867 -0.42856935 1.9173021
0002d0 a8 c0 ae be d4 cd 89 3f 07 10 67 3e 66 fa 92 be
       -0.3413136 1.0765939 0.22564708 -0.28706664
0002e0 71 a4 38 bf cb ef 4b 3f 22 6d 00 be 5d 95 80 be
       -0.7212592 0.7966277 -0.12541631 -0.25113955
0002f0 43 9a 55 bf 30 a0 a9 be 4f f9 97 be e7 e5 1a 3e
       -0.8343851 -0.33130026 -0.29682395 0.15126763
000300 52 c6 fc 3f 05 1a 98 3e cb 2a 08 3f be f6 8b 3f
       1.9748023 0.2970735 0.53190297 1.0934675
000310 8b 06 6d bf c9 c8 9a 3e 49 8f 12 bf 40 1b 06 be
       -0.9258811 0.30231312 -0.57249886 -0.13096333
000320 47 c6 ae bd 20 cd c1 be 21 5c 3c 3f 85 72 f3 be
       -0.08533912 -0.3785181 0.7357808 -0.4754831
000330 c6 f3 0e be 6b 50 44 bf 2b 1f 92 3e 41 cc 0f bf
       -0.1396018 -0.7668521 0.28539404 -0.5617104
000340 ec 47 00 bf 84 cc 61 bf a4 32 cd be bc 9e a0 3d
       -0.50109744 -0.8820269 -0.40077698 0.07842776
000350 ff 85 12 3d bc a9 18 bf e4 6f e4 be ff d0 3c be
       0.03577232 -0.59633994 -0.44616616 -0.184391
000360 f0 58 95 be 55 5f 86 3e 9f eb 05 3e 6a cc 5e bd
       -0.29169416 0.26244608 0.13078164 -0.054394163
000370 6a 44 c0 3d 76 9b 49 bf 1f 5f 08 3f 65 fd 1e 3f
       0.09388049 -0.7875284 0.53270143 0.621054
000380 01 0b 41 bf 05 cc ca 3d 8c 69 cb 3e 53 9f 24 3e
       -0.75407416 0.09902195 0.39728963 0.16076402
000390 53 94 10 3f f5 58 b9 3f 55 4d b0 be 05 2d 64 3f
       0.56476325 1.4480273 -0.34434 0.89131194
0003a0 3a ca c5 3e 6a b0 16 bf 21 12 13 be 42 cd 06 be
       0.3863085 -0.58862936 -0.14362384 -0.13164237
0003b0 17 cc c3 be 52 b9 6d 3f 81 4d c6 be 5b d1 94 ba
       -0.38241646 0.928609 -0.38731006 -0.0011353897
0003c0 55 30 63 be da af 0f 3e 21 5e 8f 3e 21 6b b3 bd
       -0.22186406 0.14031926 0.28001502 -0.087606676
0003d0 22 1c ac 3e 1c 03 04 bf c1 63 cc 3d fa 7a e3 3e
       0.33615214 -0.51567245 0.09979964 0.4442976
0003e0 dd 4a 41 be ac e0 bb 3d a0 f9 77 3d 29 4c 2d be
       -0.18876214 0.09173712 0.060540795 -0.16923584
0003f0 2d 97 ed 3e ba be 3a 3f cc 3a 4d bc 2c bd dd 3e
       0.464044 0.72947276 -0.012526225 0.4330839

fc2.bias f4 [12]
000000 86 2c a0 3e aa 2f 4a be 64 2d e1 be 17 32 c3 3d
       0.3128397 -0.19744745 -0.43979943 0.09531038
000010 d0 3b 38 3e d3 dd af 3d 53 d3 04 3e 18 80 ca 3c
       0.17991567 0.085872315 0.12971239 0.024719283
000020 d7 ae 99 bc 80 ae e4 bd c2 e8 60 3e 98 da b7 3d
       -0.018760128 -0.11166096 0.2196379 0.0897724

fc3.weight f4 [6, 12]
000000 d1 d8 92 bd 11 f6 50 bf 57 7c 65 bf da c0 eb be
       -0.07170261 -0.8162547 -0.8964285 -0.46045572
000010 c9 c3 0b 3f da 9b 70 bd 65 d2 63 bf 05 9e 19 3f
       0.5459562 -0.05874238 -0.8899291 0.60006744
000020 c0 2f 6f bf 36 e5 9a be 98 cd 5b be 2c 1d eb 3e
       -0.93432236 -0.30253 -0.21465147 0.45920694
000030 18 df f4 bd 97 34 7b be 10 47 63 bf be 6b 39 be
       -0.11956614 -0.2453178 -0.8878031 -0.18107507
000040 2b 74 1b 3f 65 52 7d bd 20 91 fc be 1a ed 32 bf
       0.60724133 -0.061846156 -0.49329472 -0.6989304
000050 3f b8 d9 3e c3 ec 72 bd 86 d7 00 be 9d fd dc be
       0.4252338 -0.059307825 -0.12582216 -0.43162242
000060 21 75 27 bf 5f 8c d9 be 64 76 c3 3d f1 d5 94 be
       -0.654131 -0.42489907 0.095440656 -0.29069474
000070 a4 48 59 3e da 8e 29 be 13 ec 8c 3d d6 b0 8b 3e
       0.21219116 -0.165584 0.06880965 0.27283353
000080 e4 6d 99 3e 2c af 3e bf 22 f7 03 bf f1 e5 97 3d
       0.29966652 -0.7448604 -0.5154897 0.07416905
000090 10 bb d7 be cd 42 7c be c9 f2 91 3d 31 9d d5 be
       -0.42134905 -0.24634857 0.07126386 -0.4172149
0000a0 e3 32 8b bf a7 28 52 bf 48 a1 07 bd 25 01 07 3f
       -1.0874904 -0.8209328 -0.033112794 0.5273612
0000b0 ff 06 ff 3e 80 91 03 3e 68 50 a8 be 30 ac a7 bd
       0.49810025 0.12848473 -0.32873845 -0.08187139
0000c0 33 34 a3 be 13 b6 4b be 11 56 8c 3f 97 2a 95 be
       -0.31875762 -0.19893675 1.0963765 -0.29134056
0000d0 3b a0 de be 95 d1 c8 be 31 c2 03 bc 48 c2 5e bf
       -0.4348162 -0.39222398 -0.008041904 -0.870152
0000e0 e2 1f 88 bf 63 45 f7 3d 2c 8a e7 bd e8 e9 02 be
       -1.063473 0.12073781 -0.11305651 -0.1278454
0000f0 03 49 bd be 1e 03 3c 3f 2d fd 2f 3e 24 84 b3 be
       -0.36969766 0.73442256 0.17186423 -0.35061753
000100 66 50 8e bf 9d 53 94 bc 2d 6e 99 be 0b d0 a2 bf
       -1.1118286 -0.018106276 -0.2996687 -1.271974
000110 9d 3e 36 3e 22 a8 e1 be 3c 31 5c be 5b e4 4f 3d
       0.17797323 -0.44073588 -0.21503156 0.050754886

fc3.bias f4 [6]
000000 2b 32 83 be 7f d3 f4 bd e6 b6 36 be 76 70 97 3d
       -0.25624213 -0.11954402 -0.17843208 0.07394497
000010 ac bb 36 3d 07 41 51 3c
       0.04461257 0.012771851
