Cleaned LIAR/TunedModels/albert/albert-large-v2/NNetwork6WayClassification/Tanh_MSE_adam4765.pth (torch_old, 3774 bytes, 6 tensors)

fc1.weight f4 [24, 12]
-2.1663656 1.4371958 0.23996803 0.025765805 0.10727858 -0.46431816 -0.3367429 -0.5305645
1.0075411 0.13540016 0.033471245 0.5353673 -1.4638829 2.4120903 1.1524687 -0.9518039
-0.032987583 0.13617639 0.08817646 -0.20251007 0.0059047425 0.13955802 0.09662189 -0.1461845
-2.9148197 -3.5038285 1.3442451 1.8532846 -0.4653501 -0.00816172 0.028480727 0.4087324
-0.23023306 0.47624138 -0.097906865 -0.23929101 -2.064106 3.4136739 0.33683974 -1.2639433
0.64919716 -1.0277189 0.18025587 0.79352033 -0.89448744 -0.13938567 -0.14619966 -0.59329635
6.818649 2.7395222 5.2833333 4.5978303 4.4538155 2.8204052 -0.22029635 -0.2136768
0.31798133 0.018142171 -0.19540945 0.21761212 4.050213 1.8765342 -0.08307748 -2.6940804
0.49028808 4.403771 -0.028562922 -0.42113185 -0.09068635 0.073775284 -0.53949916 0.21715406
4.8501716 4.496812 5.6665573 6.1338687 2.0778835 -3.4834273 0.07071604 0.1027033
-0.3847533 6.9165885e-06 -0.099230014 -0.16071093 -1.8027062 1.01593 -1.615941 0.56022775
-0.14756538 0.57668483 0.134292 -0.39138263 0.39901486 -0.42243305 -0.060351726 0.0061851037
-4.279966 -6.1573935 -1.6174365 -5.5021772 -4.0659842 -1.4610866 -0.04884321 -0.120346755
0.03937785 0.083338164 -0.33281672 0.2443425 -2.3145328 -4.3588834 -5.910687 1.9881191
-6.320657 -1.6572711 -0.13220266 -0.1391443 0.00064416486 0.03525687 -0.1454293 0.10678752
0.91357535 0.16072911 -0.0410649 -0.6613644 0.91738975 0.5883963 0.02429447 -0.09175823
-0.32810012 0.5507753 -0.64235973 0.10529099 -2.4219565 5.8409905 -4.684943 4.801672
4.279 5.1054096 -0.08968966 -0.4222426 -0.0751564 -0.052717533 0.044847712 0.07601626
-4.0918517 -3.3120134 3.8031282 0.3076769 -0.25389504 0.44972014 0.09208291 0.22035457
-0.29174095 -0.16312936 -0.053462952 -0.24016228 2.1695292 4.898917 5.703255 3.6105394
5.421064 5.3590927 -0.3136956 0.119051054 -0.28473052 0.0636452 -0.08028614 -0.22055079
-1.4291788 -4.026223 -1.33741 -5.3538594 -5.6951585 -5.5364285 -0.03157563 -0.52253723
0.27440405 -0.0954569 0.14360806 0.1875958 6.16826 5.1744084 3.3722816 -1.6734427
3.1966114 4.4213395 -0.17177238 0.1546849 0.34980902 -0.092259 0.10376642 0.058531385
5.950608 2.5351603 1.902554 5.864258 6.616146 3.8068428 0.111800194 -0.1984674
0.21746396 -0.10505706 0.06674837 0.1603592 -4.003913 -2.3826597 -3.5356932 -3.9593334
-3.3323576 -5.2227983 -0.18826695 -0.45080864 0.49101716 -0.29722545 -0.19758359 0.3770233
3.5158188 0.098199606 -1.5746124 -1.2949187 2.24543 3.1388397 0.22755806 0.05200084
-0.40301594 0.42713812 0.018423254 -0.0751147 -0.25090548 5.6339912 5.301307 4.2284217
0.89498764 5.6879845 -0.04440891 -0.064114064 0.25769538 -0.13827768 -0.18118295 0.2232089
5.112697 -3.6803653 -0.46049553 0.022666397 -1.5149503 2.4591563 -0.22236963 0.22434317
-0.040061686 -0.2160519 0.006772576 -0.31039375 -5.490177 -4.249699 -4.287932 -4.884937
00000000: bca5 0ac0 08f6 b73f 2eba 753e cf12 d33c
00000010: dfb4 db3d 1cbb edbe 9169 acbe 13d3 07bf
00000020: 1bf7 803f 57a6 0a3e 2519 093d d50d 093f
00000030: 8460 bbbf b05f 1a40 1884 933f 6ca9 73bf
00000040: fd1d 07bd d371 0b3e dc95 b43d cd5e 4fbe
00000050: 927c c13b 4ce8 0e3e b3e1 c53d 64b1 15be
00000060: 688c 3ac0 ba3e 60c0 3910 ac3f 6e38 ed3f
00000070: 5e42 eebe bcb8 05bc 6a50 e93c 6045 d13e
00000080: 37c2 6bbe e9d5 f33e 6583 c8bd b408 75be
00000090: 501a 04c0 a279 5a40 4276 ac3e e5c8 a1bf
000000a0: c931 263f 4b8c 83bf ff94 383e 2624 4b3f
000000b0: 21fd 64bf 1ebb 0ebe 5db5 15be 45e2 17bf
000000c0: 5f32 da40 5554 2f40 1111 a940 6d21 9340
000000d0: a885 8e40 8581 3440 5e95 61be 17ce 5abe
000000e0: 73ce a23e e49e 943c 6a19 48be b6d5 5e3e
000000f0: 589b 8140 4632 f03f 8724 aabd d06b 2cc0
00000100: 0a07 fb3e b1eb 8c40 cafc e9bc 989e d7be
00000110: c4b9 b9bd 7f17 973d 9e1c 0abf a25d 5e3e
00000120: 9b34 9b40 e2e5 8f40 7054 b540 a748 c440
00000130: 0bfc 0440 79f0 5ec0 92d3 903d 1c56 d23d
00000140: 62fe c4be 0b15 e836 1b39 cbbd 6891 24be
00000150: 14bf e6bf ff09 823f 28d7 cebf 166b 0f3f
00000160: 611b 17be 9ea1 133f d883 093e 4e63 c8be
00000170: ad4b cc3e 2549 d8be 5f33 77bd 69ac ca3b
00000180: 7bf5 88c0 5e09 c5c0 2908 cfbf d611 b0c0
00000190: 8b1c 82c0 e304 bbbf d10f 48bd 5c78 f6bd
000001a0: ab4a 213d 33ad aa3d f466 aabe ec34 7a3e
000001b0: 4e21 14c0 f97b 8bc0 5924 bdc0 b07a fe3f
000001c0: d242 cac0 7621 d4bf 2260 07be d87b 0ebe
000001d0: 2cdd 283a 8269 103d 6beb 14be 6ab3 da3d
000001e0: 13e0 693f 2c96 243e ab33 28bd 2d4f 29bf
000001f0: 0eda 6a3f 24a1 163f 3205 c73c bdeb bbbd
00000200: bdfc a7be 9cff 0c3f b071 24bf cda2 d73d
00000210: 5601 1bc0 65e9 ba40 0eeb 95c0 4ca7 9940
00000220: 91ed 8840 845f a340 36af b7bd 2f30 d8be
00000230: 99eb 99bd 57ee 57bd 3cb2 373d 6aae 9b3d
00000240: 73f0 82c0 07f8 53c0 7466 7340 d487 9d3e
00000250: 88fe 81be b841 e63e f795 bc3d a1a4 613e
00000260: 125f 95be 620b 27be f8fb 5abd 1aed 75be
00000270: 91d9 0a40 eec3 9c40 1181 b640 1413 6740
00000280: 5b79 ad40 b07d ab40 b69c a0be 0ad1 f33d
00000290: 33c8 91be 6a58 823d 0f6d a4bd 11d8 61be
000002a0: 55ef b6bf d2d6 80c0 4030 abbf d152 abc0
000002b0: bd3e b6c0 6c2a b1c0 7355 01bd 00c5 05bf
000002c0: b07e 8c3e e87e c3bd fe0d 133e 1d19 403e
000002d0: 6362 c540 c194 a540 76d3 5740 5f33 d6bf
000002e0: 4895 4c40 9d7b 8d40 19e5 2fbe b865 1e3e
000002f0: 2b1a b33e 49f2 bcbd 7d83 d43d 9bbe 6f3d
00000300: 616b be40 1140 2240 e486 f33f 00a8 bb40
00000310: 78b7 d340 50a3 7340 80f7 e43d 0a3b 4bbe
00000320: dfae 5e3e 2828 d7bd 5fb3 883d 3435 243e
00000330: 0e20 80c0 7f7d 18c0 cc48 62c0 b865 7dc0
00000340: 5945 55c0 2a21 a7c0 0dc9 40be 64d0 e6be
00000350: 9a66 fb3e ef2d 98be 5a53 4abe 3309 c13e
00000360: 2d03 6140 e01c c93d e68c c9bf e5bf a5bf
00000370: 20b5 0f40 c0e2 4840 fb04 693e d5fe 543d
00000380: 1b58 cebe d9b1 da3e 5dec 963c bcd5 99bd
00000390: af76 80be a849 b440 4fa4 a940 3b4f 8740
000003a0: e91d 653f f803 b640 1ee6 35bd 3c4e 83bd
000003b0: a6f0 833e aa98 0dbe 0688 39be e090 643e
000003c0: 379b a340 1b8b 6bc0 12c6 ebbe e1ae b93c
000003d0: e4e9 c1bf d162 1d40 ddb4 63be 37ba 653e
000003e0: b917 24bd b63c 5dbe 7cec dd3b eeeb 9ebe
000003f0: 88af afc0 89fd 87c0 bd36 89c0 6751 9cc0

fc1.bias f4 [24]
0.23348282 -0.27537084 -0.1466667 -0.49910814 -0.15917365 0.24472845 0.25222656 0.2802216
-0.113749206 -0.26355925 -0.46563604 0.20624216 -0.16587983 -0.45332372 0.056977145 0.06606839
0.10993073 0.04917335 -0.079721384 0.043526534 -0.043512944 -0.14491074 -0.32549948 -0.0038931048
00000000: 1f16 6f3e 68fd 8cbe cc2f 16be 1a8b ffbe
00000010: 6bfe 22be 189a 7a3e d723 813e 3579 8f3e
00000020: 58f5 e8bd 3df1 86be d967 eebe 2531 533e
00000030: 67dc 29be 0c1a e8be de60 693d dd4e 873d
00000040: 5d23 e13d ff69 493d f744 a3bd e148 323d
00000050: a13a 32bd 7b63 14be dea7 a6be 7623 7fbb

fc2.weight f4 [12, 24]
-0.4943793 0.75833964 -0.30542788 -0.57629263 1.067399 -0.637184 0.18299374 0.2811919
0.94295806 0.27471864 0.16861711 -0.28356567 0.08171764 -0.25444192 -0.5035185 0.2583117
0.109373815 0.011859107 0.12726536 -0.8822538 0.14757474 -0.1772392 -0.47248006 0.041949783
0.18157423 0.2955766 -0.100095846 0.026141493 -0.25114125 -0.21705745 0.31400934 0.032964136
0.39681232 -0.45848238 0.24942851 -0.13260174 0.11657305 0.26187417 0.50922805 -0.37736413
0.13957973 -0.25285748 -0.049693987 0.43529215 0.22015493 0.24468786 0.2803663 -0.32495463
0.10334752 1.4518399 -0.5248663 0.5370149 2.290932 -0.59661263 3.9177756 0.13313828
-1.7978126 -2.8364623 0.36069417 1.3775718 -1.189567 2.5763316 -2.8700445 0.24375705
4.999689 -0.20419712 -0.45975256 0.867024 -2.5712037 1.4507746 0.67287606 -0.74014014
0.76852375 0.9462612 -0.033988114 0.7059892 0.108568236 0.6950978 0.56445116 0.46390885
-1.3729281 -1.0485281 0.13576844 2.111413 0.27878276 3.1489275 -2.1715577 0.5537298
-0.13903166 -0.9235422 -0.570272 4.9120555 -1.7217228 -3.3132107 -0.537131 -1.1333276
0.14033525 -0.41832274 0.54820704 0.6781851 0.54090154 0.28637236 0.0009406123 0.13927992
-0.6448722 -0.23251541 0.06778998 -0.39118883 -0.566135 -0.29260662 0.9891116 0.54141194
-0.8714904 -0.4866645 -0.34891814 0.9990074 0.08224264 0.13756154 -0.06532132 0.49494892
0.07571708 -1.6941998 1.724435 0.0734803 -3.6836505 -0.63741463 -1.9474969 1.1292486
0.61678034 4.479776 -0.53308666 1.106256 0.09137558 -2.8073006 -0.24272308 -2.2793863
-1.0957613 0.8006822 -1.3070167 -4.093453 -0.8435762 3.370504 1.3420913 -0.6421544
-0.055392813 -0.015706051 -1.0973412 -0.1991477 -1.7781675 0.24950854 0.7934971 -0.43782362
0.90663 1.7245828 0.31324953 -0.7807133 -1.3794085 -2.6862218 2.5045733 0.5841915
-3.8945155 1.271977 -0.73757535 -3.1535528 -0.26596624 1.6761261 2.4304512 2.815233
0.53577083 0.21083495 -0.15019488 0.22503506 -3.307473 0.26397124 -3.9436831 0.366246
1.3935596 -2.1204875 -0.087752834 0.27813968 0.0704136 -1.7699195 1.0243362 0.37318498
-4.4513445 0.8308775 -0.082253695 -2.4459074 -1.200924 4.0221105 0.43115228 1.5988472
0.21030416 0.7422239 1.5780618 0.10968877 -0.8244709 -1.703601 0.73557156 -0.68895686
1.8016421 -0.37286267 -0.2828393 -2.2163007 1.2169802 -2.9406443 3.2734048 -2.0886836
-5.1735373 1.0408427 -3.0177746 -2.0153308 -1.6722484 2.290134 -0.9517442 -0.5667479
0.551223 0.044567335 0.8558231 0.3045467 -3.2180495 -0.50526077 0.51884675 -0.09851118
0.13566928 4.2726474 -0.34289372 0.5008254 -0.46190402 -2.104047 2.434305 -0.9264339
-5.187413 1.4318537 -1.7865169 0.10865475 -0.9679178 -0.88150203 1.9686521 2.1529653
-0.41234502 1.0950775 1.0172579 0.5443111 0.33212957 -0.3001358 1.678817 -0.19386503
-1.0282121 -1.2119443 -0.15602288 -0.24519786 -0.7681187 0.09831439 0.46089417 0.16656862
00000000: 491f fdbe 8c22 423f 0b61 9cbe ea87 13bf
00000010: 88a0 883f 7e1e 23bf b662 3b3e 62f8 8f3e
00000020: b365 713f eca7 8c3e f7a9 2c3e 852f 91be
00000030: 945b a73d 3646 82be 97e6 00bf 6e41 843e
00000040: 61ff df3d b34c 423c da51 023e 63db 61bf
00000050: d51d 173e 317e 35be e8e8 f1be 89d3 2b3d
00000060: 98ee 393e d155 973e 0dff ccbd af26 d63c
00000070: 9695 80be 4f44 5ebe d5c5 a03e 6705 073d
00000080: fc2a cb3e 34be eabe 306a 7f3e c0c8 07be
00000090: dabd ee3d 5f14 863e c55c 023f df35 c1be
000000a0: fded 0e3e 8976 81be ec8b 4bbd 9dde de3e
000000b0: 4b70 613e 748f 7a3e 2c8c 8f3e 7460 a6be
000000c0: dda7 d33d e4d5 b93f a35d 06bf cf79 093f
000000d0: a19e 1240 9bbb 18bf d6bc 7a40 6755 083e
000000e0: b91e e6bf 9988 35c0 e8ac b83e 4654 b03f
000000f0: bb43 98bf 9ee2 2440 cfae 37c0 739b 793e
00000100: 74fd 9f40 0d19 51be b064 ebbe 49f5 5d3f
00000110: 9a8e 24c0 fbb2 b93f 9b41 2c3f d379 3dbf
00000120: f9bd 443f 2d3e 723f 1f37 0bbd b5bb 343f
00000130: 0659 de3d eef1 313f df7f 103f 7685 ed3e
00000140: 1cbc afbf 2b36 86bf e206 0b3e 6421 0740
00000150: 9dbc 8e3e 0788 4940 cdfa 0ac0 3cc1 0d3f
00000160: 515e 0ebe 436d 6cbf 59fd 11bf 8f2f 9d40
00000170: 6a61 dcbf a50b 54c0 6b81 09bf e110 91bf
00000180: 0bb4 0f3e 662e d6be 4c57 0c3f 8a9d 2d3f
00000190: 8678 0a3f 669f 923e 6c93 763a 659f 0e3e
000001a0: 5816 25bf 8518 6ebe 79d5 8a3d e749 c8be
000001b0: 39ee 10bf 89d0 95be 6b36 7d3f f999 0a3f
000001c0: ff19 5fbf 172c f9be 66a5 b2be f3be 7f3f
000001d0: d46e a83d efdc 0c3e 2fc7 85bd f269 fd3e
000001e0: 8e11 9b3d 8adb d8bf 49ba dc3f d77c 963d
000001f0: eec0 6bc0 9b2d 23bf 9447 f9bf 388b 903f
00000200: 51e5 1d3f 535a 8f40 5e78 08bf cc99 8d3f
00000210: 1f23 bb3d d0aa 33c0 668c 78be 77e1 11c0
00000220: e841 8cbf 82f9 4c3f 534c a7bf 91fd 82c0
00000230: 9cf4 57bf 56b6 5740 a6c9 ab3f 3b64 24bf
00000240: 93e3 62bd faa9 80bc ad75 8cbf 60ed 4bbe
00000250: fe9a e3bf 2b7f 7f3e a022 4b3f 6b2a e0be
00000260: e718 683f 21bf dc3f 3e62 a03e d4dc 47bf
00000270: 7590 b0bf 0feb 2bc0 ee4a 2040 938d 153f
00000280: be3f 79c0 24d0 a23f bdd1 3cbf cfd3 49c0
00000290: ba2c 88be 4d8b d63f 838c 1b40 c72c 3440
000002a0: 4728 093f 1ee5 573e b0cc 19be 976f 663e
000002b0: a3ad 53c0 3d27 873e 4e65 7cc0 9984 bb3e
000002c0: 2960 b23f 11b6 07c0 c2b7 b3bd 5368 8e3e
000002d0: 0135 903d b98c e2bf 731d 833f 1a12 bf3e
000002e0: 6a71 8ec0 63b4 543f a074 a8bd bf89 1cc0
000002f0: e1b7 99bf 21b5 8040 febf dc3e 06a7 cc3f
00000300: f959 573e 6302 3e3f eefd c93f 81a4 e03d
00000310: 8610 53bf 990f dabf 6b4e 3c3f 7a5f 30bf
00000320: 359c e63f dbe7 bebe 50d0 90be dfd7 0dc0
00000330: 02c6 9b3f 8433 3cc0 777f 5140 feac 05c0
00000340: 9e8d a5c0 553a 853f 3823 41c0 2efb 00c0
00000350: 3c0c d6bf 8e91 1240 82a5 73bf 6416 11bf
00000360: f31c 0d3f 3d8c 363d 3917 5b3f 8ced 9b3e
00000370: 86f4 4dc0 c558 01bf 24d3 043f 3bc0 c9bd
00000380: e3ec 0a3e 87b9 8840 c48f afbe 1836 003f
00000390: af7e ecbe b5a8 06c0 a7cb 1b40 c62a 6dbf
000003a0: 4aff a5c0 fb46 b73f 96ac e4bf 6286 de3d
000003b0: 76c9 77bf 1eaa 61bf cbfc fb3f 2fca 0940
000003c0: e31e d3be 802b 8c3f 8235 823f f957 0b3f
000003d0: e30c aa3e 66ab 99be 7ae3 d63f 8e84 46be
000003e0: 749c 83bf fe20 9bbf 76c4 1fbe 2615 7bbe
000003f0: 6da3 44bf 0e59 c93d 52fa eb3e f790 2a3e

fc2.bias f4 [12]
0.5068054 0.022925502 -0.060784683 0.04976384 0.30678794 0.26003876 -0.25110584 -0.025299057
0.10622182 0.15302838 0.78122824 0.32706246
00000000: 00be 013f 43ce bb3c 5cf9 78bd 2bd5 4b3d
00000010: 4f13 9d3e cd23 853e f290 80be f83f cfbc
00000020: d38a d93d 79b3 1c3e 93fe 473f bb74 a73e

fc3.weight f4 [6, 12]
0.748445 -1.1817929 -0.63380224 -2.4805384 0.41825736 -0.82010597 1.9398576 -1.6612163
-1.1466677 -0.6000887 0.07212675 0.008489749 -0.8205578 -0.25940686 1.4344962 1.7359505
0.2792788 -1.0740088 1.8349742 1.7102704 -1.0181547 2.1489053 0.18788522 0.097801045
0.19421068 1.3212306 -0.43595627 0.113084495 0.2945776 -2.0582426 -1.1529564 -0.27560496
3.4246068 0.11901038 -0.10306572 0.16896814 -0.106506675 -0.14526922 0.8127293 -0.021836737
0.3118515 2.4962466 -0.9270616 -3.008873 0.33669153 1.3902153 -0.011995005 -1.0969579
0.08268929 0.071822226 2.1606743 -1.2056316 -1.3274728 1.1038705 -0.8704293 2.4440274
0.11924127 -1.9487642 0.48441368 0.6870526 -0.0049330345 0.008285439 -3.307726 1.1849962
0.11038831 0.07458689 -1.7601126 1.1335946 -1.7632183 -0.26721168 -0.69645524 0.047976248
00000000: 179a 3f3f fd44 97bf dd40 22bf 24c1 1ec0
00000010: d425 d63e 77f2 51bf 414d f83f bca2 d4bf
00000020: 02c6 92bf 6a9f 19bf 31b7 933d 9718 0b3c
00000030: 1310 52bf fad0 84be 929d b73f a033 de3f
00000040: a2fd 8e3e 1f79 89bf 6fe0 ea3f 24ea da3f
00000050: e552 82bf aa87 0940 fc64 403e ea4b c83d
00000060: 2adf 463e 161e a93f a935 dfbe d898 e73d
00000070: e0d2 963e 3fba 03c0 1394 93bf 181c 8dbe
00000080: c22c 5b40 b7bb f33d 1f14 d3bd fc05 2d3e
00000090: 2c20 dabd 74c1 14be 070f 503f f5e2 b2bc
000000a0: 00ab 9f3e 81c2 1f40 e953 6dbf 6091 40c0
000000b0: d562 ac3e 93f2 b13f b386 44bc 1e69 8cbf
000000c0: 0159 a93d 8817 933d 7d48 0a40 2352 9abf
000000d0: a1ea a9bf a14b 8d3f 74d4 5ebf f26a 1c40
000000e0: c434 f43d 1b71 f9bf 1205 f83e aee2 2f3f
000000f0: 4ba5 a1bb a6bf 073c c8b1 53c0 f5ad 973f
00000100: 4413 e23d 03c1 983d 5f4b e1bf a119 913f
00000110: 23b1 e1bf f8cf 88be e44a 32bf be82 443d

fc3.bias f4 [6]
0.3334258 0.32097605 0.5887355 0.2954549 0.0014615209 0.07272289
00000000: c9b6 aa3e f956 a43e 5fb7 163f dd45 973e
00000010: 8190 bf3a bdef 943d
