Cleaned LIAR/TunedModels/albert/albert-large-v2/NNetwork6WayClassification/Tanh_MSE_adam4669.pth (torch_old, 3774 bytes, 6 tensors)

fc1.weight f4 [24, 12]
00000000: 7341 05c0 9cd6 b13f 54a7 8e3e 4897 52bd
00000010: ac9c f03d 76a1 d8be 7997 a7be 51be ffbe
00000020: f41f 793f aa63 1a3e 1c40 b53d b8f0 fb3e
00000030: 1aa5 adbf 0770 1940 a49d a23f 8e7b 81bf
00000040: 2665 70bd 639f ab3d 27c8 7d3d 1f1c 5ebe
00000050: 0da3 f93c 3b0d f73d 8790 c93d a061 1fbe
00000060: 4870 32c0 3e22 5ec0 9717 8a3f 2068 e83f
00000070: d113 07bf 8ccd bf3d 0aeb 813c 4647 cd3e
00000080: 2466 71be 2ff0 f93e c8e0 d7bd 02f8 77be
00000090: 1696 11c0 dd00 6040 578e 813e 86ae 95bf
000000a0: b336 0b3f 3729 88bf 26ad 1f3e bec2 3a3f
000000b0: 7926 55bf 2015 35be 2167 50be 7fb1 0abf
000000c0: 69a0 c640 4fdc 3040 f9c9 9d40 884b 8840
000000d0: 7a49 8640 41f5 2b40 b8ee 63be 330f 6cbe
000000e0: c354 a03e 194f 8a3c d8d3 4abe 288e 6d3e
000000f0: ac34 6f40 3b7f 1e40 a594 e3b9 a5e5 14c0
00000100: 53eb 063f 529c 8340 bae9 30bd 04c9 bcbe
00000110: 6bca a7bd 4ca1 b93d cbd4 0bbf cfc3 6c3e
00000120: 9cad 9440 929c 8440 b00d a540 69d7 b140
00000130: e31a d03f 1728 71c0 cf83 8e3d 443c b33d
00000140: 507c bfbe c550 44bb 144b c5bd e5d8 29be
00000150: edba d2bf ba8b 623f c941 e2bf 7f70 213f
00000160: d492 45be 449a 163f 2d4c 1e3e eca5 d4be
00000170: 60a7 cc3e 6f1c cdbe 0c1a 51bd f0bf fb3a
00000180: 5d4f 64c0 1354 adc0 cbcd d8bf ca6a 9dc0
00000190: 4dcc 6cc0 2260 e0bf ea24 5abd 2881 04be
000001a0: 85c7 3d3d 188e a63d 454d abbe 78f9 683e
000001b0: 8118 0ec0 9d06 88c0 a1a2 b3c0 758c 0a40
000001c0: 8a14 bac0 46b8 b3bf 438d 10be 675d 19be
000001d0: 27a9 ba3c dcde e83c b1b0 13be 97aa e23d
000001e0: ed1f 903f 96a8 883d 4211 df3d 968b 2cbf
000001f0: f166 483f 5bf5 233f 5394 033d 54cf 1bbe
00000200: deb1 91be 8fc1 133f c339 29bf f439 ea3d
00000210: a779 20c0 883c b140 f111 8cc0 7969 8b40
00000220: 18f7 7e40 71a6 9740 5ba3 c2bd 7f7f d9be
00000230: 3974 65bd 713c 48bd fa81 473d 1f06 a43d
00000240: 9bd3 67c0 92f1 53c0 eb4a 6840 ce85 bb3d
00000250: 9cf3 383b 29a5 d93e 94a7 a33d 9c62 533e
00000260: dc9a 42be bc65 22be 9350 00bd 5c29 4cbe
00000270: 8ce1 cf3f 6ace 9640 9b1c a940 22ef 6a40
00000280: cce2 a040 626d a440 fd17 9cbe 5625 0d3e
00000290: 5560 8bbe 0d73 9a3d a9a4 8ebd 9173 58be
000002a0: 8533 6dbf 7706 68c0 e109 84bf af02 a1c0
000002b0: b0fe a4c0 a00f a0c0 6ba4 d4bc a0fb 05bf
000002c0: 282e 8f3e 48d8 c2bd be35 0d3e 64cf 483e
000002d0: 75a3 ac40 8bdf 9440 b077 3640 e29b fabf
000002e0: de0e 2a40 f1eb 8040 4eb0 23be fd55 273e
000002f0: e667 c43e 8ebc dcbd 8b0c c53d dd1c 813d
00000300: 03fb b540 8754 2d40 6ec5 e13f f5c1 b240
00000310: 27ea c640 9f06 6b40 a14f e13d 86e6 3cbe
00000320: 2ca7 5f3e df30 d9bd eba3 8b3d 69ec 183e
00000330: ea5b 6ec0 4cd7 0ec0 1ff8 5fc0 1a5f 6ac0
00000340: 111c 42c0 f576 96c0 5143 1fbe a6b3 f7be
00000350: 4a15 ea3e a037 8dbe 0e48 21be 8ed1 cd3e
00000360: 7ee1 6240 ddaf d8bc 0490 8ebf b2c2 aabf
00000370: ceea 1540 2c0a 5d40 cc25 5c3e ccb5 3a3b
00000380: 1f2d d1be 33ea d43e afb8 f43c ff15 b0bd
00000390: 6277 39bf 3916 a940 8e7c 9f40 2051 7d40
000003a0: 6fc2 433f 4f13 ab40 4b1e 26bd 4029 c4bd
000003b0: 2af2 5a3e 8dec 02be 65a3 40be 9bca 533e
000003c0: 1012 9740 548e 61c0 a64d a8be 389f 223e
000003d0: e642 b0bf 1447 2b40 8b4c 60be 9372 473e
000003e0: 0018 33bd 81c7 5ebe 76f8 0f3c 535d 9bbe
000003f0: a648 9cc0 45ce 83c0 7e1f 85c0 a547 96c0
-2.0821197 1.3893619 0.27862036 -0.051413804 0.11748633 -0.42310685 -0.32732752 -0.49949887
0.9731438 0.15077081 0.088501185 0.4920709 -1.356601 2.3974626 1.2704358 -1.0115831
-0.058690213 0.0838001 0.06195846 -0.21690415 0.030473256 0.120630704 0.098420195 -0.15564585
-2.788103 -3.47084 1.0788449 1.8156776 -0.5276461 0.09365377 0.015859146 0.4009344
-0.2357412 0.48816058 -0.105409205 -0.24215701 -2.2747855 3.5000527 0.2530391 -1.1693885
0.5438034 -1.0637578 0.15593395 0.72953403 -0.8326183 -0.1768384 -0.2035184 -0.5417709
6.2070813 2.7634466 4.930905 4.25922 4.1964693 2.686844 -0.22259033 -0.23052673
0.31314668 0.01688342 -0.19807374 0.2319876 3.7375898 2.4765155 -0.00043407563 -2.3265164
0.52702826 4.112832 -0.04319165 -0.36872113 -0.08192905 0.09063968 -0.5462157 0.2312157
4.6461926 4.1441126 5.157921 5.557545 1.6258205 -3.768072 0.06958734 0.08751729
-0.3739953 -0.002995537 -0.09633461 -0.16586645 -1.6463295 0.88494456 -1.7676326 0.6306228
-0.19294292 0.5882914 0.15458746 -0.41532838 0.39971447 -0.40060756 -0.05105023 0.0019206982
-3.567344 -5.416513 -1.6937803 -4.919286 -3.6999695 -1.7529337 -0.05325786 -0.12939894
0.046332855 0.08132571 -0.3345739 0.22751415 -2.2202456 -4.2508073 -5.613602 2.1648228
-5.815007 -1.4040611 -0.14116387 -0.14977036 0.022785736 0.02842658 -0.14422871 0.11067694
1.1259743 0.0667278 0.108919635 -0.6740049 0.78282076 0.6404626 0.032123875 -0.15215808
-0.28456014 0.5771722 -0.6610376 0.11436835 -2.507425 5.538639 -4.37719 4.356625
3.9838314 4.7390676 -0.09503814 -0.42480084 -0.05601904 -0.048885766 0.04870794 0.0800898
-3.6222904 -3.3116193 3.6295726 0.091563806 0.0028221374 0.4250882 0.07990947 0.20643085
-0.19004387 -0.15859121 -0.03132684 -0.19937652 1.6240706 4.712697 5.284742 3.6708455
5.027685 5.1383524 -0.30487052 0.13783774 -0.27221933 0.075414754 -0.06965 -0.21137835
-0.9265674 -3.6253946 -1.0315515 -5.0315776 -5.15609 -5.0019073 -0.025957307 -0.52337074
0.27964902 -0.095139086 0.13790032 0.19610363 5.3949533 4.652288 2.8510551 -1.9578822
2.6571574 4.0288014 -0.15985224 0.16341396 0.38360518 -0.107781515 0.09621533 0.06304333
5.686891 2.7082841 1.7638376 5.5861764 6.216083 3.6722791 0.11001516 -0.18447313
0.21841115 -0.106050245 0.06818374 0.14933933 -3.72436 -2.2318907 -3.499519 -3.6620545
-3.032963 -4.702021 -0.15553023 -0.48379248 0.45719367 -0.275815 -0.15750143 0.4019894
3.545013 -0.026451046 -1.11377 -1.3340666 2.3424563 3.4537458 0.21498793 0.0028489707
-0.40854737 0.4158493 0.02987322 -0.085979454 -0.7244779 5.2839627 4.9839544 3.9580765
0.7646856 5.346107 -0.040556233 -0.0957818 0.21381441 -0.1278555 -0.1881233 0.20682757
4.720955 -3.524312 -0.3287174 0.1588105 -1.3770416 2.6762133 -0.21904199 0.194773
-0.04372406 -0.21755792 0.008787265 -0.30344638 -4.883868 -4.1189294 -4.1600943 -4.6962457

fc1.bias f4 [24]
00000000: 7495 5e3e 88cf 82be 08b8 18be d5b7 f4be
00000010: 96b8 1abe f2f8 7c3e fd1b 7d3e 5a1d 983e
00000020: 52ea f8bd 26f0 84be 9f96 cbbe 952a 4b3e
00000030: 0b51 16be bef4 e8be 99e9 733d acd1 523d
00000040: 2a5c e23d d6df 683d 2802 83bd 949d 2c3d
00000050: 501c 15bd 80f9 15be 1cff a9be dae3 663c
0.217367 -0.2554896 -0.14913952 -0.47796503 -0.15109476 0.2470434 0.24717708 0.29709893
-0.12154068 -0.2596447 -0.39763352 0.19840463 -0.14679353 -0.45499223 0.059548948 0.05146949
0.11052735 0.05685409 -0.06396896 0.042142466 -0.036403954 -0.14645958 -0.33202446 0.01409241

fc2.weight f4 [12, 24]
00000000: dd85 0bbf ac56 423f 8e2f 53be b164 11bf
00000010: 7c76 873f 1114 25bf 39ba 593e c0b2 963e
00000020: 236b 5f3f c849 473e e1b1 ea3d 4825 aebe
00000030: da07 d7bb 2b01 56be 6eca 01bf f2b3 953e
00000040: 2f7c a13d 4394 113d 80d3 503d d31d 63bf
00000050: 1aa4 cf3d 7d52 0abe 6a13 04bf 7db0 723d
00000060: 9ace 2e3e 41f7 a23e 685c cbbd ba88 133d
00000070: 5591 80be 6931 83be fcfd a73e fe73 c5bb
00000080: 68bf a33e 5dc9 e1be d9a8 823e 2de7 08be
00000090: 7f8d e03d 6b8c 733e 8c47 e33e cff8 a5be
000000a0: a3ab 113e a2a4 43be 9892 62bd bf28 af3e
000000b0: 930d 5c3e 8163 943e a6fd 8f3e c893 bdbe
000000c0: e516 003e b1ec b73f bbec f4be b02c 043f
000000d0: 79a6 1140 f559 20bf f0d0 7440 a3f4 c03d
000000e0: 55cf e3bf afdc 35c0 0752 aa3e ca41 b33f
000000f0: 417e 99bf f63e 2340 c861 34c0 504b 883e
00000100: e827 9c40 d5ee 17be 1892 ffbe 3cf0 7a3f
00000110: 2a94 24c0 dad9 b43f 0cde 233f d6d9 4bbf
00000120: 1dd7 3f3f 7bef 6d3f 76f6 edbd 6ae7 343f
00000130: 7f19 b53d dda4 493f 7c9c 0b3f 301a f23e
00000140: c3e3 abbf 7b7a 83bf d67f 123e 0fc9 0440
00000150: 27da 853e 2cc8 4140 3551 05c0 62aa 0d3f
00000160: 2798 e8bd c678 5dbf c7e9 03bf 5cc9 9240
00000170: fd56 c2bf aa2e 4bc0 390d 0bbf 16f2 8fbf
00000180: 8dba 043e ad26 d4be 2204 043f 55d0 263f
00000190: 2e88 0e3f 4317 663e 89c9 8bbd caa7 133e
000001a0: 3ada 14bf f827 87be b2e6 463c 5e0f bdbe
000001b0: 3615 02bf 6ad4 7dbe 2fbc 733f 49a1 143f
000001c0: bbea 51bf 648a ddbe 98ba a0be 9c7e 713f
000001d0: efbc 583d 32d2 a83d 8b64 efbc 3f0e f13e
000001e0: 7b21 b03d 83c1 d6bf a498 d53f 684c 333d
000001f0: 42d2 69c0 1dc8 0bbf aad0 f3bf f3dd 923f
00000200: 8aee 1d3f aa8c 8d40 859e 07bf ccac 8c3f
00000210: 5f47 a43d dd88 32c0 fdff 68be 3c69 10c0
00000220: 4eeb 89bf 4605 493f 7109 a0bf 5928 82c0
00000230: cf60 48bf 1940 5440 fb66 ab3f 2f6f 1ebf
00000240: 31fa f1bc e696 c4bb ad53 8fbf cb60 47be
00000250: 2dc6 e3bf a3d2 4d3e e465 353f 0497 e2be
00000260: 0114 673f 8bb2 de3f 3a6e a43e a42e 40bf
00000270: f3fb acbf 4299 2ac0 2f0e 1e40 a673 0c3f
00000280: 4c23 6dc0 a6fb a33f 24ec 48bf 6306 4cc0
00000290: 4558 9bbe f7e7 eb3f d2af 1440 480c 2f40
000002a0: e70f 043f 8540 4e3e e8dd 5cbe 271b 823e
000002b0: a0a7 4ac0 026f 843e 0aab 77c0 3aca b13e
000002c0: d447 b03f df39 04c0 e5f2 e9bd 165b 853e
000002d0: 265c 9c3d cede d8bf 31c9 853f e144 be3e
000002e0: f7d0 86c0 4cee 533f f5ff 9cbd 395a 14c0
000002f0: 456f 95bf 82ed 7a40 f8be d13e a7ac c93f
00000300: fdbc 5f3e 44fe 383f 956e d33f 6a7d d73d
00000310: 0087 54bf 3b5e dbbf 543a 353f d6ab 30bf
00000320: d44d e23f 1d47 cebe a3e5 8cbe 0672 0bc0
00000330: 26a3 9a3f b377 39c0 1e8e 4a40 1ccb 04c0
00000340: 7f7c 9fc0 0128 723f 7924 3ec0 590b edbf
00000350: 880f c5bf 45c8 0d40 5ce1 74bf a049 18bf
00000360: 777f 053f 44b1 6e3d 3bca 333f b357 a93e
00000370: 2d16 46c0 14db eebe 9d97 033f 6c2e 15be
00000380: 5d08 b13d 1fcf 8540 e8d0 9fbe e7b8 f73e
00000390: a3ba f1be 28ee 03c0 25dd 1740 3be9 5cbf
000003a0: 26cb 9dc0 8536 aa3f aab7 dfbf ae38 9b3e
000003b0: 0aec 76bf 764d 6abf 8823 fc3f ab9e 0840
000003c0: 803b adbe c523 823f 3507 8a3f 5ff8 003f
000003d0: ffad 903e 1775 97be 6fcb c83f 6c73 1cbe
000003e0: 168f 6fbf b99e 9abf b691 58be 5a89 53be
000003f0: 2ec6 3abf f46c ac3d 519e b13e f9ce 343e
-0.54501134 0.759135 -0.2062361 -0.5679427 1.0583034 -0.64483744 0.21262445 0.2943325
0.8727285 0.19461739 0.11459709 -0.34012818 -0.0065622153 -0.20898883 -0.5069951 0.2923885
0.07885014 0.035541784 0.050982952 -0.88717383 0.10138722 -0.1350803 -0.51592124 0.059250344
0.17071 0.31829265 -0.099297345 0.036019064 -0.2511088 -0.25623634 0.32810962 -0.0060257902
0.3198197 -0.4409894 0.25519446 -0.13369437 0.10964488 0.23784034 0.44390523 -0.32416388
0.1422563 -0.19105771 -0.055315584 0.34210774 0.21489553 0.28982165 0.28123206 -0.3702681
0.12508734 1.4369107 -0.4783686 0.5163069 2.2757857 -0.62637264 3.8252525 0.09421661
-1.7797648 -2.8415945 0.33265707 1.4004452 -1.1991655 2.5507178 -2.818468 0.2661996
4.8798714 -0.14837201 -0.49916148 0.9802282 -2.5715432 1.4128983 0.6401069 -0.79629266
0.7493761 0.92943543 -0.11619274 0.7066561 0.088427536 0.78767186 0.5453565 0.47285604
-1.3428882 -1.0271753 0.14306578 2.0747716 0.26143 3.0278425 -2.0830815 0.5533811
-0.11357146 -0.8651241 -0.5152859 4.58708 -1.5182797 -3.1747231 -0.5431705 -1.1245754
0.12961788 -0.41435757 0.51568806 0.6516164 0.55676544 0.22469811 -0.06825549 0.14419475
-0.5814549 -0.2639768 0.012139963 -0.36925787 -0.50813615 -0.24788061 0.9520902 0.580586
-0.81998795 -0.43269646 -0.3139236 0.94333816 0.052914556 0.082432166 -0.029222747 0.4708118
0.08600136 -1.6777805 1.6687207 0.04377404 -3.653458 -0.54602224 -1.9048054 1.1473984
0.61692107 4.423421 -0.52976257 1.0990233 0.080214255 -2.7896035 -0.22753902 -2.256423
-1.0774934 0.7852367 -1.2502881 -4.0674253 -0.7827272 3.3164122 1.3390802 -0.618884
-0.029538246 -0.005999434 -1.1197411 -0.19470517 -1.7794853 0.20099883 0.708586 -0.4425584
0.902649 1.7398237 0.32115346 -0.7507117 -1.3514389 -2.665604 2.4696157 0.54863966
-3.7052794 1.2811172 -0.7848532 -3.1878898 -0.30340782 1.8430165 2.3232312 2.7351246
0.51586765 0.201418 -0.21569026 0.2541134 -3.166481 0.25865942 -3.8698144 0.347246
1.377192 -2.0660322 -0.114232816 0.26046056 0.076347634 -1.6942995 1.0452024 0.37161925
-4.2130084 0.8278549 -0.076660074 -2.3180068 -1.1674582 3.9207463 0.4096601 1.5755814
0.21849437 0.7226298 1.6518122 0.10521968 -0.83018494 -1.7138132 0.70792127 -0.690122
1.7680001 -0.4028863 -0.2751895 -2.1788344 1.2081039 -2.8979309 3.1649241 -2.0748968
-4.9839473 0.9459229 -2.970976 -1.8519088 -1.5395365 2.2153485 -0.9565637 -0.5948734
0.5214762 0.058274522 0.70230454 0.33074722 -3.0951035 -0.46651518 0.5140322 -0.1456849
0.08644173 4.1815333 -0.3121407 0.48383257 -0.47212705 -2.061411 2.3728726 -0.8629338
-4.9310484 1.3297888 -1.7477925 0.3031668 -0.9645392 -0.91524446 1.9698343 2.1346843
-0.33834457 1.0167166 1.078345 0.50378984 0.28257748 -0.2958152 1.5687083 -0.15278405
-0.93577707 -1.2079688 -0.21149334 -0.20657864 -0.7295865 0.08419219 0.34691098 0.17657079

fc2.bias f4 [12]
00000000: dc87 003f 9fd3 ed3c 0125 38bd 8cd5 6e3d
00000010: 44fb 993e 816b 833e 49e7 81be 4d8a 17bd
00000020: 8f8c ed3d b9ee 1a3e a536 343f 925a a83e
0.50207305 0.029031573 -0.044957165 0.058309123 0.30074513 0.25667956 -0.2537177 -0.03699713
0.11599075 0.15130128 0.7039588 0.328816

fc3.weight f4 [6, 12]
00000000: df33 343f 4624 8bbf 0c20 1cbf 3ea5 1bc0
00000010: e608 a03e b5df 4bbf 21bc f53f eb2b d3bf
00000020: cc7f 92bf 2453 1fbf 223b bd3d ab15 00bd
00000030: 8627 42bf 35f8 42be d1b6 b73f 2854 d93f
00000040: 74c5 8f3e 965d 83bf 12ec e33f 3a72 d63f
00000050: bf62 81bf 1421 0640 f5dd 7e3e 4444 f83d
00000060: 9231 463e 065f 9d3f af36 e6be 4c1e ce3d
00000070: 0eb5 c03e 4fa9 01c0 b2dd 94bf 9a00 87be
00000080: 33a8 5640 0ebe ff3d 1490 2bbe 5e1a 153e
00000090: 1357 f8bd f5f0 4cbe 5e86 493f b12c 17bd
000000a0: b416 7a3e 5627 1940 2f5c 68bf 132c 3cc0
000000b0: 2e4f b13e fd39 ac3f e821 2f3c bfed 84bf
000000c0: f334 a73d c107 ad3d 1878 0740 3dd5 96bf
000000d0: b3a7 9dbf 6a90 8e3f ecb9 62bf b914 1940
000000e0: f3cf 093e 1b96 f4bf b81c e23e a62f 2b3f
000000f0: 78ae c6bb f3b5 1c3c 6bb1 4dc0 c084 8f3f
00000100: 0e9a b63d 8941 9a3d c53b d9bf 5350 8b3f
00000110: 6ec7 e4bf b351 79be 4a70 31bf 55e1 643d
0.7039165 -1.0870445 -0.609864 -2.4319606 0.3125679 -0.79638225 1.9198037 -1.6497778
-1.144525 -0.6223624 0.09239794 -0.031270664 -0.7584156 -0.19039996 1.4352666 1.6978807
0.28080332 -1.0262935 1.7806418 1.6753609 -1.010826 2.095769 0.24889357 0.12122396
0.19354847 1.2294624 -0.44963595 0.100643724 0.37638134 -2.0259588 -1.1630156 -0.26367646
3.354016 0.12487422 -0.1675418 0.1456084 -0.12125983 -0.20013793 0.78720653 -0.036907855
0.24422723 2.3930259 -0.9076566 -2.94019 0.34630722 1.3455197 0.010689236 -1.0385054
0.08164396 0.084487446 2.116705 -1.1783825 -1.2316803 1.1137822 -0.88564944 2.3918898
0.13458233 -1.9108309 0.44162536 0.6686958 -0.0060632788 0.009564864 -3.2139537 1.1212387
0.08916102 0.07532031 -1.6971365 1.0883888 -1.7873361 -0.24347572 -0.69311965 0.055878956

fc3.bias f4 [6]
00000000: b3df a13e 4c92 943e 8fa4 103f 0415 823e
00000010: 96ba 3dbc 8295 763d
0.3161598 0.29017866 0.56501096 0.2540666 -0.01158013 0.060201176
