Cleaned LIAR/TunedModels/albert/albert-large-v2/NNetwork6WayClassification/Tanh_MSE_adam4773.pth (torch_old, 3774 bytes, 6 tensors)

fc1.weight f4 [24, 12]
00000000: 7d5b 0bc0 f70e b83f 7ef4 673e d951 0e3d
00000010: 7c3a d83d 4d31 ebbe a654 afbe 3b2f 0abf
00000020: 3369 813f 5e9e 033e 93eb 243c 6dd1 0b3f
00000030: 44c3 c0bf 56d8 1a40 7239 933f cba9 71bf
00000040: 8e29 f3bc 2b5f 083e 9498 c03d cbbf 51be
00000050: b08b 2c3b 3f63 113e 3f0b c33d 2d13 13be
00000060: 2dd6 3cc0 1880 5fc0 33b7 b03f fd0f ee3f
00000070: 8f86 e4be 9fde 04bd 6341 0c3d aa7c d23e
00000080: 3c63 6bbe 6959 f13e a095 c2bd a0ca 73be
00000090: b84e 02c0 01c0 5940 b096 b83e 3e26 a5bf
000000a0: c5bb 2b3f 4a79 82bf cfd0 463e c788 523f
000000b0: 7094 69bf 2ef4 f3bd 567f 02be e0b5 1abf
000000c0: 14c8 db40 47ae 2e40 a0ad aa40 36ae 9440
000000d0: 1afe 8f40 c0bf 3540 b1be 60be 3bd5 54be
000000e0: 7a63 a33e 371a 873c ff86 46be 2051 5c3e
000000f0: 102f 8340 9cac e93f b664 04be 0a92 2fc0
00000100: 43e0 ed3e b769 8e40 014f b1bc 4e85 ddbe
00000110: 75b3 bcbd 73de 883d be1e 09bf 2951 5a3e
00000120: 4436 9c40 037d 9140 36e8 b640 55e0 c540
00000130: c622 0840 4c0d 5cc0 d8e9 923d 1bb3 da3d
00000140: 5b5d c6be 4fb7 143b 069f cbbd c02e 25be
00000150: 2f20 e9bf f1bb 823f 6bfb c8bf 6587 093f
00000160: e653 0fbe de3d 173f cc26 073e 2062 c8be
00000170: 652e cc3e 0c89 d9be f543 7dbd 5bf0 bb3b
00000180: bf90 8ac0 629e c6c0 80e0 cbbf 588e b1c0
00000190: e22f 83c0 8010 b7bf 3fbc 46bd 5095 f2bd
000001a0: b141 1f3d 8283 a93d 19d5 a9be 3485 7a3e
000001b0: 4d97 13c0 d8e6 8bc0 929b bec0 864a f93f
000001c0: bbc2 cbc0 791d d8bf b4fc 05be 86d8 0cbe
000001d0: b3e9 11bb d5c2 193d c375 15be 1765 d83d
000001e0: 5aeb 623f 0936 363e cc06 6bbd a860 29bf
000001f0: 0a38 6f3f 44ea 123f d876 c53c bb41 a2bd
00000200: 2cc8 a9be a834 0b3f 5f1e 23bf 39fa d53d
00000210: 00ac 19c0 e727 bc40 b529 97c0 e1de 9a40
00000220: b0e8 8940 a9a1 a440 b21f b7bd 8ea5 d7be
00000230: 746f 9ebd 39e5 59bd 2705 353d 927a 9c3d
00000240: a040 84c0 4d77 53c0 5b36 7440 b478 a83e
00000250: 7131 91be f42d ee3e 2a98 be3d 1087 633e
00000260: abdd 9abe 0e44 27be 5c9f 62bd 334b 79be
00000270: bbde 0d40 a81e 9e40 a606 b840 28ae 6440
00000280: 0a02 af40 cee8 ac40 e4b2 a2be 6a0b e83d
00000290: c3e6 91be e13e 783d 8186 aebd 5c75 63be
000002a0: ecbb bcbf 5910 82c0 96f6 afbf bd77 acc0
000002b0: 48bb b7c0 2a96 b2c0 745e 03bd 35d1 05bf
000002c0: 7d4c 8c3e 90f2 c1bd af9b 133e dfd3 3e3e
000002d0: 3eff c640 552a a740 44b1 5a40 dfc4 d1bf
000002e0: a0bd 4f40 7fdc 8e40 11a3 33be caf0 183e
000002f0: ae87 af3e b3be b0bd 0991 db3d 8733 643d
00000300: 6078 bf40 b067 2040 be7f f63f 9b01 bd40
00000310: 6d39 d540 1788 7440 74ae e53d d7c2 4ebe
00000320: 9477 5e3e 9c6d d6bd 0ee0 883d 02a2 253e
00000330: 8435 81c0 90cd 18c0 2f64 62c0 2717 7fc0
00000340: a125 57c0 9f86 a8c0 83f6 43be 9a3f e4be
00000350: 73ab fd3e 8a71 99be 8188 4fbe ab23 c03e
00000360: 4eb3 5f40 fab2 f13d 14fb cebf ce77 a3bf
00000370: 1c29 0e40 7f16 4640 696c 6d3e 7990 8b3d
00000380: 9b4d cebe 3017 dc3e 1a80 623c bcee 90bd
00000390: 3138 50be 338d b540 89ef aa40 1525 8840
000003a0: 9f0c 683f d64a b740 ccdd 37bd ec95 74bd
000003b0: 617c 873e 69cd 0ebe d0cd 38be 1984 673e
000003c0: b7c5 a440 3b34 6cc0 1436 eebe c6bf 133c
000003d0: 7b7d c2bf 6713 1c40 25cf 64be 00e7 683e
000003e0: 5ec0 21bd 9ac2 5bbe 9618 e23b aab2 9fbe
000003f0: 5454 b1c0 3f97 88c0 f1d6 89c0 36b3 9cc0
-2.177459 1.4379567 0.2265186 0.034746025 0.1055803 -0.4593605 -0.3424427 -0.5397832
1.0110229 0.12853381 0.010065931 0.54616433 -1.505959 2.419454 1.1501906 -0.9439971
-0.0296829 0.13317554 0.09404102 -0.2048332 0.0026328377 0.14198016 0.095236294 -0.14362784
-2.9505723 -3.4921932 1.3805908 1.8598629 -0.4463391 -0.03243887 0.034242045 0.41110736
-0.22987074 0.47138527 -0.09501195 -0.23807764 -2.0360546 3.402344 0.36052465 -1.2902296
0.6708339 -1.0193264 0.19415592 0.82239956 -0.9124212 -0.11911808 -0.12743887 -0.6043377
6.8681736 2.729387 5.3336945 4.646266 4.4997683 2.8398285 -0.21947743 -0.20784466
0.31911832 0.016491992 -0.19387434 0.21515322 4.099495 1.8255801 -0.12929043 -2.7432885
0.4646016 4.4504046 -0.021644117 -0.43265766 -0.09213916 0.06683054 -0.53562534 0.21320023
4.881624 4.54651 5.715846 6.1836343 2.1271224 -3.4383116 0.071735084 0.10678693
-0.387431 0.0022692268 -0.09942441 -0.16131115 -1.8212947 1.0213605 -1.5701727 0.5372222
-0.13996848 0.59078777 0.13198394 -0.39137363 0.39879146 -0.4248737 -0.061832387 0.0057354397
-4.330169 -6.206834 -1.5927887 -5.548626 -4.099595 -1.430191 -0.04851937 -0.11844885
0.038881008 0.08277036 -0.33170393 0.24464875 -2.3061097 -4.371929 -5.9564905 1.9475868
-6.367521 -1.6883994 -0.1308468 -0.13754472 -0.002226454 0.037539322 -0.14595704 0.10566156
0.8864037 0.1779405 -0.05737953 -0.6616311 0.93444884 0.5738871 0.02410452 -0.07922693
-0.33160532 0.5437722 -0.6371822 0.10448117 -2.401123 5.879871 -4.723841 4.839707
4.309654 5.144734 -0.08941592 -0.42118496 -0.07736102 -0.05319712 0.044194367 0.07640566
-4.132889 -3.3041565 3.8158176 0.3290459 -0.28358033 0.46519434 0.09306367 0.22219491
-0.30247244 -0.16334555 -0.05532776 -0.24345092 2.2167194 4.941242 5.7508116 3.5731297
5.468999 5.4034185 -0.31777108 0.11330302 -0.2849637 0.06060684 -0.08521748 -0.22212738
-1.4744849 -4.0644956 -1.3747127 -5.3896165 -5.7416115 -5.5808306 -0.0320725 -0.5227235
0.27402106 -0.09470093 0.14414857 0.1863551 6.2186575 5.2239175 3.4170694 -1.6388205
3.2459488 4.464416 -0.17542674 0.14935604 0.34283203 -0.08630123 0.10721023 0.055713203
5.983444 2.5063286 1.9257734 5.906446 6.66326 3.8208063 0.11214915 -0.20191513
0.21725303 -0.10470125 0.0668336 0.16175082 -4.0377827 -2.3875465 -3.5373647 -3.985788
-3.3616717 -5.2664332 -0.19137006 -0.44579774 0.49544868 -0.29969436 -0.20266916 0.37527213
3.495319 0.11801715 -1.6170373 -1.2770936 2.221259 3.095123 0.23185886 0.06814665
-0.40293583 0.4298644 0.013824487 -0.07076785 -0.20333935 5.673486 5.34174 4.2545266
0.9064426 5.7278852 -0.044889256 -0.05971329 0.2646208 -0.13945545 -0.18047261 0.22608985
5.149135 -3.690688 -0.46525633 0.00901789 -1.5194544 2.4386842 -0.22344644 0.2274437
-0.039490096 -0.21460953 0.0068999035 -0.31190997 -5.541544 -4.2684627 -4.307488 -4.8968763

fc1.bias f4 [24]
00000000: 96ca 743e 0755 8fbe 0334 13be b14d 03bf
00000010: 548e 24be 93f5 7a3e 1b23 823e 1a5f 8e3e
00000020: a50b e8bd 1520 87be 94d8 f4be 8717 543e
00000030: dc9b 2bbe bd9c e7be d055 673d 4056 953d
00000040: 0a26 e13d 3f3c 443d 0532 adbd 459d 323d
00000050: 9c1d 35bd 3feb 13be a826 a6be 2b47 11bc
0.23905405 -0.27994558 -0.1437531 -0.5129042 -0.16069919 0.24507742 0.25417408 0.27806932
-0.11330346 -0.26391664 -0.47821486 0.207121 -0.16758674 -0.4523677 0.05647832 0.072918415
0.109935835 0.047909018 -0.08456806 0.043607015 -0.04421769 -0.14445208 -0.32451367 -0.008867065

fc2.weight f4 [12, 24]
00000000: c30c f7be 6f72 413f 453b a5be 6e9c 13bf
00000010: e801 893f ef40 21bf 15de 363e 14f7 8d3e
00000020: cc4a 753f 00da 953e 174c 343e 1fe6 86be
00000030: 7d7f ce3d a390 84be 547a 01bf 7fac 7d3e
00000040: d9fe f43d ea52 ea3b cb48 0f3e 409b 61bf
00000050: 3187 1f3e 862d 3dbe 1e49 e9be c837 343d
00000060: 0edb 3a3e cc09 973e 39ed cebd 5702 d13c
00000070: 0290 80be 1678 5bbe 6f81 a03e 0523 193d
00000080: baa6 ce3e e8b6 ebbe 471b 7f3e dfe9 06be
00000090: 623a ee3d 09f4 863e ca6e 043f b6fe c3be
000000a0: 8fe3 0f3e fddf 84be 81ee 40bd 34ea e23e
000000b0: f3fe 643e a048 763e c133 8f3e eb1e a3be
000000c0: 80cb cd3d 480e ba3f 2240 07bf fc33 0a3f
000000d0: 779d 1240 97c2 17bf 0346 7b40 2122 0e3e
000000e0: 345f e6bf 3a7e 35c0 bd2d ba3e 94d9 af3f
000000f0: 4a0b 98bf 2107 2540 6802 38c0 9c0f 773e
00000100: f141 a040 9213 58be df0b eabe 37c5 5b3f
00000110: 774d 24c0 8f53 ba3f c36b 2d3f caec 3bbf
00000120: 47e3 453f a903 733f 7cfa babc f807 353f
00000130: 108a 023e e044 2b3f 3595 123f bd57 ec3e
00000140: c9d0 b0bf 8133 87bf 7342 093e 87ca 0740
00000150: 74d6 913e a30e 4b40 7bec 0cc0 b2fe 0d3f
00000160: c62e 0ebe 884e 72bf cb71 15bf 11b8 9e40
00000170: c482 e0bf 3826 56c0 53cd 08bf aa0c 91bf
00000180: c03e 103e 69fd d6be 8f48 0e3f 44a9 2e3f
00000190: f6fc 093f a85f 993e 4181 4e3c 3788 0b3e
000001a0: 60cd 27bf 9f87 69be c2c5 9a3d e650 cabe
000001b0: 77e1 12bf 1475 99be 9559 7e3f 5fa9 093f
000001c0: 4c3b 61bf 4317 febe 010f babe b46f 813f
000001d0: 51f4 ae3d 6fa9 183e 6ff3 8ebd 5174 ff3e
000001e0: 5dd8 993d a415 d9bf 6268 dd3f 94f9 9c3d
000001f0: 9df6 6bc0 a716 28bf 3bdd f9bf db4e 903f
00000200: 7812 1e3f 0289 8f40 2b9b 08bf a0b9 8d3f
00000210: 1858 bd3d 25bf 33c0 e2a7 79be d6ff 11c0
00000220: 438c 8cbf 50d6 4d3f ba03 a8bf 14aa 82c0
00000230: f3f8 5abf bc24 5840 5da6 ab3f 3c23 25bf
00000240: 57d8 66bd 12a5 98bc 7e5d 8cbf 8558 4dbe
00000250: f5e6 e2bf 841a 833e 5cba 4d3f 8375 e0be
00000260: ef2d 673f 7de9 db3f 2b5c 9f3e 6923 48bf
00000270: 22d8 b0bf 06f2 2bc0 8e2e 2040 13c0 163f
00000280: b6cd 7ac0 890f a23f 66b1 3cbf 244b 48c0
00000290: 9d40 85be fde3 d43f a8f8 1b40 2568 3440
000002a0: a542 0b3f 31b1 5a3e e312 07be 1acc 573e
000002b0: 6d25 56c0 62d3 833e 1174 7dc0 8e6b be3e
000002c0: 09cc b23f 041b 09c0 415a a0bd a2ac 933e
000002d0: a7d6 883d c03e e5bf 6389 813f f372 bf3e
000002e0: 8bdc 8fc0 4ddc 533f e7d9 aabd 15ea 1dc0
000002f0: 0008 9abf 47ac 8140 84fe e03e b831 cd3f
00000300: a01c 563e 979d 3e3f 9c0a c93f 1eba e13d
00000310: 6959 52bf 3b8a d8bf ec42 3d3f c6da 2fbf
00000320: 5706 e73f 8412 bdbe 370a 91be 041e 0ec0
00000330: 69e6 9b3f 6d61 3cc0 8121 5240 acbf 05c0
00000340: b123 a6c0 e6b0 863f b153 41c0 0467 02c0
00000350: cdd8 d8bf 5fd1 1240 3826 73bf f84a 10bf
00000360: 5a14 133f fa17 0e3d f3b0 633f 089d 913e
00000370: ca7a 50c0 bade 08bf 7dba 093f 3e36 97bd
00000380: 7bb9 273e 56e4 8940 1afe b9be b904 033f
00000390: 08a7 e6be ff81 06c0 6882 1c40 e22c 75bf
000003a0: 3c8a a7c0 3fa0 ba3f 03f0 e5bf a306 a13d
000003b0: fe6b 76bf 90d9 5ebf d514 fc3f c101 0b40
000003c0: 656f d6be 4a51 8d3f 3ab0 803f 0139 0c3f
000003d0: 3e54 ac3e 51c4 97be 5f73 d83f 7b5f 4bbe
000003e0: 6af6 84bf 9338 9bbf 436b 1abe 4201 7ebe
000003f0: 06f0 44bf ba08 c23d 1fd1 f23e 7f87 2a3e
-0.48251924 0.75565237 -0.32271782 -0.5766057 1.0703707 -0.62989706 0.17858155 0.27727568
0.95817256 0.29267883 0.17607151 -0.26347443 0.1008291 -0.258916 -0.5057728 0.24772833
0.11962671 0.0071509974 0.13992612 -0.8812752 0.15578915 -0.18474397 -0.45563596 0.04399851
0.18247625 0.29499662 -0.101038404 0.025513811 -0.2510987 -0.21432528 0.3134875 0.037386913
0.40361577 -0.46037984 0.24912749 -0.13175152 0.116322294 0.2635806 0.5173155 -0.38280267
0.1405165 -0.2595214 -0.047102455 0.44319308 0.2236288 0.24051142 0.27969173 -0.31859526
0.1004858 1.4535608 -0.52832234 0.5398557 2.290861 -0.59281296 3.9261482 0.13880207
-1.7997804 -2.8358293 0.3636302 1.3738275 -1.1878445 2.57856 -2.8751469 0.24127048
5.0080495 -0.21101215 -0.45712182 0.858478 -2.567228 1.455675 0.67742556 -0.73408186
0.7729992 0.9492746 -0.022824518 0.70715284 0.12747979 0.6690197 0.5725892 0.4616069
-1.3813716 -1.0562593 0.13404255 2.1217363 0.28483927 3.1727684 -2.2019336 0.5546676
-0.1388503 -0.9465108 -0.5837676 4.959969 -1.7539907 -3.3460827 -0.534383 -1.133199
0.14086437 -0.41990212 0.55579466 0.6822703 0.5390161 0.29955792 0.012604059 0.1362618
-0.6554775 -0.22805642 0.075572506 -0.39514846 -0.5737528 -0.29972136 0.9935544 0.53774065
-0.87981105 -0.49627122 -0.36339572 1.0112214 0.085426934 0.14908384 -0.06980025 0.4989343
0.07511971 -1.6959729 1.729748 0.07664791 -3.686927 -0.65659565 -1.9520639 1.1274065
0.6174693 4.4854746 -0.5336177 1.1072273 0.09245318 -2.8085415 -0.24380448 -2.28124
-1.0980304 0.8040514 -1.3126137 -4.0832615 -0.85536116 3.377242 1.3410145 -0.6450689
-0.05635866 -0.0186334 -1.0966032 -0.20053299 -1.7726732 0.25606167 0.80362487 -0.43839654
0.90304464 1.718063 0.31125006 -0.7817903 -1.3815958 -2.686647 2.5028415 0.5888683
-3.9188056 1.2660991 -0.7370819 -3.1295862 -0.2602586 1.6632077 2.4370518 2.8188565
0.54398566 0.21356656 -0.13190798 0.21073952 -3.3460343 0.2574721 -3.9602091 0.37191433
1.3968517 -2.142274 -0.078297146 0.28842646 0.06681567 -1.7909775 1.0120052 0.37392387
-4.4956717 0.8275803 -0.08342343 -2.4674122 -1.2033691 4.05228 0.4394418 1.6030798
0.20909357 0.74459213 1.5706363 0.11021827 -0.8216768 -1.6917185 0.7393024 -0.68693197
1.804881 -0.3692819 -0.28328106 -2.220582 1.2179691 -2.9434464 3.283295 -2.0898237
-5.191857 1.0522735 -3.020733 -2.0375376 -1.6941162 2.294029 -0.9498019 -0.56364393
0.5745293 0.034690835 0.8894188 0.28440118 -3.2574944 -0.53464854 0.53800184 -0.07383393
0.16379349 4.309123 -0.36326677 0.5117908 -0.4504931 -2.1016843 2.4454594 -0.9577161
-5.2356243 1.4580153 -1.7963871 0.07862594 -0.96258533 -0.87050724 1.9693857 2.171982
-0.41881862 1.1040432 1.005378 0.5477448 0.33658022 -0.29641965 1.6910208 -0.19860642
-1.03877 -1.212664 -0.1507998 -0.24805167 -0.76928747 0.09474321 0.47425172 0.1665325

fc2.bias f4 [12]
00000000: 1ed6 023f ec1b bb3c b1be 80bd 95b6 413d
00000010: ee03 9e3e 5872 853e d1ba 7ebe f227 a2bc
00000020: 6b1c d63d e764 1b3e ae5a 4a3f 50fe a53e
0.51107967 0.022840463 -0.062863715 0.047293264 0.30862373 0.260638 -0.24875952 -0.019794438
0.10454639 0.1517521 0.79044616 0.32420588

fc3.weight f4 [6, 12]
00000000: 92dc 433f 4498 99bf 3e3e 23bf fb58 1fc0
00000010: ff82 df3e 31a1 52bf 6cd9 f83f 7aa7 d4bf
00000020: 1392 92bf d58a 18bf 908e 923d b769 953c
00000030: 6697 56bf 8301 8abe eae6 b73f 71f9 de3f
00000040: 9c4e 8e3e 36f0 8abf 3541 ec3f 13b3 db3f
00000050: a97f 82bf 2a02 0a40 7e82 363e 0293 bb3d
00000060: 0a29 483e 0b72 aa3f 4a5e debe 4aa4 e93d
00000070: 1aef 913e 6bee 03c0 5c6f 93bf 4100 8ebe
00000080: 5188 5b40 1087 f23d 7d25 c8bd 42a7 2c3e
00000090: 16bd dabd 799d 06be b29f 513f 88b3 94bc
000000a0: 9b69 a63e 2539 2140 a7ae 6ebf 5a94 41c0
000000b0: 0a63 aa3e 7642 b33f c80f 8dbc 0d02 8ebf
000000c0: 8d1c ac3d e777 8a3d 4ea7 0a40 06d3 9abf
000000d0: e093 abbf 533f 8d3f b230 5ebf c1de 1c40
000000e0: 0430 f03d 7df7 f9bf 273b fb3e 7e9e 303f
000000f0: b371 86bb 2f2d e53b cb9f 54c0 f2dd 983f
00000100: d3cb e43d daea 993d 9082 e2bf 0700 923f
00000110: b31b e1bf 0719 8bbe d00a 32bf d128 433d
0.7650844 -1.1999593 -0.6376685 -2.489806 0.4365463 -0.8227721 1.9441352 -1.661361
-1.1450828 -0.5958684 0.07156098 0.018238885 -0.83824766 -0.26954278 1.4367344 1.7419873
0.2779435 -1.0854557 1.84574 1.7164024 -1.0195209 2.156382 0.17823216 0.09158899
0.19546905 1.3316053 -0.43431312 0.11408289 0.28502733 -2.0614269 -1.1518359 -0.2773457
3.430195 0.118421674 -0.09772775 0.16860679 -0.106805965 -0.13146009 0.818843 -0.018152013
0.32502446 2.5191128 -0.9323525 -3.0246797 0.33278686 1.4004657 -0.01721944 -1.1094376
0.08403883 0.06761151 2.1664615 -1.2095649 -1.3404503 1.103495 -0.86793053 2.4510958
0.11727908 -1.9528652 0.49068567 0.6899184 -0.0041029095 0.0069939117 -3.322253 1.1942732
0.11171689 0.075154975 -1.7696095 1.1406258 -1.7586578 -0.27167532 -0.6954775 0.047646347

fc3.bias f4 [6]
00000000: 0214 ac3e 81f7 a73e a161 173f a7ac 9c3e
00000010: 0297 4e3b 29ec 973d
0.33609015 0.32806018 0.59133345 0.30600473 0.0031523113 0.07418091
