Cleaned LIAR/TunedModels/albert/albert-large-v2/NNetwork6WayClassification/Tanh_MSE_adam4781.pth (torch_old, 3774 bytes, 6 tensors)

fc1.weight f4 [24, 12]
-2.1897545 1.4338708 0.19895732 0.048541613 0.10051225 -0.4437351 -0.35592672 -0.555167
1.0208498 0.117506705 -0.021073105 0.55825996 -1.5680851 2.433514 1.1563718 -0.93375325
-0.031058185 0.12526396 0.10410263 -0.20883428 -0.0026639202 0.14880115 0.093256414 -0.13797791
-2.9983969 -3.4737723 1.4229573 1.8681295 -0.4143333 -0.061389893 0.0402371 0.41526645
-0.2297034 0.46523133 -0.09137957 -0.23570052 -2.0037823 3.398014 0.39932907 -1.331024
0.69919014 -1.0055054 0.21183531 0.8515863 -0.93728435 -0.09761635 -0.101897985 -0.6192744
6.917118 2.7310197 5.386023 4.6988344 4.5530868 2.862661 -0.21854228 -0.19727339
0.32113492 0.013281999 -0.1899542 0.21034378 4.1472516 1.7720028 -0.18911384 -2.7970657
0.41853362 4.493547 -0.012840551 -0.44041616 -0.09423745 0.05833904 -0.53027666 0.20867717
4.8981905 4.594971 5.7670736 6.2336907 2.1796057 -3.3896794 0.07301009 0.11342755
-0.3924442 0.0048894794 -0.099003956 -0.16197988 -1.8350981 1.0120957 -1.5228688 0.5178327
-0.12804773 0.6167665 0.12765664 -0.39093202 0.39801988 -0.4295957 -0.06453446 0.0037923655
-4.3835683 -6.2576127 -1.5550876 -5.5971537 -4.144077 -1.3900563 -0.04800838 -0.11196812
0.038089447 0.08114585 -0.32851794 0.24527375 -2.2698698 -4.3772163 -5.9980865 1.8961277
-6.4147496 -1.7114015 -0.1283378 -0.13576275 -0.0063504516 0.040004604 -0.14655851 0.10402233
0.8432745 0.21130496 -0.08198375 -0.6638512 0.96574837 0.54571426 0.024258073 -0.062774256
-0.3361176 0.5325526 -0.6267539 0.10227822 -2.3653295 5.9248676 -4.774162 4.881833
4.3473253 5.1940074 -0.088786066 -0.41885832 -0.08097022 -0.05435358 0.043010134 0.076717466
-4.175709 -3.2850373 3.838528 0.3596535 -0.32785475 0.49498954 0.09480809 0.22702233
-0.32007766 -0.16290617 -0.0581585 -0.24965371 2.2632396 4.984215 5.794768 3.52577
5.515517 5.4415 -0.32153124 0.10890814 -0.28412786 0.05862468 -0.09050776 -0.2238473
-1.5249863 -4.114857 -1.4262475 -5.4345355 -5.7911143 -5.630389 -0.03286413 -0.52284765
0.27194962 -0.09326886 0.14471093 0.18411824 6.269044 5.274652 3.462065 -1.5854121
3.2967582 4.504061 -0.17857365 0.1390853 0.33073074 -0.08075135 0.11058322 0.052555602
6.0106435 2.464678 1.9612812 5.954014 6.712219 3.8397841 0.11302367 -0.2078535
0.21764527 -0.10425028 0.06700236 0.16395715 -4.0807037 -2.3844693 -3.5188699 -4.010578
-3.3985012 -5.314299 -0.1982625 -0.43362018 0.50413465 -0.30484736 -0.21259248 0.37430725
3.4885256 0.15182841 -1.667858 -1.2518641 2.1727986 3.0425348 0.23787877 0.08684157
-0.40546688 0.43334007 0.00671556 -0.063640706 -0.15001588 5.7196083 5.3843074 4.2853475
0.91315097 5.7750273 -0.045948546 -0.051910255 0.27819592 -0.14152148 -0.17926821 0.2322507
5.193369 -3.70056 -0.46935526 -0.011544117 -1.5119116 2.4048374 -0.22567779 0.23519993
-0.03831891 -0.21246463 0.0066681225 -0.315244 -5.5929866 -4.285403 -4.314856 -4.903148
00000000: f024 0cc0 1489 b73f 78bb 4b3e 92d3 463d
00000010: 5ed9 cd3d 3f31 e3be 073c b6be 6d1f 0ebf
00000020: 35ab 823f 5ba7 f03d 81a1 acbc 20ea 0e3f
00000030: 03b7 c8bf b2be 1b40 fe03 943f 740a 6fbf
00000040: bc6d febc 3245 003e c233 d53d a7d8 55be
00000050: 2a95 2ebb 545f 183e 38fd be3d 154a 0dbe
00000060: bce5 3fc0 4952 5ec0 7723 b63f de1e ef3f
00000070: 7f23 d4be f873 7bbd a8cf 243d ce9d d43e
00000080: 5e37 6bbe cd32 ee3e 3625 bbbd 7a5b 71be
00000090: f83d 00c0 1079 5940 dc74 cc3e ff5e aabf
000000a0: 20fe 323f 67b4 80bf 5beb 583e 8f01 5a3f
000000b0: def1 6fbf 15eb c7bd e4af d0bd c488 1ebf
000000c0: 0859 dd40 07c9 2e40 4d5a ac40 da5c 9640
000000d0: e3b2 9140 d635 3740 8cc9 5fbe 0902 4abe
000000e0: cc6b a43e be9c 593c 5b83 42be 5c64 573e
000000f0: 49b6 8440 fdd0 e23f 0fa7 41be 2003 33c0
00000100: 0a4a d63e 23cb 8f40 2d61 52bc 3a7e e1be
00000110: 90ff c0bd ebf4 6e3d 36c0 07bf 78af 553e
00000120: fabd 9c40 010a 9340 de8b b840 657a c740
00000130: a97e 0b40 82f0 58c0 5086 953d b44c e83d
00000140: 72ee c8be ed37 a03b 96c2 cabd 0ede 25be
00000150: 7fe4 eabf 5a8c 813f 5ded c2bf af90 043f
00000160: f21e 03be 69e4 1d3f 6cb8 023e 3e28 c8be
00000170: 43c9 cb3e f8f3 dbbe a52a 84bd 5689 783b
00000180: 3146 8cc0 5d3e c8c0 1c0d c7bf e21b b3c0
00000190: 479c 84c0 5ded b1bf 6fa4 44bd 8b4f e5bd
000001a0: ae03 1c3d cc2f a63d 8133 a8be 0b29 7b3e
000001b0: 8c45 11c0 2812 8cc0 53f0 bfc0 50b4 f23f
000001c0: a145 cdc0 340f dbbf fc6a 03be 6405 0bbe
000001d0: 7317 d0bb dedb 233d 6f13 16be a909 d53d
000001e0: d6e0 573f 5460 583e 19e7 a7bd 27f2 29bf
000001f0: 493b 773f eeb3 0b3f deb8 c63c ca8f 80bd
00000200: 9b17 acbe 5e55 083f f272 20bf 3e77 d13d
00000210: 8f61 17c0 8498 bd40 efc5 98c0 fa37 9c40
00000220: 4a1d 8b40 4f35 a640 78d5 b5bd 9974 d6be
00000230: b7d3 a5bd dca1 5ebd 652b 303d 0c1e 9d3d
00000240: 689f 85c0 0d3e 52c0 71aa 7540 8124 b83e
00000250: 94dc a7be 456f fd3e be2a c23d 8b78 683e
00000260: 38e1 a3be e0d0 26be 9b37 6ebd 39a5 7fbe
00000270: ebd8 1040 b07e 9f40 bd6e b940 37a6 6140
00000280: 1e7f b040 c520 ae40 be9f a4be 3b0b df3d
00000290: 3579 91be 6f20 703d 225c b9bd 3a38 65be
000002a0: c032 c3bf e9ac 83c0 478f b6bf b7e7 adc0
000002b0: cf50 b9c0 262c b4c0 8a9c 06bd 58d9 05bf
000002c0: fb3c 8b3e be03 bfbd 1a2f 143e 7e89 3c3e
000002d0: 029c c840 f3c9 a840 7992 5d40 c9ee cabf
000002e0: 16fe 5240 4521 9040 03dc 36be 606c 0e3e
000002f0: 8a55 a93e f760 a5bd 7579 e23d 8b44 573d
00000300: 3157 c040 49bd 1d40 430b fb3f 4887 be40
00000310: 80ca d640 06bf 7540 f478 e73d 8cd7 54be
00000320: 67de 5e3e 2c81 d5bd 8938 893d 62e4 273e
00000330: 2095 82c0 259b 18c0 2a35 61c0 a856 80c0
00000340: 0b81 59c0 bd0e aac0 5305 4bbe 7703 debe
00000350: f80e 013f f414 9cbe d8b1 59be 33a5 bf3e
00000360: 0144 5f40 e878 1b3e 5f7c d5bf 153d a0bf
00000370: 220f 0b40 e4b8 4240 7e96 733e fed9 b13d
00000380: 5b99 cfbe c0de dd3e 330e dc3b 0f56 82bd
00000390: c39d 19be 0807 b740 3f4c ac40 9121 8940
000003a0: 43c4 693f 06cd b840 8b34 3cbd d99f 54bd
000003b0: b26f 8e3e 02eb 10be 1692 37be 21d3 6d3e
000003c0: 1430 a640 fad5 6cc0 554f f0be 8923 3dbc
000003d0: 5286 c1bf dbe8 1940 1418 67be 40d8 703e
000003e0: 4af4 1cbd 5490 59be 4480 da3b a967 a1be
000003f0: bff9 b2c0 0522 89c0 4d13 8ac0 97e6 9cc0

fc1.bias f4 [24]
0.24940546 -0.28680408 -0.1400259 -0.5292644 -0.1621067 0.24626435 0.25678697 0.27322438
-0.112772025 -0.26490903 -0.4992495 0.20894377 -0.1710242 -0.4497645 0.054763705 0.080222346
0.110186666 0.045304216 -0.090629235 0.044241678 -0.045440543 -0.14359628 -0.32266983 -0.015977401
00000000: 2564 7f3e fcd7 92be f362 0fbe df7d 07bf
00000010: 4cff 25be b92c 7c3e 9579 833e 11e4 8b3e
00000020: 05f5 e6bd 28a2 87be a19d ffbe 5bf5 553e
00000030: f820 2fbe 8847 e6be e84f 603d 9d4b a43d
00000040: 8ca9 e13d ea90 393d d29b b9bd c336 353d
00000050: dd1f 3abd e70a 13be fb34 a5be 0ae3 82bc

fc2.weight f4 [12, 24]
-0.4671425 0.74855596 -0.3418497 -0.5760737 1.0734482 -0.62068075 0.168914 0.27014008
0.9780973 0.31505165 0.18295392 -0.23659167 0.12382882 -0.26601973 -0.5073986 0.23164347
0.13550997 0.00016359928 0.1583586 -0.8786622 0.16437246 -0.19254217 -0.43216217 0.043273926
0.18469678 0.2946264 -0.104177274 0.024309205 -0.25218433 -0.21073322 0.31199294 0.04614539
0.4168828 -0.46584028 0.24832623 -0.12957242 0.115818754 0.2663251 0.53198946 -0.39286423
0.14194974 -0.2744495 -0.044970557 0.45864493 0.2305368 0.23261003 0.27707002 -0.30478445
0.094968624 1.4570132 -0.53276217 0.54547584 2.2900786 -0.5879308 3.9431808 0.15036759
-1.8042061 -2.8352778 0.36918977 1.366449 -1.1841544 2.5835178 -2.8852277 0.23622388
5.0198884 -0.2247709 -0.45214882 0.84521085 -2.560622 1.464795 0.6857242 -0.7221888
0.77751017 0.95547664 -0.013497004 0.71206737 0.15323089 0.63878006 0.58326197 0.4605044
-1.3926188 -1.0704495 0.13126817 2.1367638 0.2965863 3.2052174 -2.2391057 0.55612695
-0.1573196 -0.9761828 -0.60385793 5.0075397 -1.7952737 -3.3907802 -0.5270457 -1.1285452
0.14112061 -0.42492494 0.5690277 0.68904275 0.53777647 0.32177347 0.033343125 0.13205576
-0.67509025 -0.2199766 0.09177838 -0.40114203 -0.5885632 -0.31152633 1.0049273 0.53270376
-0.89501595 -0.5140684 -0.3893682 1.0347621 0.09158277 0.1710641 -0.07825004 0.5068599
0.074353166 -1.6988287 1.739821 0.083003245 -3.6950035 -0.6903577 -1.9647331 1.123766
0.61946267 4.4967213 -0.53434205 1.1087571 0.094670534 -2.8103197 -0.24544267 -2.284661
-1.1080353 0.8108087 -1.3229411 -4.0623593 -0.8781896 3.3891106 1.339983 -0.6504405
-0.058236986 -0.025436135 -1.0917339 -0.20338275 -1.7609099 0.26294434 0.8244781 -0.43846267
0.89744955 1.7040725 0.30775562 -0.7842222 -1.384888 -2.6889422 2.497131 0.5969611
-3.955619 1.2614577 -0.7385167 -3.0886993 -0.25823528 1.6515492 2.44779 2.824521
0.5517445 0.2162045 -0.109470926 0.19571057 -3.386787 0.2507785 -3.9750128 0.37521982
1.3980706 -2.165305 -0.07038354 0.3009943 0.06209131 -1.8110799 0.9976722 0.37573493
-4.541613 0.8186217 -0.082490765 -2.4877481 -1.2016509 4.08118 0.4475408 1.6065757
0.206979 0.74930924 1.5589398 0.1107627 -0.81355315 -1.6642824 0.747098 -0.6821479
1.8116202 -0.3611532 -0.28362522 -2.2291014 1.2201372 -2.9473624 3.3009017 -2.09233
-5.2201266 1.0719538 -3.0262556 -2.059058 -1.7182567 2.2962334 -0.9461689 -0.5583404
0.59634316 0.025526304 0.9194614 0.26595172 -3.2968392 -0.5756657 0.5595046 -0.048397772
0.18622833 4.3410053 -0.3826138 0.52293515 -0.43940476 -2.0923223 2.4556723 -0.9847947
-5.281098 1.4820716 -1.8051654 0.04566603 -0.9532561 -0.86829954 1.9686725 2.1915383
-0.4300734 1.1217265 0.9920026 0.55411744 0.34583652 -0.28693435 1.7148992 -0.20147228
-1.0593367 -1.2141956 -0.14036798 -0.25414526 -0.768577 0.09164965 0.49896243 0.16738474
00000000: 4d2d efbe 5da1 3f3f ed06 afbe 9179 13bf
00000010: c066 893f efe4 1ebf cbf7 2c3e cd4f 8a3e
00000020: 9664 7a3f 734e a13e 4658 3b3e 1645 72be
00000030: f799 fd3d bd33 88be e0e4 01bf f233 6d3e
00000040: 20c3 0a3e d98b 2b39 c228 223e 02f0 60bf
00000050: 4151 283e c629 45be 5c44 ddbe 0040 313d
00000060: 2721 3d3e 46d9 963e e55a d5bd 1924 c73c
00000070: 4e1e 81be 73ca 57be 8abd 9f3e f302 3d3d
00000080: aa71 d53e 9e82 eebe 3b49 7e3e a2ae 04be
00000090: 6232 ed3d c35b 883e 7630 083f 8025 c9be
000000a0: 465b 113e a584 8cbe 0c33 38bd 82d3 ea3e
000000b0: d711 6c3e 5331 6e3e 1fdc 8d3e b50c 9cbe
000000c0: e97e c23d 697f ba3f 1a63 08bf 4ea4 0b3f
000000d0: a690 1240 a282 16bf 135d 7c40 f6f9 193e
000000e0: 3af0 e6bf 3175 35c0 7106 bd3e cde7 ae3f
000000f0: 5f92 97bf 5b58 2540 92a7 38c0 ace4 713e
00000100: eda2 a040 582a 66be 0d80 e7be bd5f 583f
00000110: 3be1 23c0 677e bb3f 9f8b 2f3f 5de1 38bf
00000120: e80a 473f 1e9a 743f 8a22 5dbc 0c4a 363f
00000130: 8fe8 1c3e 1787 233f a850 153f 3cc7 eb3e
00000140: 5541 b2bf 7d04 89bf 2a6b 063e bdc0 0840
00000150: 29da 973e 4822 4d40 824d 0fc0 565e 0e3f
00000160: 6418 21be 1ee7 79bf 6f96 1abf c43d a040
00000170: 87cb e5bf 8b02 59c0 78ec 06bf 2b74 90bf
00000180: ec81 103e c38f d9be cdab 113f 1b65 303f
00000190: b8ab 093f 7ebf a43e cd92 083d a039 073e
000001a0: b7d2 2cbf 8c41 61be 4ef6 bb3d 7d62 cdbe
000001b0: 14ac 16bf 6180 9fbe 75a1 803f 465f 083f
000001c0: c41f 65bf fd99 03bf 455b c7be 1673 843f
000001d0: bf8f bb3d 6d2b 2f3e 8f41 a0bd 92c1 013f
000001e0: 7946 983d 3873 d9bf 74b2 de3f 9bfd a93d
000001f0: f07a 6cc0 48bb 30bf 607c fbbf 90d7 8f3f
00000200: 1b95 1e3f 24e5 8f40 a4ca 08bf c1eb 8d3f
00000210: a0e2 c13d 47dc 33c0 5355 7bbe e337 12c0
00000220: 1ad4 8dbf 2991 4f3f 2256 a9bf d9fe 81c0
00000230: 09d1 60bf 30e7 5840 9084 ab3f 4583 26bf
00000240: e889 6ebd 715f d0bc f0bd 8bbf 9143 50be
00000250: 7f65 e1bf a4a0 863e ff10 533f 2e7e e0be
00000260: 41bf 653f 0c1f da3f 2592 9d3e c9c2 48bf
00000270: 0344 b1bf a117 2cc0 ffd0 1f40 71d2 183f
00000280: dd28 7dc0 7277 a13f 6e0f 3dbf 40ad 45c0
00000290: 6a37 84be f765 d33f 97a8 1c40 f4c4 3440
000002a0: 213f 0d3f b664 5d3e 4b32 e0bd 5a68 483e
000002b0: 1ec1 58c0 0a66 803e 9c66 7ec0 d01c c03e
000002c0: faf3 b23f 5b94 0ac0 3f25 90bd ed1b 9a3e
000002d0: 7553 7e3d 77d1 e7bf 7267 7f3f 5460 c03e
000002e0: e554 91c0 3191 513f ebf0 a8bd 4437 1fc0
000002f0: b2cf 99bf 0799 8240 1124 e53e 46a4 cd3f
00000300: 4ef2 533e bbd2 3f3f 578b c73f 8ed7 e23d
00000310: 0545 50bf 3507 d5bf d141 3f3f 3fa1 2ebf
00000320: 2ce3 e73f 12e9 b8be 5337 91be 99a9 0ec0
00000330: 752d 9c3f 96a1 3cc0 f941 5340 bce8 05c0
00000340: 470b a7c0 c835 893f 2cae 41c0 9bc7 03c0
00000350: d6ef dbbf 7df5 1240 2038 72bf 65ef 0ebf
00000360: f2a9 183f 8a1c d13c d361 6b3f d32a 883e
00000370: 6aff 52c0 d45e 13bf b23b 0f3f be3c 46bd
00000380: a4b2 3e3e 84e9 8a40 f5e5 c3be 14df 053f
00000390: a9f9 e0be 9ce8 05c0 bc29 1d40 811b 7cbf
000003a0: c1fe a8c0 86b4 bd3f a90f e7bf 4e0c 3b3d
000003b0: 9708 74bf e148 5ebf 76fd fb3f 2a42 0c40
000003c0: 9532 dcbe bc94 8f3f e2f3 7d3f a4da 0d3f
000003d0: 7c11 b13e 0fe9 92be d181 db3f c04e 4ebe
000003e0: 5898 87bf c36a 9bbf a0bc 0fbe 541f 82be
000003f0: 76c1 44bf d0b2 bb3d 0178 ff3e e866 2b3e

fc2.bias f4 [12]
0.52148515 0.02269471 -0.06689982 0.04285425 0.31185257 0.26130015 -0.24362186 -0.013231596
0.10092594 0.15097812 0.80795145 0.32092965
00000000: 0d80 053f 42ea b93c c602 89bd f087 2f3d
00000010: 24ab 9f3e 22c9 853e 0278 79be 56c9 58bc
00000020: 42b2 ce3d 029a 1a3e e8d5 4e3f e450 a43e

fc3.weight f4 [6, 12]
0.78937197 -1.2254539 -0.6414095 -2.5076756 0.4680443 -0.8271703 1.9512324 -1.6626705
-1.1411949 -0.59093666 0.070262104 0.035965353 -0.86186796 -0.2880179 1.4418553 1.7516977
0.2743429 -1.106995 1.8661218 1.7286352 -1.0211447 2.1687028 0.1645681 0.08047893
0.19563942 1.3538648 -0.43106338 0.11583952 0.2658839 -2.0680273 -1.149814 -0.28179514
3.441098 0.11666349 -0.08806717 0.16784981 -0.10572682 -0.11240303 0.8269539 -0.013928394
0.34262645 2.549546 -0.93899655 -3.0457737 0.3264483 1.4155259 -0.024455672 -1.125574
0.08225023 0.059408903 2.1781943 -1.2170542 -1.3639171 1.1023633 -0.8628771 2.464413
0.11276923 -1.9611955 0.5026386 0.6963831 -0.0026043092 0.0068264687 -3.347886 1.2107524
0.11443941 0.073985696 -1.7859327 1.153768 -1.7515358 -0.28117576 -0.6947966 0.04770879
00000000: 4814 4a3f acdb 9cbf 6a33 24bf c27d 20c0
00000010: 81a3 ef3e 6fc1 53bf fcc1 f93f 63d2 d4bf
00000020: ad12 92bf a047 17bf 94e5 8f3d 6850 133d
00000030: 61a3 5cbf 1577 93be b78e b83f a137 e03f
00000040: ac76 8c3e 03b2 8dbf 14dd ee3f eb43 dd3f
00000050: dfb4 82bf 07cc 0a40 8a84 283e 23d2 a43d
00000060: b355 483e 714b ad3f 57b4 dcbe 453d ed3d
00000070: ef21 883e 8f5a 04c0 1b2d 93bf 7447 90be
00000080: f33a 5c40 45ed ee3d 8f5c b4bd d2e0 2b3e
00000090: 4e87 d8bd 8f33 e6bd 40b3 533f eb33 64bc
000000a0: bc6c af3e c32b 2340 1462 70bf f5ed 42c0
000000b0: 3b24 a73e f42f b53f 4357 c8bc cf12 90bf
000000c0: cf72 a83d c056 733d 8967 0b40 6fc8 9bbf
000000d0: d694 aebf 3e1a 8d3f 83e5 5cbf f1b8 1d40
000000e0: 8ef3 e63d 7408 fbbf ecac 003f 2a46 323f
000000f0: 0fad 2abb 92b0 df3b c443 56c0 eff9 9a3f
00000100: 365f ea3d d085 973d 7199 e4bf abae 933f
00000110: 5332 e0bf 45f6 8fbe 31de 31bf 4b6a 433d

fc3.bias f4 [6]
0.33896813 0.33950958 0.5956932 0.31908712 0.005222117 0.074603036
00000000: 3b8d ad3e 33d4 ad3e 597f 183f 635f a33e
00000010: 4b1e ab3b 7ac9 983d
