LIAR Unchanged/TunedModels/bert/bert-base-cased/NNetwork/Tanh_MSE_adam4801.pth (torch_old, 49951 bytes, 6 tensors)

fc1.weight f4 [120, 12]
0	0x3f041c20	0.51605415
1	0xbf1cc55c	-0.61238647
2	0x3e0e2070	0.13879561
3	0xbdc72b86	-0.09725098
4	0x3f9c7046	1.2221763
5	0x3fb50e24	1.414494
6	0x3e46c5b2	0.19411352
7	0x3df05acc	0.11736068
8	0xbe885882	-0.26630026
9	0xbe16a4c4	-0.1471129
10	0x3e5a69e8	0.21329463
11	0x3e3a86af	0.1821544
12	0xbf951939	-1.1648322
13	0x3f17a2f8	0.59233046
14	0x3f479a1f	0.77969545
15	0xbe6e044f	-0.23243831
16	0xbf77bae0	-0.96769524
17	0xbf067339	-0.52519566
18	0x3e42fdf9	0.19042195
19	0xbf238812	-0.638795
20	0x3ec9f912	0.39447838
21	0x3d3fead7	0.04685482
22	0x3c17ad27	0.009257591
23	0x3e2e08da	0.16995564
24	0xbf820fb0	-1.0161037
25	0x3e902cbd	0.28159133
26	0xbfc57c87	-1.5428628
27	0xbd9831d8	-0.07431382
28	0x3d073d77	0.0330176
29	0xbecd9e13	-0.40159664
30	0x3e90f8f0	0.28314924
31	0xbe86af8a	-0.263058
32	0x3e91e326	0.28493613
33	0x3daabda5	0.08336953
34	0x3e21ad88	0.15788853
35	0x3ea885ff	0.3291473
36	0x3dc11dc8	0.094295084
37	0xbf4cfa83	-0.8006975
38	0xbec19ef3	-0.3781658
39	0xbf6a9e18	-0.9164748
40	0xbe6f8120	-0.23389101
41	0x3f43ef7a	0.7653729
42	0x3e9c61e5	0.30543438
43	0x3dac9c75	0.08428279
44	0xbe8ec657	-0.27885696
45	0x3dae51f6	0.085117266
46	0xbe5ecab1	-0.21757008
47	0x3eea8223	0.4580241
48	0xbe2b1a50	-0.16709256
49	0x3f182ff0	0.59448147
50	0x3fdeff12	1.7421591
51	0x3f0780c7	0.52930874
52	0xbf70d92a	-0.94081366
53	0xbe083e1d	-0.13304944
54	0x3e0b1ae3	0.13584475
55	0x3e3fc8b6	0.18728909
56	0x3c25e3aa	0.01012508
57	0x3e95c2f7	0.2925031
58	0xbdfd0ae9	-0.123555966
59	0x3e72100c	0.23638934
60	0xbfdc1239	-1.7193061
61	0x3e86ddad	0.26341
62	0xbf633296	-0.88749063
63	0xbe4285bb	-0.18996327
64	0xbf657246	-0.8962749
65	0xbf77f6ef	-0.96861166
66	0xbd83637a	-0.06415458
67	0x3c1a0c9f	0.009402423
68	0x3e6cef32	0.23138121
69	0xbdebf6ca	-0.11521681
70	0x3e670f59	0.22564448
71	0x3c803cd3	0.015654003
72	0x3e635d85	0.22203644
73	0x3f51bf5e	0.8193263
74	0xbf3c4863	-0.73547953
75	0x3f72d36a	0.9485384
76	0xbf33869f	-0.7012729
77	0x3ef3b1a3	0.47596464
78	0xbda20e38	-0.07912868
79	0x3e917a24	0.28413498
80	0x3dbcce5d	0.09219048
81	0xbd4a384d	-0.0493701
82	0x3e831d3c	0.25608242
83	0x3db9591a	0.09050198
84	0xbe60793d	-0.21921249
85	0xbf8cc70c	-1.0998244
86	0xbf5b324f	-0.8562364
87	0xbf673424	-0.90313935
88	0xbf4b4f53	-0.79417914
89	0xbf5a3708	-0.8524022
90	0xbd82a884	-0.06379798
91	0x3ea7a8a8	0.32745862
92	0xbd7f2d50	-0.062299073
93	0x3dd86681	0.10566426
94	0xbe6ac51e	-0.22926757
95	0x3e105ba5	0.1409746
96	0xbd862b8b	-0.06551274
97	0xbf6637b1	-0.8992873
98	0xbfb57683	-1.4176792
99	0xbd2470e1	-0.040146712
100	0xbe70abbb	-0.2350301
101	0xbf0ea1f3	-0.55715865
102	0xbe216160	-0.15759802
103	0x3c9d8a32	0.019230936
104	0xbd090b58	-0.033458084
105	0x3c5c051d	0.0134289535
106	0x3dc1379d	0.094344355
107	0xbc69a2ca	-0.014260003
108	0x3fe23469	1.7672244
109	0xbf1f748a	-0.622872
110	0x3e7d366a	0.24727789
111	0xbff69af5	-1.9266039
112	0xbfd1f96a	-1.640424
113	0xbf94e814	-1.1633325
114	0x3d353cc0	0.04424739
115	0x3d5448ca	0.05182723
116	0x3d14ca21	0.036325578
117	0x3e3029e6	0.17203483
118	0xbd9786b0	-0.073987365
119	0xbb689a64	-0.0035492415
120	0x3e831d84	0.25608456
121	0x3d31ac4c	0.043377206
122	0x3e02e9f6	0.12784562
123	0xbe698971	-0.22806336
124	0xbe8dd7de	-0.27703756
125	0xbddcce1a	-0.10781498
126	0x3e64fec3	0.22362809
127	0xbc45fa58	-0.012083612
128	0x3e733e88	0.23754323
129	0x3e5ef814	0.21774322
130	0x3e314812	0.17312649
131	0x3d2ac429	0.04169098
132	0xbfa31398	-1.2740355
133	0xbf8f8da5	-1.1215101
134	0x3faf331a	1.368747
135	0x3ecc1d6e	0.39866203
136	0x3dfa1d29	0.12212593
137	0xbf46c433	-0.77643126
138	0x3e31528c	0.17316645
139	0xbc51a085	-0.0127946185
140	0x3c8c1b35	0.017102817
141	0xbdfced79	-0.12349982
142	0x3e612c81	0.21989633
143	0xbea920e4	-0.33032906
144	0x3f8fe1e3	1.124081
145	0x3f73c2f9	0.9521938
146	0xbd646c71	-0.05576748
147	0xbd3443af	-0.04400986
148	0x3f5733b4	0.8406327
149	0x3fda2c1c	1.7044711
150	0xbd59c9be	-0.053170912
151	0x3d88229e	0.06647228
152	0xbeb077b1	-0.34466317
153	0xbe09d90a	-0.134617
154	0x3ddc8d3d	0.107691266
155	0xbe942056	-0.2893092
156	0xbfd8bb39	-1.6932136
157	0x3ec664e3	0.38748845
158	0xbf88494b	-1.0647367
159	0xbfcbffbd	-1.593742
160	0xbe7b9c0e	-0.24571249
161	0x3f3d8bd1	0.7404147
162	0x3e1961ef	0.14978765
163	0xbd621ecc	-0.05520515
164	0x3e69009a	0.22754136
165	0x3e96024b	0.29298624
166	0x3e45ac62	0.1930404
167	0xbe1cd8f5	-0.15317138
168	0x3f8c9458	1.0982771
169	0xbc9a34e2	-0.018824045
170	0xbea36ab6	-0.3191735
171	0x3f046403	0.51715106
172	0xbef8eb4f	-0.48617026
173	0xbeedf509	-0.4647601
174	0x3eaa4438	0.33255172
175	0xbc3de4a4	-0.011590157
176	0xbdc9b600	-0.09849167
177	0xbe26b4de	-0.16279933
178	0x3e0fa69d	0.14028402
179	0xbe4df150	-0.20111585
180	0xbf839f7b	-1.0283045
181	0x3e7ba1bf	0.2457342
182	0xbf69ce6f	-0.9133062
183	0xbf4d1846	-0.80115163
184	0xbc08a2b1	-0.00833957
185	0xbe84ecdc	-0.2596196
186	0x3e2c9583	0.16853909
187	0xbe831716	-0.2560355
188	0xbc85489c	-0.016269974
189	0xbe3c793f	-0.18405627
190	0xbd482a7d	-0.048868645
191	0xbccf9d55	-0.025343576
192	0xbfaf606b	-1.37013
193	0xbf641324	-0.89091706
194	0xbfcfa511	-1.6222249
195	0xbfd21f5a	-1.6415818
196	0xbfd7c8ac	-1.6858115
197	0x3f3548ba	0.70814097
198	0xbc33ab8a	-0.010966191
199	0xbdcf708f	-0.10128891
200	0xbd2e572a	-0.042563595
201	0x3dd117ad	0.10209594
202	0xbd6806ea	-0.05664722
203	0x3e1fa3a1	0.15589763
204	0xbf9b2c8c	-1.212297
205	0x3e9a5d48	0.30149293
206	0x3d8d23f5	0.06891624
207	0xbf21f5bb	-0.6326558
208	0xbf8b1077	-1.08644
209	0x3e492b32	0.19645384
210	0x3e2e546c	0.17024392
211	0x3e713221	0.23554279
212	0xbea7290a	-0.32648498
213	0x3e4b9827	0.1988226
214	0x3e0021b9	0.12512864
215	0xbe485417	-0.19563328
216	0xbfab5674	-1.3385758
217	0xbec3a600	-0.38212585
218	0x3f77042c	0.9649074
219	0xbf92fb02	-1.1482852
220	0xbf56bae3	-0.83878917
221	0xbf0ec776	-0.55773103
222	0xbd12e3f5	-0.035861928
223	0xbdd1bfe1	-0.10241676
224	0xbdd7ae17	-0.10531252
225	0x3e7f4c0e	0.24931356
226	0xbd07522c	-0.03303735
227	0x3eb98c9c	0.3624009
228	0x3cb8fc07	0.022581114
229	0xbf31dcb7	-0.6947741
230	0x3f1d0f33	0.6135132
231	0x3f298308	0.6621556
232	0x3fa0c9cb	1.2561582
233	0xbf06b8b1	-0.52625567
234	0xbd9ee183	-0.07757857
235	0xbcdfa5b3	-0.027300691
236	0x3e1deddf	0.15422772
237	0x3e427c35	0.18992694
238	0x3e2be14f	0.16785167
239	0xbe3b9839	-0.18319787
240	0xbf9d360b	-1.2282118
241	0xbf5b1f96	-0.8559507
242	0x3f821f9a	1.0165894
243	0x3f2dbb6e	0.6786412
244	0x3f279e77	0.65476173
245	0x3e3eca2e	0.18631813
246	0x3e84b89d	0.259221
247	0x3d0dedc0	0.034650564
248	0x3ee2ebf5	0.44320646
249	0xbdfbd0ff	-0.12295722
250	0x3d0cad82	0.034345157
251	0xbee561f3	-0.44801292
252	0x3e88c738	0.26714492
253	0x3f70b9be	0.9403342
254	0x3d905637	0.07047694
255	0x3f92301b	1.1420931

fc1.bias f4 [120]
0	0x3e0a5146	0.13507566
1	0xbe472039	-0.19445886
2	0x3e16cd64	0.14726788
3	0xbe0dd971	-0.13852479
4	0x3deebab5	0.11656705
5	0xbe59461a	-0.21218148
6	0xbe78eba7	-0.24308644
7	0xbe1dcf0b	-0.15411012
8	0x3c44d945	0.012014692
9	0x3c3e0b3b	0.011599357
10	0xbe0e94bc	-0.13923925
11	0x3e066b98	0.13126981
12	0x3dfaeded	0.12252412
13	0xbdfd5a70	-0.12370765
14	0xbe39bbf2	-0.18138102
15	0xbdc4c646	-0.0960813
16	0xbdf64fbc	-0.12026927
17	0xbe658fde	-0.22418162
18	0x3dce212b	0.1006492
19	0xbb7e309f	-0.0038786305
20	0xbded984c	-0.11601314
21	0x3aa59e16	0.0012635614
22	0xbe1aef00	-0.15130234
23	0x3e77d015	0.24200471
24	0x3dea027c	0.11426255
25	0xbd4606e5	-0.04834642
26	0x3e0aaace	0.1354172
27	0x3e88937a	0.26675016
28	0xbc78b772	-0.0151804555
29	0xbe83e983	-0.25764093
30	0x3aec09e0	0.0018008314
31	0x3db8cab8	0.090230405
32	0x3da79c03	0.08184054
33	0x3cd818a1	0.026378931
34	0xbe4b7c46	-0.19871625
35	0xbde27f14	-0.110593945
36	0xbe5b12e6	-0.21393928
37	0xbe1abb7e	-0.15110585
38	0x3e9004f7	0.28128788
39	0xbe8c353c	-0.27384365
40	0x3de82737	0.11335605
41	0x3e0881a9	0.13330711
42	0xbe65daa5	-0.22446688
43	0xbe5df855	-0.21676762
44	0x3e2f924d	0.17145653
45	0x3e901f81	0.28149036
46	0xbe7a1667	-0.24422608
47	0x3d60d4dc	0.0548905
48	0x3d9aa455	0.07550875
49	0x3e6215a6	0.2207857
50	0xbe919daf	-0.28440616
51	0x3d55f67b	0.052237015
52	0x3e1d8af8	0.15385044
53	0xbc3d8360	-0.011566967
54	0x3cea5f9a	0.02861004
55	0xbda4121c	-0.080112666
56	0xbda507d0	-0.08058131
57	0x3e8d4340	0.2759037
58	0x3e329fb5	0.17443736
59	0xbe6896e8	-0.22713816
60	0x3d0ff063	0.03514136
61	0xbd36534b	-0.044513028
62	0xbe378817	-0.17923008
63	0x3e80261b	0.25029072
64	0xbe2540b9	-0.16137971
65	0xbd8c1a4d	-0.06840954
66	0x3dfe57a8	0.12419063
67	0x3e0ae7ee	0.13565037
68	0x3e181a75	0.14853843
69	0x3d4859be	0.04891371
70	0x3e4bc4a0	0.19899225
71	0xbe16066a	-0.14650884
72	0x3d9c15b2	0.076213256
73	0x3c27230a	0.010201225
74	0xbe7de1fd	-0.24793239
75	0xbe2c129b	-0.16803972
76	0xbda9d99b	-0.08293458
77	0x3e33d576	0.17561898
78	0xbdf1c34a	-0.118048266
79	0xbe273882	-0.1633015
80	0x3d08c907	0.03339484
81	0xbdeee4cd	-0.11664734
82	0xbe4c521e	-0.199532
83	0xbe5f078f	-0.21780227
84	0xbe037ced	-0.12840624
85	0x3e1e7c8c	0.15477198
86	0x3e48522a	0.19562593
87	0xbe22e772	-0.15908602
88	0x3c550736	0.0130022075
89	0xbe80065f	-0.2500486
90	0x3e50d7cf	0.20394824
91	0xbe622144	-0.22083002
92	0xbdb94476	-0.09046261
93	0x3b725a80	0.0036980212
94	0x3e5b4bcd	0.21415634
95	0x3e016681	0.12636758
96	0xbe523c96	-0.20530924
97	0xbd07cf7f	-0.033156868
98	0xba6d9ed6	-0.0009064501
99	0xbdc5a230	-0.096500754
100	0xbda86b07	-0.08223539
101	0xbf148c5e	-0.58026683
102	0x3e5d29af	0.21597932
103	0x3df15085	0.11782936
104	0xbe02db37	-0.12778936
105	0x3c976fca	0.018485922
106	0xbe843016	-0.25817937
107	0x3d76f84a	0.06029538
108	0x3cd71b7a	0.026258219
109	0xbd21b7f2	-0.039482065
110	0x3e208e5b	0.15679304
111	0xbdc03c5d	-0.093865134
112	0xbe410e74	-0.1885317
113	0x3d142893	0.036171507
114	0x3cc7028b	0.024293205
115	0xbe771ebf	-0.24132822
116	0xbe8d4237	-0.2758958
117	0x3d1d337c	0.038379177
118	0xbde6b2cc	-0.112645715
119	0x3e06a4f2	0.13148859

fc2.weight f4 [84, 120]
0	0xbd5b9e26	-0.05361762
1	0xbd021fb9	-0.031768534
2	0xbe363fce	-0.17797777
3	0x3c967f1a	0.018371154
4	0x3d6d5e5e	0.057951324
5	0x3db83f04	0.08996394
6	0x3d37ec34	0.044902995
7	0xbd3dc447	-0.046329763
8	0x3d664282	0.05621577
9	0xbd6c8351	-0.05774242
10	0x3cae312d	0.021263683
11	0xbd21d53b	-0.039509993
12	0x3c9493c3	0.018136865
13	0xbbed7123	-0.007246153
14	0x3dc9b1a6	0.09848337
15	0xbdab110d	-0.083528616
16	0xbc46d88b	-0.012136589
17	0x3d84039c	0.06446001
18	0xbca24996	-0.01981048
19	0x3c7df676	0.015500655
20	0x3d888532	0.0666603
21	0x3d5bce7e	0.053663723
22	0xbd212beb	-0.039348524
23	0x3df9fe46	0.12206702
24	0x3bfcf492	0.0077195847
25	0xbc82bf0b	-0.015960237
26	0x3d11e03f	0.03561425
27	0x3c6d496e	0.014482839
28	0xbdb0e24b	-0.08636912
29	0xbcf3f3bb	-0.029779306
30	0xbd06686a	-0.03281442
31	0xbd140ad0	-0.036143124
32	0xbde53d33	-0.111933134
33	0x3d0fea2d	0.035135437
34	0x3e0cf92f	0.13766931
35	0xbd0cc052	-0.0343631
36	0xbe15a490	-0.14613557
37	0xbdbcacf1	-0.092126735
38	0xbd4ed65f	-0.05049741
39	0x3df73713	0.120710514
40	0xbd377033	-0.044784736
41	0xbd1166a7	-0.035498288
42	0x3d99aac2	0.075032726
43	0x3d7cef0b	0.061751407
44	0x3d22cd17	0.03974637
45	0xbd98caf7	-0.074605875
46	0xbd2d7d0b	-0.04235558
47	0x3d6db9c1	0.058038477
48	0xbd8c8d1a	-0.068628505
49	0xbd8d23fe	-0.068916306
50	0x3d463acc	0.048395917
51	0x3c056881	0.008142591
52	0xbe09555f	-0.13411473
53	0x3ce8d9cf	0.028424172
54	0x3ddc047a	0.10743041
55	0xbd2ecb90	-0.0426746
56	0x3d8ed4a6	0.06974153
57	0x3d836fcd	0.06417809
58	0xbcf1d30b	-0.029519578
59	0xbcc6138a	-0.024179239
60	0xbcc8b21f	-0.024498997
61	0xbd1a5af4	-0.037684396
62	0x3ce67a83	0.02813459
63	0x3b56922b	0.0032740931
64	0x3ccd73e5	0.025079677
65	0x3d5d040d	0.05395894
66	0x3d9fe341	0.07807017
67	0xbd17d138	-0.03706476
68	0xbd5be34e	-0.05368357
69	0xbdb7b434	-0.08969918
70	0x3ba04dcd	0.004892087
71	0xbcb797fa	-0.022411335
72	0x3d439693	0.04775102
73	0x3da29c94	0.07940021
74	0xbe0e49a4	-0.13895279
75	0xbd2706ce	-0.040777974
76	0x3c8542b3	0.016267156
77	0x39d19a68	0.00039978628
78	0xbd40d06e	-0.047073774
79	0x3d11da87	0.035608795
80	0x3d4bd00f	0.049758967
81	0xbd3a684e	-0.04550963
82	0x3d15168e	0.036398463
83	0x3bd19c63	0.0063968166
84	0xbd2624cd	-0.04056244
85	0x3d258c25	0.040416855
86	0xbb9b3eeb	-0.004737725
87	0x3d5d5a59	0.05404124
88	0x3c77c88e	0.0151235
89	0xbd8fdd2a	-0.070246056
90	0x3d2892ed	0.041155744
91	0xbda90344	-0.08252576
92	0xbd9e1a48	-0.077198565
93	0x3beae6a8	0.0071686096
94	0xbd5b8dcc	-0.053602025
95	0x3cafbe72	0.021453116
96	0xbc40b7b1	-0.011762545
97	0x3c2b9d6a	0.010474542
98	0xbd7f86c0	-0.062384367
99	0x3d662fa2	0.05619777
100	0xbc90b1b3	-0.017662859
101	0x3d1b6609	0.037939105
102	0x3d320b1c	0.043467626
103	0x3d8c5f83	0.06854155
104	0x3d57b5f7	0.05266377
105	0xbd7f8ce4	-0.062390223
106	0x3ceca67a	0.028887976
107	0xbd9c7ac4	-0.07640603
108	0xbd11f22c	-0.035631344
109	0x3d4a4db5	0.049390513
110	0xbd6980bb	-0.057007533
111	0xbd79f419	-0.061023805
112	0xbd86cc71	-0.06581963
113	0xbd893fa9	-0.06701595
114	0x3c2ab190	0.010418311
115	0xbc86cb93	-0.016454494
116	0x3a8da385	0.0010806179
117	0x3d3e8a04	0.04651834
118	0xbd318fda	-0.04335008
119	0x3c6dda61	0.014517398
120	0x3dd4f036	0.10397379
121	0xbcaa765b	-0.02080839
122	0xbd02d8d8	-0.03194508
123	0x3bc5ca38	0.0060360692
124	0xbd3e270d	-0.04642396
125	0x3c33a901	0.010965587
126	0x3e41424f	0.18872951
127	0xbc199966	-0.009374952
128	0xbd039a77	-0.03212973
129	0x3c5f0fb1	0.013614581
130	0x3ce81cc4	0.028334029
131	0x3e10725f	0.14106129
132	0x3c171f02	0.009223701
133	0xbbabde88	-0.0052450337
134	0x3cb7a832	0.022419069
135	0x3d6d1f6d	0.057891298
136	0xbd9ce914	-0.076616436
137	0xbd6575ef	-0.056020673
138	0xbdcf4756	-0.10121028
139	0xbc4ae6ce	-0.01238413
140	0x3db8c5c5	0.090220965
141	0x3d2d6877	0.042335954
142	0x3bca0c27	0.0061659995
143	0xbc5b8e0c	-0.013400566
144	0xbd317c0e	-0.0433312
145	0x3d86bcb3	0.0657896
146	0x3cab2731	0.020892711
147	0xbd3a016a	-0.045411505
148	0xbdc6b26c	-0.09702
149	0xbca94fcb	-0.020667931
150	0xbd79e119	-0.061005685
151	0x3d4d4802	0.0501175
152	0xbdb2aa9a	-0.08723946
153	0xbbb3fcc8	-0.0054927804
154	0x3dc25317	0.094885044
155	0x3d8c9cd0	0.06865847
156	0xbbc90307	-0.006134394
157	0x3d9c5b63	0.07634618
158	0x3dc65141	0.09683467
159	0x3d2a80bd	0.04162668
160	0x3dc225dc	0.09479877
161	0xbd609983	-0.0548339
162	0xbcb831ff	-0.022484777
163	0xbda069ce	-0.07832681
164	0xbdab789f	-0.08372616
165	0xbc860f51	-0.016364725
166	0x3e0f4dde	0.13994548
167	0x3d0f1449	0.034931455
168	0xbdbd854b	-0.09253939
169	0xbd115492	-0.035481043
170	0x3bfff431	0.0078110923
171	0xbdd1c9b3	-0.10243549
172	0xbdbbed00	-0.091760635
173	0xbd4e89ef	-0.050424512
174	0xbc9d0588	-0.019167677
175	0x3cca6f13	0.024711167
176	0x3e1e9f6b	0.154905
177	0x3affc9ab	0.0019515058
178	0xbd867e31	-0.06567038
179	0x3c7f75e9	0.015592077
180	0xbe0ee37b	-0.13953964
181	0xbd4c2888	-0.04984334
182	0xbda8c3d9	-0.0824048
183	0xbcd63298	-0.026147172
184	0xbcbf8579	-0.023379074
185	0xbd321c99	-0.043484304
186	0x3d2e1ff8	0.042510957
187	0x3d13e75a	0.036109306
188	0xbde600d0	-0.11230624
189	0xbd3e619b	-0.046479803
190	0xbd848b14	-0.064718395
191	0xbdd633a4	-0.104590684
192	0x3deaf236	0.11471979
193	0xbd4a9d12	-0.0494662
194	0x3e0fcee5	0.14043768
195	0xbd31f3f3	-0.04344554
196	0xbda01593	-0.07816615
197	0xbd21a8a4	-0.03946747
198	0x3cd9b16f	0.026573865
199	0x3da62587	0.081126265
200	0xbcb4c8b8	-0.022068366
201	0x3dd2b57c	0.10288522
202	0x3b8475b9	0.004042354
203	0xbdf6c045	-0.12048391
204	0xbdd713e3	-0.1050184
205	0xbc9608a9	-0.018314676
206	0x3ca9f02a	0.020744402
207	0xbd0c89a8	-0.034310967
208	0xba147e9b	-0.00056646176
209	0xbda3643a	-0.07978101
210	0x3d76f36d	0.060290743
211	0x3d5ed066	0.054397963
212	0xbd9dbec0	-0.07702398
213	0x3c1b1fea	0.009468058
214	0xbd97a43e	-0.074043736
215	0xbd29d479	-0.041462395
216	0x3c45a5b6	0.012063434
217	0xbd3e5b99	-0.046474073
218	0x3c82abc6	0.015951049
219	0x3d6a04f6	0.057133637
220	0xbcb0d584	-0.021586187
221	0x3e19379e	0.14962623
222	0x3d0623d4	0.032749012
223	0x3d8329bc	0.064044446
224	0x3dae8784	0.08521941
225	0x3d09cdce	0.033643536
226	0x3dd26e6c	0.102749676
227	0xbd32e8f8	-0.043679208
228	0x3d3f15dc	0.046651706
229	0x3a9cd1e4	0.0011964408
230	0xbc4d06a3	-0.012513789
231	0xbbb099d0	-0.0053894296
232	0x3daf9538	0.08573383
233	0x3db50f12	0.08840765
234	0x3dab8fd0	0.083770394
235	0x3ca88e84	0.02057577
236	0x3d8b1f99	0.06793136
237	0xbdacc770	-0.08436477
238	0x3bf0f709	0.0073536676
239	0x3deb2789	0.1148215
240	0x3cff5cec	0.031172238
241	0xbdad6a10	-0.084674954
242	0x3dba1d0d	0.09087572
243	0x3ca4679d	0.020068938
244	0xbc28b022	-0.0102959
245	0xbc9fcf9f	-0.019508181
246	0xbdb3772f	-0.08762967
247	0xbc49bb15	-0.01231267
248	0xbdc7f1f7	-0.09762948
249	0xbd9eef5b	-0.07760497
250	0x3d6c43f5	0.057681996
251	0xbcca6475	-0.024706105
252	0xbce31a82	-0.0277226
253	0x3cc9f1ce	0.024651434
254	0x3d5e4d6e	0.05427306
255	0xbdadff9c	-0.08496019

fc2.bias f4 [84]
0	0xbd35aecc	-0.044356152
1	0x3c3047e9	0.010759332
2	0xbd879c53	-0.06621613
3	0xbcf3181b	-0.02967458
4	0x3d9eba6e	0.077504024
5	0x3d8a60a5	0.06756715
6	0x388d4415	6.736085e-05
7	0x3d8d1653	0.06889024
8	0xbd57d60b	-0.05269436
9	0xbdc3671f	-0.09541153
10	0xbd27c6de	-0.04096114
11	0xbd4a9eaf	-0.04946774
12	0xbcc34a28	-0.023839071
13	0x3daee7ae	0.08540283
14	0x3de3449d	0.11097071
15	0x3bd6ed03	0.0065590157
16	0x3d77a26d	0.060457636
17	0x3ccc3917	0.024929566
18	0xbd2d29bc	-0.04227613
19	0x3d65291c	0.055947408
20	0x3d88aebb	0.06673952
21	0x3d8a4bcc	0.06752738
22	0xbdad4a3c	-0.08461425
23	0xbd4f143f	-0.050556418
24	0xbd89f3a6	-0.067359254
25	0x3d958f3e	0.07302712
26	0x3d894240	0.06702089
27	0xbd3c3844	-0.045952097
28	0xbd4ce3c2	-0.050021894
29	0x3999a309	0.00029303905
30	0x3c1d9875	0.009618868
31	0x3d36c131	0.044617835
32	0x3cc201c3	0.02368248
33	0xbc4de2fb	-0.012566323
34	0xbd1fb4ea	-0.038990892
35	0xbb492c2b	-0.0030696492
36	0xbd7255eb	-0.05916397
37	0x3d9832ff	0.07431602
38	0x3dd9aaff	0.10628318
39	0xbd580196	-0.052735887
40	0x3dc84e08	0.09780508
41	0xbcb6f584	-0.022333868
42	0xbd097a28	-0.033563763
43	0xbc9e2534	-0.01930485
44	0xbd32b241	-0.043627027
45	0xbc2efeea	-0.010680893
46	0xbda3c81a	-0.07997151
47	0x3db288e5	0.08717517
48	0x3ccca1cb	0.024979493
49	0xbd84665f	-0.06464838
50	0x3d542434	0.05179234
51	0x3db57758	0.08860654
52	0x3d9903f0	0.07471454
53	0x3c923a92	0.017850194
54	0x3d66901a	0.05628977
55	0x3d00a634	0.031408504
56	0x3b9dbfdd	0.0048141317
57	0x3d188ff6	0.037246667
58	0x3d9b831c	0.075933665
59	0xbd64ac7d	-0.05582856
60	0x3d04c7f3	0.03241725
61	0xbda5f681	-0.081036575
62	0xbb4124d8	-0.0029471423
63	0xbc5672e2	-0.013088914
64	0x3c49aae8	0.012308814
65	0xbda57b26	-0.08080129
66	0x3cd3d5cf	0.025858788
67	0xbccb6c20	-0.024831831
68	0x3d6c5a41	0.05770326
69	0xb9a3ab0c	-0.00031217223
70	0xbd71d443	-0.05904032
71	0x3ce6e197	0.028183741
72	0xbd628528	-0.05530277
73	0xbdb58361	-0.08862949
74	0x3d3101f8	0.04321477
75	0x3d2b4e9f	0.041823026
76	0xbbc95397	-0.006143998
77	0xbd9737a9	-0.07383663
78	0x3cf80b8c	0.030278943
79	0xbd2eb53b	-0.042653304
80	0x3dcb8055	0.09936587
81	0xbcd6cc4a	-0.02622046
82	0x3bdecd3d	0.0067993687
83	0x3dabd11e	0.08389495

fc3.weight f4 [6, 84]
0	0xbc9cca57	-0.019139452
1	0x3df35aae	0.1188253
2	0x3d17de67	0.037077334
3	0x3d5eb679	0.05437324
4	0x3dbd14c5	0.09232477
5	0xbd9adace	-0.07561265
6	0xbdbc18cd	-0.09184418
7	0xbc6428fc	-0.013925787
8	0x3e529e4b	0.20568196
9	0x3d89a352	0.06720604
10	0x3e34aca6	0.17643985
11	0xbd5e82f6	-0.054324113
12	0x3d50cae4	0.05097474
13	0x3d6047f3	0.054756116
14	0x3e8b76ef	0.27239177
15	0xbd872b38	-0.0660004
16	0xbe462868	-0.19351351
17	0xbf41d7c1	-0.7571984
18	0xbe708dd6	-0.23491606
19	0x3eea6e08	0.45787072
20	0x3e030824	0.12796074
21	0xbd010c22	-0.03150571
22	0x3e03cb0f	0.1287043
23	0x3e660dd7	0.22466217
24	0xbdce04db	-0.1005952
25	0x3e845666	0.25847167
26	0x3cbbdee6	0.022933435
27	0x3e3949e2	0.1809459
28	0x3e6a86b8	0.22902954
29	0x3d6a66fb	0.057227116
30	0x3e1c059c	0.15236515
31	0x3df16663	0.11787107
32	0xbde66551	-0.11249793
33	0x3d69dc7d	0.05709504
34	0xbe894f80	-0.26818466
35	0xbceb8ea6	-0.028754544
36	0xbe66b644	-0.22530466
37	0xbda13978	-0.078722894
38	0x3dabb1aa	0.08383496
39	0xbce78ae8	-0.028264478
40	0x3e32f0c6	0.1747466
41	0x3dca6946	0.098833606
42	0xbe1b979e	-0.15194556
43	0xbdcd8112	-0.10034384
44	0xbda42c11	-0.080162175
45	0x3e8ad1f6	0.27113312
46	0xbda3941b	-0.07987233
47	0x3c94ff03	0.018188005
48	0xbe637e8a	-0.2221624
49	0x3cc794ea	0.024363
50	0xbe2bb2a3	-0.16767363
51	0x3dd3bbe2	0.1033857
52	0x3d9afb57	0.075674705
53	0xbc363c29	-0.011122742
54	0x3d88caa8	0.066792786
55	0xbe225ff2	-0.15856913
56	0x3c073562	0.008252474
57	0x3d3c3763	0.04595126
58	0x3e0ef6f4	0.13961393
59	0xbd689062	-0.05677832
60	0x3d502221	0.050813798
61	0xbdd87115	-0.10568444
62	0x3d814a81	0.063130386
63	0x3ec421d3	0.38307056
64	0xbdc7df42	-0.0975938
65	0xbedc5e92	-0.430409
66	0xbd14fe12	-0.036375113
67	0x3d0c871e	0.034308545
68	0x3e42cd2b	0.19023578
69	0xbe35ab0e	-0.17741033
70	0xbe2c7ad2	-0.16843727
71	0x3d1c24a4	0.03812088
72	0xbc26201c	-0.010139491
73	0xbe3ae80d	-0.18252583
74	0x3eac2260	0.33619976
75	0xbe89f3ac	-0.2694372
76	0xbdb0d415	-0.086342014
77	0xbe5aae89	-0.21355642
78	0x3d72300a	0.059127845
79	0xbb884712	-0.004158863
80	0xbde09274	-0.10965434
81	0x3dc3d744	0.09562543
82	0x3d887b0a	0.06664093
83	0xbd844e69	-0.06460268
84	0xbe279dd1	-0.16368796
85	0xbd28b61d	-0.0411893
86	0x3de5a2a4	0.11212662
87	0x3e4f0cdc	0.20219749
88	0xbe59c8b8	-0.21267974
89	0xbd4d989f	-0.05019438
90	0x3d601530	0.054707706
91	0x3d0e7220	0.034776807
92	0xbdd06bd2	-0.10176815
93	0xbd4e3085	-0.05033924
94	0x3d660e18	0.056165785
95	0xbe729e95	-0.23693307
96	0x3d726078	0.05917403
97	0xbe4beed2	-0.19915321
98	0x3ea7b6df	0.32756707
99	0x3d8bb764	0.06822088
100	0x3e443724	0.1916166
101	0xbe0eb415	-0.13935883
102	0x3eaed84d	0.341494
103	0xbe299053	-0.16558962
104	0xbdd7e43c	-0.10541579
105	0x3dc97830	0.09837377
106	0xbdbee8f9	-0.0932178
107	0xbe2bfd39	-0.16795816
108	0x3e08df5b	0.13366453
109	0x3b957c81	0.004561961
110	0x3c4c86af	0.012483283
111	0x3c30116b	0.01074634
112	0x3e57edad	0.2108676
113	0x3e49e70f	0.19717048
114	0x3db02fc6	0.08602862
115	0x3e880b75	0.2657124
116	0xbc91f502	-0.017817024
117	0xbeb41c86	-0.35178012
118	0x3e3b3892	0.18283299
119	0x3cca7ffc	0.02471923
120	0x3df7f7eb	0.121078335
121	0xbdf24b9e	-0.11830829
122	0x3da5708a	0.08078106
123	0xbd56b6b2	-0.052420326
124	0x3d69766d	0.056997705
125	0x3cca9760	0.024730384
126	0x3e04440e	0.12916586
127	0xbe5e2328	-0.21693099
128	0x3d78f49c	0.060780153
129	0x3e4e6088	0.20154011
130	0xbb156f79	-0.0022802039
131	0xbe7c669a	-0.24648514
132	0xbc2b3d08	-0.010451563
133	0xbd72b2d8	-0.05925259
134	0x3e876a8d	0.2644848
135	0x3c646ffc	0.013942715
136	0xbe2bd54e	-0.16780588
137	0xbdaba896	-0.083817646
138	0x3da13f04	0.078733474
139	0x3d2a0726	0.041510724
140	0xbeb9d816	-0.36297673
141	0x3e28da9b	0.16489641
142	0xbe559b40	-0.20860004
143	0x3de456eb	0.11149391
144	0x3ea480b7	0.32129452
145	0x3de99fa6	0.11407404
146	0xbe87e0b4	-0.26538622
147	0xbf49f5e9	-0.78890854
148	0x3e62f74d	0.2216465
149	0x3e6b2116	0.2296184
150	0x3f54551c	0.82942367
151	0xbce85307	-0.028359903
152	0x3e1f7833	0.15573196
153	0x3e1d79fd	0.15378566
154	0xbcc2ac98	-0.02376394
155	0xbc692d2b	-0.01423196
156	0x3e42b3fc	0.19013971
157	0xbde152cd	-0.11002121
158	0xbe055043	-0.13018899
159	0xbe2414e2	-0.16023591
160	0xbd815243	-0.06314518
161	0x3db27632	0.0871395
162	0xbef78cdc	-0.48349655
163	0xbc0f22ab	-0.008736293
164	0x3e3d147c	0.18464845
165	0x3e3b0f33	0.18267517
166	0x3e073880	0.13205147
167	0xbca65821	-0.020305695
168	0x3d0e9f81	0.034820084
169	0x3d9427e4	0.07234171
170	0xbc534fbc	-0.012897428
171	0xbe95acb5	-0.29233328
172	0x3e7dce2b	0.24785678
173	0xbd693b98	-0.0569416
174	0x3dad0e3c	0.084499806
175	0x3d4f2837	0.05057546
176	0xbc6ad680	-0.014333367
177	0xbd9c22d5	-0.07623831
178	0xbc3bb56f	-0.011456831
179	0x3dae47c6	0.085097834
180	0x3d969822	0.07353236
181	0xbca8201f	-0.020523129
182	0xbf484dbb	-0.7824361
183	0xbcc1f4af	-0.023676245
184	0x3e74e567	0.23915635
185	0x3ec4b1de	0.38416952
186	0xbed159d4	-0.40888846
187	0xbd6d3731	-0.057913963
188	0x3dd88fd6	0.105743095
189	0x3d11f946	0.035638116
190	0x3d39897a	0.045297123
191	0x3d163177	0.036668267
192	0x3caf3dd8	0.021391794
193	0x3e55835f	0.20850895
194	0x3d6cbae2	0.057795413
195	0x3d9ab91d	0.07554839
196	0xbdba14f8	-0.09086031
197	0xbcf93ad1	-0.030423554
198	0xbcb4a4b8	-0.0220512
199	0xbdbcfee1	-0.09228302
200	0x3e24b9b0	0.16086459
201	0xbde2deac	-0.110776275
202	0x3e0105a2	0.12599805
203	0x3d64acc6	0.055828832
204	0x3da452b3	0.08023586
205	0xbe16c591	-0.14723803
206	0x3ca576e5	0.020198295
207	0x3e14a67d	0.14516635
208	0x3d0e2f2d	0.03471296
209	0x3bb2cd4a	0.0054566013
210	0x3d7e7eeb	0.062132757
211	0x3ccd7295	0.025079051
212	0x3bae5beb	0.005321016
213	0x3ea4a6aa	0.32158405
214	0xbdfe67c1	-0.12422133
215	0x3e3d9014	0.18511993
216	0x3da07b20	0.07835984
217	0x3e95279c	0.29131782
218	0xbe41ddc9	-0.1893226
219	0x3d2dfb47	0.042475965
220	0x3d87ed0c	0.0663701
221	0xbd1bc56d	-0.038030077
222	0xbd8bf8cb	-0.06834563
223	0x3dd19863	0.102341436
224	0x3dbcd644	0.092205554
225	0x3d6312b5	0.055437762
226	0x3e47d0c8	0.19513237
227	0x3dee8b1f	0.11647629
228	0xbea1bdd4	-0.3159014
229	0xbe2863a4	-0.1644426
230	0x3ef287f4	0.4736935
231	0x3db65305	0.089025535
232	0xbe26bf6a	-0.16283956
233	0xbec61a2f	-0.38691851
234	0x3f195f18	0.59910727
235	0xbe1073c1	-0.14106657
236	0xbeb24c21	-0.34823707
237	0xbdcceeed	-0.10006509
238	0xbded7168	-0.11593896
239	0x3e193b67	0.14964066
240	0xbc570ffc	-0.01312637
241	0xbcc46ceb	-0.023977717
242	0xbe76ca03	-0.24100499
243	0x3ecaf679	0.3964117
244	0xbca127bd	-0.019672269
245	0xbbc98a57	-0.0061505246
246	0xbce70f80	-0.028205633
247	0x3e06cc4e	0.13163874
248	0x3e8bb5f2	0.2728725
249	0x3d862e97	0.06551855
250	0xbe64851c	-0.22316402
251	0x3d05dabc	0.032679304
252	0xbd748959	-0.059701297
253	0xbdef3c0f	-0.11681377
254	0x3d3e8d60	0.046521544
255	0x3dee698d	0.11641226

fc3.bias f4 [6]
0	0x3dcda8d9	0.10041971
1	0x3dbc9902	0.092088714
2	0xbc42a647	-0.011880464
3	0x3d9ed758	0.07755917
4	0xbbaf5d4e	-0.005351699
5	0x3deece16	0.116604015
