Cleaned LIAR/TunedModels/roberta/roberta-large/NNetwork/Tanh_MSE_adam4932.pth (torch_old, 49951 bytes, 6 tensors)

fc1.weight f4 [120, 12]
-0.11717127 0.052115917 -0.20106742 -0.086416766 -0.2488797 0.1643107 -0.17164268 0.105011225
-0.0050397515 0.16747016 -0.2710637 0.068900734 0.16375479 0.15619639 -0.007699728 0.25823534
-0.19514191 -0.18473032 -0.12613834 0.18994218 0.07843372 -0.043460876 0.2673232 -0.2808663
-0.25142205 0.0224953 0.24173033 0.04148084 -0.19138384 -0.06299634 0.24807489 -0.27458367
0.09595612 -0.25994083 0.1619139 -0.014639318 0.057605475 -0.21688372 -0.14197913 0.09748298
-0.20469992 -0.17999807 -0.010920554 -0.15046139 0.13229254 -0.1749441 0.012368113 0.10282311
-0.20039392 0.16566548 0.072169065 0.17937446 0.07826662 0.09608838 -0.20123649 -0.13257813
0.26575136 -0.07960883 -0.21795991 0.021887213 0.027736157 -0.26917934 0.01201722 -0.11391026
-0.20535251 -0.0061205924 0.108691305 0.02106291 -0.17427805 0.17244256 -0.1402164 0.01421833
0.23979944 -0.21280465 -0.2871287 -0.0058187246 -0.22128147 0.2661546 -0.2560201 0.03888926
0.28866756 -0.18829553 0.1996018 -0.048505917 -0.11958589 0.24738503 0.21663463 0.07703671
0.07231867 -0.055176765 0.15369353 0.06949812 -0.17766264 0.13314137 0.13702819 0.1310696
0.1781084 -0.010328889 0.27305758 0.06361553 -0.08452049 -0.11560494 0.05020991 -0.09493522
-0.23987065 0.24167454 -0.021102339 0.25115144 -0.26877496 0.23371792 -0.10829392 -0.2267653
-0.18316245 0.16230643 -0.24606732 -0.061597258 0.206209 -0.24853168 0.13199204 0.13253331
0.06289837 0.08418164 -0.027181357 0.16226491 -0.11190389 -0.15216702 -0.22645573 0.17416313
0.2832234 0.2010755 -0.16854319 -0.013228089 0.12308252 -0.10691972 -0.015726656 -0.054647774
0.1535177 -0.14162986 -0.108747646 0.14236403 -0.24307671 -0.09064753 0.12963441 -0.12112485
0.13486993 0.050800264 0.19209579 0.02295667 0.19653305 0.22254705 0.044078648 0.17904842
0.0347566 0.23302752 0.09077737 -0.26267526 -0.2789857 -0.18277568 -0.21040651 -0.15206054
0.020101845 0.10449779 0.22865188 0.2488972 0.26688457 0.22645456 0.01559031 0.19039515
0.023426265 -0.08701427 -0.19719884 0.10759804 0.1711173 -0.18181816 0.17183119 0.075651705
-0.13574728 -0.074000016 0.13485554 -0.03710699 0.21494871 -0.25885049 -0.23576128 0.18570283
0.11266962 -0.28494623 0.22461802 0.007108271 0.15421155 -0.09711985 0.19876388 0.061285198
-0.19342768 -0.13657288 0.232808 -0.21623021 -0.25642142 0.2211402 -0.20691922 0.1764088
-0.09005609 0.23971939 -0.014329582 0.2626031 -0.22535607 -0.24894296 0.10448572 -0.17981671
0.17599899 -0.24329165 0.046639413 0.1433405 -0.261081 -0.16148269 0.23418802 0.2256099
-0.15550949 -0.12729272 0.19531819 -0.28688794 -0.23034437 -0.12543443 -0.20469895 -0.11445555
0.06681308 0.07556358 -0.054127246 -0.104972154 -0.20031145 -0.1581748 0.10664517 -0.12938353
-0.28466725 0.045593977 0.12874946 -0.15937147 -0.1312261 0.08317128 -0.14817263 -0.12010431
0.22972995 0.04559359 -0.22749808 -0.13498421 0.07860252 0.19334814 0.24403358 -0.20128916
0.24682331 -0.0233545 -0.051647797 0.07833156 -0.14091559 -0.28739598 0.13983768 -0.23241289
00000000: 7ef7 efbd 8077 553d 9ee4 4dbe 46fb b0bd
00000010: 52da 7ebe 1041 283e 19c3 2fbe 2010 d73d
00000020: 8024 a5bb 4c7d 2b3e dcc8 8abe d41b 8d3d
00000030: 56af 273e f2f1 1f3e 004e fcbb 6c37 843e
00000040: 48d3 47be f229 3dbe 692a 01be 3480 423e
00000050: dca1 a03d 0804 32bd 96de 883e b5cd 8fbe
00000060: 64ba 80be 1048 b83c 2888 773e d0e7 293d
00000070: 20fa 43be 3a04 81bd 5807 7e3e 3b96 8cbe
00000080: a484 c43d f716 85be c2cc 253e c0d9 6fbc
00000090: b8f3 6b3d c416 5ebe fa62 11be 28a5 c73d
000000a0: db9c 51be 6a51 38be 20ec 32bc 8d12 1abe
000000b0: b277 073e 8c24 33be a0a3 4a3c ec94 d23d
000000c0: 1034 4dbe 36a4 293e 60cd 933d f0ad 373e
000000d0: 404a a03d fcc9 c43d f010 4ebe 90c2 07be
000000e0: 9010 883e f409 a3bd e230 5fbe d04c b33c
000000f0: f036 e33c e0d1 89be e0e3 443c c849 e9bd
00000100: ee47 52be 408f c8bb 8c99 de3d 208c ac3c
00000110: f275 32be c894 303e e394 0fbe 00f4 683c
00000120: fc8d 753e 76e9 59be 8802 93be 00ab bebb
00000130: 9c97 62be 6a45 883e 1115 83be 584a 1f3d
00000140: 3ccc 933e 8bd0 40be 6a64 4c3e 24ae 46bd
00000150: 72e9 f4bd 8052 7d3e 78d5 5d3e 6cc5 9d3d
00000160: d01b 943d 0801 62bd d661 1d3e 0855 8e3d
00000170: 32ed 35be 3656 083e 1e51 0c3e 1c37 063e
00000180: 0c62 363e 803a 29bc 34ce 8b3e dc48 823d
00000190: 1419 adbd 48c2 ecbd e8a8 4d3d 666d c2bd
000001a0: a7a0 75be 8879 773e d0de acbc ec96 803e
000001b0: df9c 89be c053 6f3e 34c9 ddbd 2a35 68be
000001c0: f08e 3bbe a833 263e 12f9 7bbe 684d 7cbd
000001d0: 7428 533e 177f 7ebe ec28 073e d0b6 073e
000001e0: dcd0 803d 6c67 ac3d 70ab debc c628 263e
000001f0: de2d e5bd acd1 1bbe 03e4 67be d257 323e
00000200: a802 913e bce6 4d3e 9696 2cbe a0ba 58bc
00000210: b012 fc3d baf8 dabd 30d5 80bc 58d6 5fbd
00000220: be33 1d3e 6b07 11be 16b7 debd e0c7 113e
00000230: 1ae9 78be 6aa5 b9bd e2be 043e 4e10 f8bd
00000240: 581b 0a3e f013 503d c2b4 443e a00f bc3c
00000250: f63f 493e 60e3 633e d08b 343d 7858 373e
00000260: f05c 0e3d c49e 6e3e 7ce9 b93d 5f7d 86be
00000270: 37d7 8ebe 8c29 3bbe ce74 57be c2b5 1bbe
00000280: a0ac a43c f002 d63d b823 6a3e e8de 7e3e
00000290: 18a5 883e b4e3 673e 806e 7f3c f2f6 423e
000002a0: 70e8 bf3c 8a34 b2bd 7eee 49be 5c5c dc3d
000002b0: 6039 2f3e 8a2e 3abe 84f4 2f3e 48ef 9a3d
000002c0: 5601 0bbe 528d 97bd 9217 0a3e 80fd 17bd
000002d0: 841b 5c3e 0d88 84be 686b 71be e228 3e3e
000002e0: 54bf e63d 79e4 91be 4402 663e 80ec e83b
000002f0: a2e9 1d3e c6e6 c6bd c288 4b3e 3006 7b3d
00000300: e811 46be c3d9 0bbe 3865 6e3e 746b 5dbe
00000310: ab49 83be 9472 623e a2e2 53be 82a4 343e
00000320: 546f b8bd 0079 753e a0c6 6abc ea73 863e
00000330: bec3 66be e7ea 7ebe 9cfc d53d df21 38be
00000340: 1439 343e 7221 79be f808 3f3d dac7 123e
00000350: 69ac 85be b85b 25be fcce 6f3e 4806 673e
00000360: e13d 1fbe 0659 02be 7e01 483e fae2 92be
00000370: 65df 6bbe e271 00be 9a9c 51be ac67 eabd
00000380: 4cd5 883d 14c1 9a3d 88b4 5dbd a4fb d6bd
00000390: 721e 4dbe 93f8 21be c868 da3d 1e7d 04be
000003a0: e8bf 91be c0c0 3a3d e6d6 033e 4632 23be
000003b0: 2260 06be b455 aa3d 91ba 17be 40f9 f5bd
000003c0: 543e 6b3e 58c0 3a3d 42f5 68be 4d39 0abe
000003d0: 5cfa a03d 0efd 453e f0e3 793e bf1e 4ebe
000003e0: 40bf 7c3e f051 bfbc a48c 53bd 4c6c a03d
000003f0: 2d4c 10be 9125 93be 9c31 0f3e a5fd 6dbe

fc1.bias f4 [120]
-0.02831909 0.04854867 -0.081101745 0.26279354 -0.09673543 -0.034636438 -0.013157368 0.26529884
-0.018769175 0.07709095 0.2545253 -0.2590525 0.076616704 -0.26999417 -0.08930455 -0.091157705
0.12367678 -0.0110071 0.25775826 0.2867195 -0.13470915 0.06006998 -0.28676173 -0.20170242
0.21531701 -0.20284985 0.21152067 -0.22368763 0.11052817 -0.10517788 -0.050371155 0.15466297
-0.14792699 0.06946394 -0.22040342 -0.23361857 -0.10834867 0.25025427 0.12285954 0.13725403
0.18746752 -0.1499615 0.20070773 0.021007776 -0.016258866 -0.2355067 0.26994836 0.22605622
-0.08788729 0.0013935566 -0.2340683 -0.16761619 0.19844618 0.09639606 0.17827415 -0.09806892
0.07373288 -0.04983841 -0.050159752 0.010334164 0.15118429 0.16669697 0.1495964 -0.006857395
-0.1587948 -0.06330392 0.26243728 0.21170574 0.23271143 -0.25901258 0.22945601 0.1405778
0.005087793 -0.2410432 0.10503057 0.10178515 -0.2341361 -0.20434633 0.28214413 0.15572065
-0.14333664 -0.12405272 0.20173723 0.20827651 -0.19034812 0.22869897 0.28379023 -0.024442077
0.092733085 0.13358182 0.082053274 -0.15179433 0.18931466 0.17114913 0.08460507 -0.1681571
-0.11144994 0.16425738 0.039895326 -0.25952026 -0.0005042851 -0.028892964 -0.15545014 0.14105907
0.089817345 0.26004875 0.06933707 -0.21355759 -0.10752039 -0.065630496 0.21420848 0.19415092
0.029158145 0.27437186 0.12670082 -0.06653008 0.1177313 0.20775586 0.12899333 0.2819091
00000000: 70fd e7bc f8da 463d ac18 a6bd e08c 863e
00000010: 3a1d c6bd f0de 0dbd 0092 57bc 40d5 873e
00000020: d0c1 99bc dce1 9d3d 2451 823e 87a2 84be
00000030: 38e9 9c3d ad3c 8abe 4ee5 b6bd e4b0 babd
00000040: 404a fd3d 2057 34bc e4f8 833e e6cc 923e
00000050: 32f1 09be f00b 763d 6fd2 92be 148b 4ebe
00000060: 107c 5c3e dfb7 4fbe e098 583e 5f0e 65be
00000070: 985c e23d 8067 d7bd fc51 4ebd f85f 1e3e
00000080: 2c7a 17be 1c43 8e3d 6fb1 61be b539 6fbe
00000090: e8e5 ddbd 5421 803e c89d fb3d 528c 0c3e
000000a0: 7cf7 3f3e 828f 19be 5486 4d3e 8018 ac3c
000000b0: 5031 85bc ab28 71be ac36 8a3e 487b 673e
000000c0: 40fe b3bd 00a8 b63a 9aaf 6fbe 94a3 2bbe
000000d0: 7a35 4b3e 4c6b c53d 808d 363e 5cd8 c8bd
000000e0: 4401 973d 5c23 4cbd 5074 4dbd a050 293c
000000f0: 0ed0 1a3e 9cb2 2a3e cc2f 193e 00b4 e0bb
00000100: 1b9b 22be 7ca5 81bd 2e5e 863e 64c9 583e
00000110: e84b 6e3e 4c9d 84be 84f6 6a3e a0f3 0f3e
00000120: 80b7 a63b 07d4 76be 441a d73d bc74 d03d
00000130: 60c1 6fbe 2a40 51be 3275 903e 3c75 1f3e
00000140: d7c6 12be 5a0f febd 3494 4e3e 7046 553e
00000150: 9eea 42be 1030 6a3e f44c 913e c03a c8bc
00000160: d8ea bd3d acc9 083e 8c0b a83d f96f 1bbe
00000170: b4db 413e b841 2f3e 6c45 ad3d 6031 2cbe
00000180: de3f e4bd 1633 283e 4869 233d d7df 84be
00000190: 0032 04ba f0b0 ecbc 522e 1fbe ca71 103e
000001a0: 28f2 b73d 1c25 853e 9800 8e3d d7ae 5abe
000001b0: a633 dcbd 4869 86bd 7859 5b3e 80cf 463e
000001c0: 10dd ee3c 787a 8c3e dcbd 013e ec40 88bd
000001d0: 1c1d f13d f4bd 543e d416 043e 6456 903e

fc2.weight f4 [84, 120]
-0.047551446 -0.07647011 0.048159555 0.019861244 0.03765364 0.037350297 -0.009898968 0.05239415
-0.05689899 0.042747423 -0.08378325 -0.034972154 -0.040441494 -0.009869672 -0.028278828 -0.015415922
0.03744571 0.07616675 -0.0725242 0.059589088 -0.011903942 0.010066643 0.023851097 -0.08330245
-0.041482113 0.028585196 -0.06231969 0.042244658 0.06563087 -0.023592032 0.04763688 0.019941255
0.035219043 -0.081571825 -0.08269222 0.07944499 -0.055492032 -0.06929065 -0.013306983 0.041475296
-0.04459122 0.040857315 -0.04556552 0.015237384 -0.025898233 -0.06611819 0.01620654 0.076158285
-0.016609147 0.073094726 0.07158385 -0.028764777 -0.017889246 -0.085468516 -0.046208803 0.01054877
-0.050924808 -0.057901703 0.023815922 0.047818035 0.07933487 -0.06109588 -0.05723954 -0.066944286
-0.071544334 0.043625712 0.07434648 -0.01671853 -0.08575345 0.067460954 0.067736074 0.08506532
0.029076368 0.07037637 0.034121677 -0.072319716 0.0472347 0.018355884 -0.05221364 0.04613532
-0.027396299 0.05846232 0.00063829124 -0.0013971403 -0.030433081 -0.063091055 -0.008818522 -0.030494634
-0.04759123 -0.07349369 -0.05094222 0.06826842 0.08223866 -0.041129895 0.02167438 0.08113144
-0.016899578 0.03736396 -0.04072725 0.06683767 0.06273648 -0.08378845 -0.07691435 0.022433735
-0.04265337 -0.0565381 -0.059025362 -0.046352003 -0.020628855 -0.05125195 0.037430614 0.048124045
0.0008225888 0.019784138 0.06407753 0.038178712 -0.0015853867 -0.06992378 -0.011774853 -0.08388791
0.040970266 0.026271932 0.08601111 -0.017367296 -0.023409449 -0.010520436 0.030065916 0.016103715
-0.03601066 -0.032751374 -0.006667763 0.08923285 -0.06905341 0.05999653 -0.0251415 -0.006237164
-0.04153301 0.042394176 0.0048427284 -0.032390192 -0.08383564 0.035763353 -0.04959334 -0.02356629
-0.04459432 -0.054365803 -0.049314275 -0.058084372 -0.0018638149 0.07398173 0.082730636 -0.07473111
-0.013019644 0.01765474 0.020819291 -0.006758228 -0.06918305 -0.0662738 0.040835813 0.072814375
0.052992746 -0.07561533 -0.006721519 0.06889729 -0.056385867 -0.04474846 -0.023565285 -0.0033115372
-0.0870249 -0.04691996 -0.0007172972 -0.03427669 -0.0086544305 -0.041239142 0.07156938 -0.055742957
-0.085824944 -0.08327661 0.044099852 0.012254305 -0.052549824 0.010964237 -0.034710817 -0.041451816
0.031817295 -0.0019515902 0.012060471 -0.06431923 -0.043965228 -0.0073941946 0.068739 -0.06467606
0.019502677 -0.060275897 -0.082765535 -0.024540573 0.014100492 0.03662163 -0.05593963 -0.018619955
0.0819858 0.055194825 -0.072121315 -0.023892336 -0.024697736 0.034137025 0.016830355 0.013840459
0.07666141 0.062050194 -0.04656722 -0.01114583 0.08537896 -0.012120932 -0.009509668 -0.07456521
0.04249987 0.02664923 -0.04461813 0.045678794 0.027637899 -0.015657268 -0.019089565 -0.0040202513
-0.032646514 0.050389767 -0.025683448 -0.08360658 -0.07063243 -0.044855136 0.04032083 -0.088474005
-0.07160947 0.06844288 0.021835402 -0.046236172 0.023606017 -0.08743076 0.08825922 0.038264558
-0.07568528 -0.083091274 0.0884687 -0.060718827 -0.013020121 -0.086476125 -0.060608648 0.061722234
-0.05990487 -0.0638179 0.00807827 -0.07813007 0.06549682 -0.007747248 -0.022181027 0.040284783
00000000: 4ec5 42bd 5c9c 9cbd f442 453d 0cb4 a23c
00000010: b43a 1a3d a0fc 183d 482f 22bc 409b 563d
00000020: ea0e 69bd ec17 2f3d 8d96 abbd f63e 0fbd
00000030: fba5 25bd 68b4 21bc 00a9 e7bc 1093 7cbc
00000040: ac60 193d 50fd 9b3d 9187 94bd b013 743d
00000050: c008 43bc 90ee 243c 6063 c33c 7a9a aabd
00000060: 26e9 29bd 802b ea3c ee42 7fbd bc08 2d3d
00000070: 7a69 863d 1444 c1bc e41e 433d d85b a33c
00000080: d841 103d 210f a7bd 8a5a a9bd 0eb4 a23d
00000090: 9d4b 63bd 42e8 8dbd 8805 5abc 00e2 293d
000000a0: 48a5 36bd 005a 273d e9a2 3abd 38a6 793c
000000b0: 8828 d4bc f968 87bd 94c3 843c e0f8 9b3d
000000c0: e80f 88bc b0b2 953d 8e9a 923d 1ca4 ebbc
000000d0: 788c 92bc 1e0a afbd 7145 3dbd c0d4 2c3c
000000e0: 8896 50bd 562a 6dbd 9c19 c33c d8dc 433d
000000f0: 527a a23d ac3f 7abd 0274 6abd 161a 89bd
00000100: d685 92bd e0b0 323d f842 983d 4cf5 88bc
00000110: 819f afbd f828 8a3d 36b9 8a3d ba36 ae3d
00000120: 9031 ee3c 7c21 903d 2cc3 0b3d 5c1c 94bd
00000130: 2c79 413d 145f 963c f8dd 55bd 64f8 3c3d
00000140: 346e e0bc 3076 6f3d 0053 273a 4020 b7ba
00000150: cc4e f9bc e235 81bd 907b 10bc e2cf f9bc
00000160: 06ef 42bd dc83 96bd caa8 50bd 50d0 8b3d
00000170: be6c a83d d277 28bd 788e b13c 3e28 a63d
00000180: fc70 8abc f40a 193d 9ed1 26bd 30e2 883d
00000190: fc7b 803d 4799 abbd 4585 9dbd f4c6 b73c
000001a0: 4db5 2ebd 7f94 67bd 94c4 71bd 99db 3dbd
000001b0: d8fd a8bc 91ed 51bd d850 193d b81d 453d
000001c0: 00a3 573a 5812 a23c 143b 833d 4861 1c3d
000001d0: c0cc cfba 3334 8fbd 50eb 40bc 6dcd abbd
000001e0: 70d0 273d 3c38 d73c 9826 b03d dc45 8ebc
000001f0: 2cc5 bfbc e85d 2cbc cc4c f63c f0eb 833c
00000200: ea7f 13bd 4e26 06bd 407d dabb b6bf b63d
00000210: e06b 8dbd ecbe 753d 8cf5 cdbc 2061 ccbb
00000220: 841e 2abd 84a5 2d3d c0af 9e3b 94ab 04bd
00000230: 05b2 abbd 987c 123d 6322 4bbd 180e c1bc
00000240: 89a8 36bd adae 5ebd c4fd 49bd e1e9 6dbd
00000250: 404b f4ba bc83 973d ae6e a93d a00c 99bd
00000260: 5850 55bc aca0 903c 388d aa3c 2074 ddbb
00000270: d8af 8dbd 8fba 87bd 7443 273d b41f 953d
00000280: ec0e 593d 36dc 9abd 3040 dcbb 061a 8d3d
00000290: def4 66bd 294a 37bd fc0b c1bc 6006 59bb
000002a0: 1c3a b2bd 252f 40bd 0009 3cba b765 0cbd
000002b0: 50cb 0dbc 60ea 28bd f892 923d ba52 64bd
000002c0: fdc4 afbd ed8c aabd 0ca2 343d 48c6 483c
000002d0: 7c3e 57bd 58a3 333c ee2c 0ebd 61c9 29bd
000002e0: da52 023d 80cc ffba 4899 453c cdb9 83bd
000002f0: e214 34bd 004b f2bb 08c7 8c3d e274 84bd
00000300: 14c4 9f3c dce3 76bd fa80 a9bd 5009 c9bc
00000310: c005 673c 9000 163d f420 65bd e088 98bc
00000320: 2ce8 a73d f813 623d 57b4 93bd dcb9 c3bc
00000330: e852 cabc 44d3 0b3d d0df 893c 18c3 623c
00000340: a800 9d3d 5828 7e3d 45bd 3ebd 009d 36bc
00000350: 2adb ae3d e096 46bc 70ce 1bbc a5b5 98bd
00000360: 5814 2e3d 7c4f da3c 80c1 36bd b019 3b3d
00000370: e068 e23c ac43 80bc b861 9cbc 50bc 83bb
00000380: 5ab8 05bd 8065 4e3d 1866 d2bc ed39 abbd
00000390: bca7 90bd 05ba 37bd 7427 253d dc31 b5bd
000003a0: fca7 92bd c82b 8c3d 28e0 b23c 2462 3dbd
000003b0: 6861 c13c e60e b3bd 40c1 b43d 4cbb 1c3d
000003c0: e200 9bbd c22b aabd 142f b53d 4eb4 78bd
000003d0: 5852 55bc 651a b1bd c640 78bd 74d0 7c3d
000003e0: cf5e 75bd f6b2 82bd b85a 043c a802 a0bd
000003f0: 3223 863d a0dc fdbb fcb4 b5bc a801 253d

fc2.bias f4 [84]
-0.0033127815 -0.034696594 0.041155428 0.020930573 -0.054938342 0.02191206 -0.00022818148 -0.090313576
0.055559203 -0.05986582 0.08984682 0.05574873 -0.004522063 0.055256546 -0.00805372 -0.084499
0.07211776 0.03012015 -0.07822378 -0.04505782 0.06094031 -0.06268431 0.00906527 -0.06291928
-0.04700001 -0.048889216 -0.010966137 -0.03972505 -0.027424723 -0.0790731 0.03021682 -0.03180972
0.04596442 -0.00086595863 -0.028191924 0.08117862 -0.028853878 -0.090238236 0.063051045 0.07945569
-0.07769165 0.0021273494 0.017132774 -0.06295865 0.0071812645 -0.08781745 -0.0014758632 -0.0075451583
-0.07822827 -0.07695981 -0.06808834 -0.00627625 -0.038155664 -0.05569047 0.0561074 0.051005155
0.012399733 -0.013179861 0.009095408 0.0487611 0.06637733 0.027603112 0.011723131 -0.070984356
0.037394583 0.07763527 0.08231793 -0.036740273 -0.053320758 0.08096473 -0.008040726 0.066845074
-0.032940935 -0.060111873 -0.02802565 0.020871505 -0.054133445 -0.018133126 0.05625014 0.011649363
0.068568826 -0.007638797 -0.07843915 0.02416949
00000000: 401b 59bb 041e 0ebd 9892 283d 9876 ab3c
00000010: 0707 61bd ec80 b33c 0044 6fb9 53f6 b8bd
00000020: 0c92 633d dd35 75bd 9c01 b83d c858 643d
00000030: d02d 94bb b054 623d c0f3 03bc d00d adbd
00000040: 7ab2 933d 88be f63c ca33 a0bd 8c8e 38bd
00000050: 8c9c 793d a260 80bd 8086 143c d3db 80bd
00000060: 1583 40bd 0f40 48bd 50ab 33bc bcb6 22bd
00000070: d0a9 e0bc 14f1 a1bd 4489 f73c e94a 02bd
00000080: 3045 3c3d 8001 63ba c0f2 e6bc fa40 a63d
00000090: f85e ecbc d3ce b8bd e820 813d aab9 a23d
000000a0: cd1c 9fbd 006b 0b3b 085a 8c3c 77f0 80bd
000000b0: d050 eb3b a3d9 b3bd c071 c1ba 603d f7bb
000000c0: 2536 a0bd 1b9d 9dbd e671 8bbd 00a9 cdbb
000000d0: 1d49 1cbd b11b 64bd e0d0 653d c8ea 503d
000000e0: 4028 4b3c 58f0 57bc e804 153c b8b9 473d
000000f0: d6f0 873d ec1f e23c 6012 403c 3f60 91bd
00000100: 102b 193d 3eff 9e3d 4e96 a83d f87c 16bd
00000110: de66 5abd d6d0 a53d 40bd 03bc 12e6 883d
00000120: 13ed 06bd de37 76bd 0c96 e5bc b8fa aa3c
00000130: 08bb 5dbd ec8b 94bc 8c66 663d f8dc 3e3c
00000140: d06d 8c3d e04e fabb b4a4 a0bd 18ff c53c

fc3.weight f4 [6, 84]
0.07345592 0.07378898 -0.06408638 0.064922564 0.03081321 -0.058269292 0.069229536 0.018412359
-0.08941528 -0.08099811 0.086075015 0.0856351 0.071407385 -0.07662168 0.08777062 -0.041108668
-0.008528352 0.10278592 0.067164265 -0.024784304 0.025861837 0.062828444 -0.059621897 -0.04087607
-0.050766554 0.09889322 -0.01994104 0.04543055 0.065315075 0.05599492 -0.0020997822 0.020388715
-0.09501679 -0.106431484 -0.080826536 0.0024639592 -0.0070421025 -0.041829415 0.033801727 0.06510451
0.014650911 0.022955157 0.08886068 0.04898279 -0.050181508 -0.02115263 0.08694125 -0.025265902
-0.034282006 -0.092108645 -0.04551354 0.061740376 0.09855049 -0.017936155 -0.09769314 0.04294253
-0.10816694 0.00059133023 0.06072306 0.09833562 -0.026208818 -0.09988527 -0.041965336 0.0013253242
0.051442735 0.029902376 -0.024450414 -0.09994536 0.018821292 0.093490936 0.10367837 0.0058406144
0.07061545 0.04009006 0.010578312 -0.09754759 0.09469857 -0.084087685 -0.03646762 0.079452716
0.055460446 -0.013347879 -0.08080076 0.054011367 -0.0717937 0.0016676635 -0.07139446 -0.05970406
-0.08356805 0.01167237 -0.09507459 0.052839853 0.0681277 0.086656876 -0.054899726 0.06490729
-0.020274073 -0.07629279 -0.005058296 -0.032524236 0.090061106 -0.072582446 -0.02954173 0.10548704
0.08122932 -0.022073954 0.010230474 -0.007751845 -0.09711418 -0.0037516057 0.055820055 -0.057703666
0.10203842 0.07420949 -0.052457932 0.10066224 -0.019072823 -0.022706777 0.07480856 -0.021689363
0.06779166 -0.026650295 -0.10710811 -0.0366778 0.028408788 0.1005789 0.013593368 -0.033101223
0.070460804 0.021717675 -0.050484166 -0.010980643 0.022199236 -0.0570709 -0.10432104 0.07224486
0.010370761 0.009849474 0.109051056 0.023335524 0.061470352 -0.06432466 0.039223157 0.084986515
-0.04507733 -0.051242944 0.030901648 -0.08731202 -0.09189203 -0.03504236 -0.046939693 0.029414363
-0.063976705 0.08007344 0.0741621 0.04963658 -0.09451338 -0.075900584 0.08940386 0.0033527985
0.052391462 -0.011373654 0.08443671 0.003753513 0.054710247 -0.038166896 0.034916617 0.0923421
-0.059494093 -0.014259733 -0.058592852 -0.02936335 0.06370885 -0.098309815 0.014185116 -0.040383905
-0.009284869 0.0038123578 -0.05292722 -0.044693053 -0.0094830245 0.015798785 0.08825713 -0.08889988
-0.1067027 0.091311865 0.08514235 -0.06697261 0.026030548 -0.026869029 0.0806103 0.041329704
0.10897129 0.060306065 -0.05416696 -0.061057523 0.0845589 -0.06890413 0.08018831 -0.03849058
-0.052289367 0.006456755 0.06699734 -0.049990334 0.09254428 -0.10847596 0.092709936 -0.018894717
0.055827163 -0.08863216 0.06316853 0.05705107 0.047776736 0.07835657 0.011750437 -0.06099778
0.02419389 0.07325607 0.030204229 0.08398489 0.102545805 -0.09373926 -0.100094534 0.108832784
0.0751492 -0.05779993 0.057879068 0.019571818 -0.07518832 0.040387996 0.10448711 0.010424443
0.063660525 -0.103135094 0.033411525 -0.021500997 -0.07730886 -0.0010119304 0.019823588 -0.03060335
-0.05295357 -0.04774864 0.049158297 -0.05564599 -0.012792811 -0.03867331 0.0014568791 -0.06391932
0.10138693 -0.067118615 0.10775859 -0.059230223 -0.09639445 0.027365677 -0.0047628284 0.061739497
00000000: 0f70 963d ad1e 973d b83f 83bd 1ff6 843d
00000010: fc6b fc3c c8ab 6ebd 37c8 8d3d 84d5 963c
00000020: 5c1f b7bd 56e2 a5bd 1948 b03d 7561 af3d
00000030: 093e 923d d4eb 9cbd 15c1 b33d 9061 28bd
00000040: 80ba 0bbc 6d81 d23d 6b8d 893d 7408 cbbc
00000050: 34dc d33c 33ac 803d 1736 74bd aa6d 27bd
00000060: 97f0 4fbd 8788 ca3d 645b a3bc 6215 3a3d
00000070: e9c3 853d ee5a 653d 809c 09bb 3c06 a73c
00000080: 2a98 c2bd c0f8 d9bd 6288 a5bd 607a 213b
00000090: 70c1 e6bb 5255 2bbd ae73 0a3d 8355 853d
000000a0: 600a 703c 740c bc3c 97fc b53d 2ea2 483d
000000b0: 208b 4dbd 4848 adbc 410e b23d 70fa cebc
000000c0: 4a6b 0cbd 75a3 bcbd 686c 3abd 7ae3 7c3d
000000d0: d7d4 c93d d8ee 92bc 5713 c8bd 82e4 2f3d
000000e0: a186 ddbd 8003 1b3a beb8 783d 2f64 c93d
000000f0: e0b3 d6bc a690 ccbd d8e3 2bbd 80b6 ad3a
00000100: 9eb5 523d d4f5 f43c 3c4c c8bc 27b0 ccbd
00000110: 1c2f 9a3c 2d78 bf3d 5355 d43d a062 bf3b
00000120: d59e 903d 7a35 243d a850 2d3c 08c7 c7bd
00000130: 53f1 c13d 2a36 acbd 125f 15bd 1bb8 a23d
00000140: 7e2a 633d 10b1 5abc de7a a5bd 063b 5d3d
00000150: 9308 93bd 8095 da3a 4237 92bd 3f8c 74bd
00000160: ba25 abbd 783d 3f3c 77b6 c2bd 9a6e 583d
00000170: 8986 8b3d 2979 b13d 89de 60bd 1dee 843d
00000180: d015 a6bc 653f 9cbd 10c0 a5bb 2238 05bd
00000190: f571 b83d 1ba6 94bd 8001 f2bc 9709 d83d
000001a0: 8f5b a63d 70d4 b4bc b89d 273c 3003 febb
000001b0: cde3 c6bd 80dd 75bb 92a3 643d ae5a 6cbd
000001c0: 85f9 d03d 25fb 973d 21de 56bd 0128 ce3d
000001d0: 9c3e 9cbc 9003 babc 3b35 993d e4ad b1bc
000001e0: 5bd6 8a3d b851 dabc 7f5b dbbd 763b 16bd
000001f0: 8cb9 e83c 4ffc cd3d b8b6 5e3c 2695 07bd
00000200: c14d 903d 44e9 b13c 7cc8 4ebd 28e8 33bc
00000210: 2cdb b53c 2dc3 69bd 45a6 d5bd 1df5 933d
00000220: 20ea 293c b05f 213c 2956 df3d 242a bf3c
00000230: 56c8 7b3d a6bc 83bd 76a8 203d 690d ae3d
00000240: 02a3 38bd 1fe4 51bd 7425 fd3c a5d0 b2bd
00000250: e331 bcbd 9488 0fbd d643 40bd 64f6 f03c
00000260: 3806 83bd 8bfd a33d 4de2 973d ba4f 4b3d
00000270: 3b90 c1bd c471 9bbd 5f19 b73d a0ba 5b3b
00000280: 6e98 563d 9058 3abc 27ed ac3d 80fd 753b
00000290: da17 603d e454 1cbd ba04 0f3d db1d bd3d
000002a0: 14b0 73bd a8a1 69bc 0fff 6fbd 688b f0bc
000002b0: c979 823d a856 c9bd b068 683c 9869 25bd
000002c0: 901f 18bc c0d8 793b 36ca 58bd 1010 37bd
000002d0: b05e 1bbc 746c 813c 27c0 b43d 2411 b6bd
000002e0: f286 dabd b701 bb3d 1d5f ae3d f028 89bd
000002f0: 043e d53c 701c dcbc 0317 a53d 5649 293d
00000300: 572c df3d 7e03 773d 2dde 5dbd 7417 7abd
00000310: 372d ad3d 9c1d 8dbd c539 a43d 4ca8 1dbd
00000320: 602d 56bd 3093 d33b e735 893d aac2 4cbd
00000330: db87 bd3d a528 debd b5de bd3d 18c9 9abc
00000340: 06ab 643d c784 b5bd 815e 813d 62ae 693d
00000350: 8ab1 433d 6979 a03d e884 403c cfd8 79bd
00000360: 4432 c63c 4707 963d dc6e f73c 4500 ac3d
00000370: 8903 d23d 5ffa bfbd 5dfe ccbd b9e3 de3d
00000380: d3e7 993d 9fbf 6cbd 9a12 6d3d 1455 a03c
00000390: 55fc 99bd e26d 253d 57fd d53d 48cb 2a3c
000003a0: 7360 823d 7e38 d3bd 86da 083d dc22 b0bc
000003b0: 1c54 9ebd c0a2 84ba 1465 a23c e0b3 fabc
000003c0: d8e5 58bd 1494 43bd 365a 493d 0ded 63bd
000003d0: f098 51bc e867 1ebd c0f4 be3a 22e8 82bd
000003e0: f3a3 cf3d 7c75 89bd 89b0 dc3d 649b 72bd
000003f0: 746a c5bd fc2d e03c 8011 9cbb 8ee2 7c3d

fc3.bias f4 [6]
-0.03732258 -0.04338269 -0.056621347 0.028956227 0.080103956 0.017497845
00000000: 90df 18bd 0cb2 31bd c9eb 67bd 9c35 ed3c
00000010: 8b0d a43d a457 8f3c
