Cleaned LIAR/TunedModels/roberta/roberta-large/NNetwork/Tanh_MSE_adam4940.pth (torch_old, 3774 bytes, 6 tensors)

fc1.weight f4 [24, 12]
000000 9b db ba 40 9e 4a 11 40 d8 d8 8d 40 14 a5 b2 40
       5.8393073 2.2701793 4.43272 5.582651
000010 bf 42 b1 bf 13 67 97 40 ba 14 9f bd 4d f8 0d 3e
       -1.3848494 4.7313323 -0.07767625 0.1386425
000020 1a e4 b0 3d 38 bd 8d be 90 8d 4b 3d 22 de 15 3d
       0.08637257 -0.27683425 0.04969555 0.036588795
000030 59 56 85 40 8f ba 96 c0 56 66 91 c0 e4 81 81 3f
       4.1667905 -4.7102733 -4.543742 1.0117764
000040 c9 18 3e 3f 8f a2 40 40 6c 86 01 3d 7c e9 e2 bc
       0.7425657 3.0099218 0.031622335 -0.027699225
000050 44 e4 ce bd c6 7d a1 3e 50 bd 09 be ba 83 74 3e
       -0.10102132 0.3154127 -0.13451123 0.23878375
000060 1b 91 de be e6 21 37 c0 ba 4f 85 c0 80 8b e9 be
       -0.43470082 -2.861444 -4.1659822 -0.45614243
000070 4b ac 13 bf bb a3 5a c0 6c 40 3a be e4 b6 0f 3d
       -0.57684773 -3.4162433 -0.18188637 0.035086527
000080 42 80 bb 3e c5 f2 a3 bd b8 53 9a 3d bf 45 28 be
       0.3662129 -0.08005289 0.07535499 -0.16432856
000090 23 4c ba 40 83 1e 16 40 88 b3 70 40 30 3a a8 3f
       5.821794 2.3456123 3.7609577 1.3142757
0000a0 9f 3a ad 40 48 19 44 40 9f af 95 bd 7d 96 94 3e
       5.413406 3.064043 -0.07308888 0.29021063
0000b0 68 a6 8f 3c 58 4b 16 3d e6 fb 24 3c 00 e4 b3 3d
       0.017535403 0.036692947 0.010069823 0.08783722
0000c0 68 64 6f 40 82 0f 49 40 6c 9d 8a c0 6a 8c 4d c0
       3.7405033 3.1415715 -4.3317165 -3.2116952
0000d0 1c 85 8a c0 46 2a f7 bf 77 84 45 3d c0 96 e8 3d
       -4.3287487 -1.9309776 0.04822203 0.11356878
0000e0 65 a5 b0 3c 00 7b e4 bb 83 e1 f1 3d 91 21 25 bd
       0.021563241 -0.0069726706 0.11810591 -0.040315215
0000f0 e6 59 c8 be d7 38 f5 bc 59 c1 0d c0 ba 88 53 40
       -0.39131087 -0.02993433 -2.214926 3.3052201
000100 80 ba e4 bf 67 df 21 3e 19 ca a9 3d 3e 39 bf be
       -1.7869415 0.15807877 0.082905 -0.3734836
000110 33 72 bb 3d 1c 5a 1d 3d a8 e6 12 be c9 7f 6e 3e
       0.09152641 0.038416013 -0.14345801 0.23290934
000120 fd 63 c8 bf f8 1f 1a 3f be 35 97 c0 ad 99 72 c0
       -1.5655514 0.6020503 -4.7253103 -3.7906296
000130 2a 60 5c 40 e2 e4 4a 40 bc 59 16 bd 43 09 1a be
       3.4433694 3.17022 -0.03670667 -0.15042596
000140 d5 55 d6 3d d7 80 93 be 7b d1 e4 3d 16 43 65 3c
       0.1046559 -0.28809234 0.11172768 0.013993045
000150 dd 28 c5 c0 cf 28 c3 c0 89 cc 6f c0 6d 50 4f c0
       -6.161238 -6.0987315 -3.7468588 -3.2392838
000160 ab 7b 81 c0 0a b1 99 c0 8c db 38 ba 58 73 ae 3e
       -4.046346 -4.802861 -0.0007051758 0.34072375
000170 84 a5 db 3c 3d cc 4e 3d 71 86 86 3d 18 6e 8e 3d
       0.026812322 0.050487746 0.065686114 0.069545925
000180 86 74 3b c0 41 7a a3 40 f7 f1 9d c0 c7 5a 1d c0
       -2.928987 5.1086736 -4.9357867 -2.4586656
000190 05 e0 e0 3f 08 d2 34 40 31 b1 0c 3e d0 19 06 3e
       1.7568365 2.8253193 0.13739468 0.13095784
0001a0 76 7a ec 3d ad d5 f7 3c c1 f8 50 be 6c 33 a9 3d
       0.11546795 0.030253256 -0.20407392 0.08261761
0001b0 89 b5 ce 3f e4 49 b8 3f 65 07 c1 3f a8 12 ca 40
       1.614915 1.439755 1.5080382 6.3147774
0001c0 9e d3 c3 40 34 7e d0 40 7b c0 1f 3d f3 3b 9e 3e
       6.119582 6.5154057 0.039001923 0.30905113
0001d0 b9 ce bc bd 38 05 50 3d f0 07 de 3d 13 84 59 bd
       -0.09219117 0.050786227 0.10841358 -0.05310447
0001e0 c9 42 34 40 21 ac 9e 40 fd 24 a3 40 0d fe 9a 40
       2.8165762 4.958512 5.098265 4.843512
0001f0 69 c1 a4 40 6d 05 f7 3e ed a0 ab 3d a0 58 98 3d
       5.1486096 0.48246327 0.083803035 0.07438779
000200 f9 56 d8 3d 04 a1 a8 bd 10 17 d7 3d 10 e9 1f bd
       0.10563464 -0.08233836 0.10502446 -0.039040625
000210 a6 68 55 c0 7f 95 90 bf 50 c3 aa be bf da 2c bf
       -3.3345122 -1.1295623 -0.33352137 -0.6752128
000220 33 00 27 c0 43 b2 04 c0 6a aa 92 bd 93 9a ab 3e
       -2.6093872 -2.0733802 -0.0716141 0.33516368
000230 e3 73 03 be 64 ec 8d 3e 06 97 85 3e 45 00 23 bf
       -0.12837176 0.27719414 0.26091784 -0.63672286
000240 c5 6b 79 40 84 df 91 40 e3 f4 43 40 86 7f b5 40
       3.8972027 4.5585346 3.0618217 5.671817
000250 7c 64 b8 40 ae 4c 85 40 13 14 02 bc c7 bb 93 be
       5.762266 4.1656103 -0.007939356 -0.288542
000260 9d 2d 33 bd 08 5e 16 3e 8a 89 23 be ef 9f 45 3c
       -0.043744672 0.14684308 -0.15970436 0.012062057
000270 29 7a e7 be cb 8e d5 bf 25 07 0e c0 7b f7 dd bf
       -0.45210388 -1.6684202 -2.219186 -1.734115
000280 1b af 7b bf 0b b9 a7 c0 78 a7 d4 3d b8 89 90 bd
       -0.98314065 -5.2413383 0.10383505 -0.07057518
000290 c7 fd 47 be 46 a4 3b be 49 71 a1 3d 26 94 8a 3e
       -0.19530402 -0.18324384 0.078829356 0.27066153
0002a0 37 95 94 40 fa 9e 2e 40 0c 2d 89 40 d8 0d c3 3f
       4.6432147 2.7284532 4.286749 1.52386
0002b0 3c 0f 08 3f 4b 86 8c 40 bc 86 f8 bd 09 f0 14 3f
       0.53148246 4.391393 -0.121350735 0.58178765
0002c0 36 8e d6 bd b5 7e 1f 3e 5e c8 ae 3e af c4 13 bf
       -0.10476343 0.15575679 0.34137243 -0.5772199
0002d0 93 08 c9 bf 05 c9 47 40 85 35 24 40 df 2f 4e 40
       -1.5705742 3.1216443 2.5657666 3.2216718
0002e0 33 2d c7 3e 43 b3 5a 40 6b 40 3f 3d 05 05 1f bf
       0.38901672 3.4171913 0.046692293 -0.62117034
0002f0 7d f7 98 3e f2 81 95 3d 0a bd 08 bd 6a 62 0b 3e
       0.2987632 0.07300176 -0.033383407 0.1361176
000300 2a 2e 0a c0 09 8d a5 bf 53 8f af 3d 51 c8 6d 3e
       -2.1590676 -1.2933666 0.08572259 0.23220946
000310 28 f2 90 bd 1f 18 e2 3f e6 0d b8 3c 2f 86 81 bf
       -0.07077438 1.7663611 0.022467565 -1.0119075
000320 06 6b 0b be a9 cc e3 3e 2a 77 ca 3d d4 57 68 3d
       -0.13615045 0.4449208 0.0988601 0.056724384
000330 e8 93 6d c0 8a 7d fd 3f 18 a1 09 bd d3 9f 5c 3f
       -3.7121525 1.9803936 -0.033600897 0.8618137
000340 39 29 aa bf e5 6d 02 40 60 6b 9b be fb f1 ee 3e
       -1.329383 2.0379574 -0.30355358 0.4666899
000350 c5 b2 96 3d 5f 62 47 be dc 5c 6a 3e 23 df 91 be
       0.07358316 -0.1947112 0.22886986 -0.28490552
000360 31 1b 8a be 68 97 e9 3e 57 7b 06 40 b4 c5 73 bd
       -0.2697387 0.45623326 2.101278 -0.059514716
000370 6a 1d 35 c0 e7 27 74 40 d5 20 02 3e a8 f8 c5 be
       -2.8299203 3.8149354 0.12707837 -0.38666272
000380 bc 82 a2 3c 56 60 ad be a1 41 98 3e 10 d5 bf 3e
       0.01983773 -0.3386256 0.2973757 0.3746724
000390 a3 5f 09 40 36 04 b2 be b4 6e 08 bf a8 bd 55 bf
       2.1464622 -0.34768838 -0.5329392 -0.8349252
0003a0 eb 59 11 40 f7 ab be bf 07 ad 26 3e 55 a6 0e bf
       2.2711132 -1.489623 0.16276942 -0.5572255
0003b0 ef 1e 38 3d 9e 65 af bd bc d0 24 3f 39 1d 7f bd
       0.044951376 -0.08564304 0.64381003 -0.06228373
0003c0 3e bb 6e c0 53 42 11 40 5f 99 44 c0 ee 1f 4c 40
       -3.7301784 2.269673 -3.071861 3.1894488
0003d0 4a 2b 3f 3f 3b 31 04 c0 64 fd 00 bd c1 b6 9b 3e
       0.7467543 -2.0655048 -0.031491652 0.30412868
0003e0 d0 a8 53 be aa e9 fe 3d b8 cf a7 3d e5 a5 42 3e
       -0.20669866 0.12446912 0.08193916 0.19008596
0003f0 49 10 2e bf 49 97 61 40 ba 22 c9 bf 28 2d 42 3f
       -0.679936 3.5248587 -1.5713723 0.7585015

fc1.bias f4 [24]
000000 2c 3e 57 3d 89 c6 9f 3d b1 64 6d be 8f 1d 21 bd
       0.052549526 0.078015395 -0.23182942 -0.03933483
000010 86 b7 bf 3c 07 f7 11 be db 5f 17 3d ce 2a 6f bd
       0.02340294 -0.1425439 0.03695665 -0.05839043
000020 c9 a0 63 be 9d 5e 4c 3d 1f 70 0e 3e b1 f9 6c 3e
       -0.22229303 0.049894918 0.13909958 0.23142125
000030 ab a7 06 bd da f6 80 bd 5a 84 07 bd 1c 2e 96 bd
       -0.032874744 -0.06297083 -0.033085205 -0.073330134
000040 c4 5a 02 3f 2b 8c 53 3e 4b 25 7e bd 58 a1 9a be
       0.5091975 0.20658939 -0.062047284 -0.3020122
000050 0a 15 a3 bd f3 3c 1f 3d d3 c8 f6 3d 21 b8 53 be
       -0.07962997 0.038876485 0.12050023 -0.20675708

fc2.weight f4 [12, 24]
000000 89 ad b5 bd d1 d7 68 3c c0 60 21 3e 7e 6f 94 3f
       -0.0887099 0.014211611 0.15759563 1.1596525
000010 85 c7 a2 be 5f 49 85 3e f7 bd 1a bf c6 72 bb 3e
       -0.31792846 0.2603254 -0.60446113 0.36611003
000020 ed bb 63 3e 5c a6 8a be 36 bb 8d bf cf 16 cd be
       0.22239657 -0.27080047 -1.1072757 -0.40056464
000030 85 38 ce be 3f c3 a0 3e 19 03 e5 3e 19 23 88 3e
       -0.40277496 0.3139896 0.44728926 0.26589277
000040 04 e1 b3 be 13 a9 17 bf c9 7a 3d 3d 45 3e 16 3e
       -0.3513261 -0.5924236 0.046259675 0.14672191
000050 03 f2 7f bc 6b d7 f1 be 46 09 d1 3f ca d6 ff be
       -0.015621665 -0.47234663 1.6330955 -0.4996856
000060 91 e4 30 be 7c e9 d9 be ae e6 c4 3e ab 08 d7 3e
       -0.17274691 -0.42560947 0.38457245 0.419988
000070 73 72 d4 bb bd fc 0e 3f b3 91 10 3f 81 e5 6f 3e
       -0.00648337 0.558544 0.5647232 0.23427393
000080 ab c1 a2 be 5b 97 49 3f 05 72 08 bf 67 25 98 be
       -0.31788382 0.78746575 -0.5329898 -0.29716036
000090 5c da 02 be 1a 10 16 bf 6f b9 5a 3d 23 60 41 be
       -0.1277861 -0.5861832 0.0533995 -0.1888433
0000a0 0d 83 5e 3e 77 c6 80 be 37 88 2f 3e 4e 00 c8 3b
       0.2172968 -0.25151417 0.17141806 0.006103552
0000b0 85 ac 14 be ca f8 bf bd 29 aa b1 bd 7b c3 2d 3f
       -0.14518936 -0.093736246 -0.086750336 0.67876405
0000c0 50 66 c5 bf f8 0f 94 bf d7 6d de 3e a6 98 b2 be
       -1.5421848 -1.1567373 0.43443176 -0.34882087
0000d0 fd ea 0d bf 5f 4f 13 bf e0 7a c1 3f 6d 3b 92 3e
       -0.5543669 -0.57542986 1.5115623 0.28560963
0000e0 01 f6 02 3f 7b e1 7d be 0a c3 2e 3f c5 de 49 be
       0.5115662 -0.24793045 0.68266356 -0.19713886
0000f0 aa 75 8f 3e 59 2d a5 3e 43 9d 33 3e 85 dd 66 bf
       0.28019458 0.3226116 0.1754046 -0.9018176
000100 03 e4 ef be b8 ac 95 be a8 e6 95 bc a7 36 93 3f
       -0.46853647 -0.29233336 -0.018298462 1.1501054
000110 04 d1 b7 3e 02 08 f9 3e d6 56 38 be 55 17 23 bf
       0.35901654 0.48638922 -0.18001875 -0.63707477
000120 14 3b 07 be fa 5b 15 be ca 77 7e 3e 3e 76 88 bd
       -0.1320613 -0.14585868 0.24850383 -0.06663178
000130 d8 c9 b9 bd 91 4b 5f 3e 04 65 13 be 34 6a 6c 3f
       -0.09071702 0.2180617 -0.14394003 0.92349553
000140 69 83 d6 3d 17 35 4f 3f 20 3a 66 be 4d 71 ac be
       0.10474283 0.80940384 -0.2248311 -0.33680192
000150 95 0c 36 3f b5 aa 9e bd 20 f0 8e be 40 0a 60 be
       0.7111295 -0.077474035 -0.27917576 -0.2187891
000160 22 41 e4 3e 25 27 de 3e 40 d7 fe bd db 11 19 3f
       0.44580942 0.4338924 -0.124433994 0.5979287
000170 8d 95 94 be b6 fd a0 be b9 28 dc 3d 03 91 1c bc
       -0.29020348 -0.31443566 0.10749955 -0.009556058
000180 35 6b f2 bf 3d fd 0a bf a1 a6 1c c0 9d 4c 75 40
       -1.8938967 -0.5429266 -2.4476702 3.832801
000190 03 c8 a6 bf 2a 19 c1 bf bb e6 80 40 2c 3a 78 c0
       -1.3029789 -1.5085804 4.0281653 -3.8785505
0001a0 75 45 ca 3f 85 c0 2d 40 2e ad e1 3f ed 49 82 bf
       1.5802447 2.7148755 1.7630975 -1.017881
0001b0 54 8d 34 40 ec 52 b6 bf 75 b7 bc 3f 05 a9 a3 3e
       2.821126 -1.4244056 1.4743487 0.3196489
0001c0 11 1a 39 3d fc 37 cd bd a9 19 93 3e 6f f0 4f 3e
       0.045190874 -0.10020444 0.28730515 0.20306562
0001d0 78 33 84 bf ae a3 97 be 2c fc 03 c0 23 11 ba 3d
       -1.0328207 -0.29617065 -2.0622663 0.090853
0001e0 96 22 8e bf fd 7b 65 40 2a 32 0a 40 01 20 72 bf
       -1.1104305 3.5856926 2.1593118 -0.94580084
0001f0 96 76 83 40 29 74 68 3e e3 82 2a 40 1d 68 f4 3f
       4.108226 0.22700562 2.6642387 1.9094273
000200 8c 58 cd bd 3d 83 ed bf 6f ba 78 c0 92 e5 37 3f
       -0.100266546 -1.8555676 -3.886379 0.7183467
000210 70 58 2c c0 64 71 04 3f 2d e8 f6 bd 99 a3 e1 bf
       -2.6928978 0.5173552 -0.12056003 -1.7628051
000220 93 4e 68 3e e2 cc 22 bf a6 26 22 be 8b 2a 25 be
       0.22686224 -0.63593876 -0.15835056 -0.1612951
000230 29 57 be bf fe a7 7a be 2e 74 ac 3f 58 94 45 3f
       -1.4870349 -0.24478146 1.3472955 0.7717948
000240 62 32 46 c0 27 be 98 bf 2e 3a 07 40 3e 94 64 c0
       -3.0968251 -1.193303 2.112926 -3.571548
000250 15 3f 8a 40 5e fc f3 ba 30 f9 d1 3f 0c b1 fd 3f
       4.3202004 -0.001861464 1.6404171 1.9819655
000260 2b 52 1f 40 23 de 15 c0 e8 d3 ce bf da 4c 6e 3f
       2.4893901 -2.3416831 -1.6158419 0.93086016
000270 8f e7 c4 bf 5f 25 ea 3f c0 ad 10 c0 68 d9 0c bf
       -1.5383166 1.8292655 -2.2606049 -0.55019236
000280 d9 e6 6a 3e f1 46 c7 3e af bb 3d bf 80 d1 44 bf
       0.22939624 0.38921311 -0.7411451 -0.7688217
000290 b3 5c 0b 40 0c 94 22 40 be 03 52 3f a8 35 21 bf
       2.177533 2.540286 0.8203696 -0.629725
0002a0 12 ff 72 40 af 48 3e bf 86 62 f5 bf 3f c6 41 bf
       3.7968183 -0.74329656 -1.9170692 -0.75693125
0002b0 d9 78 00 40 f4 8c 9a 3f 41 e7 60 bf c9 6b 8b c0
       2.007376 1.2074265 -0.87852865 -4.3569074
0002c0 f4 a6 94 3f 70 08 52 40 ff 95 99 3f 0b e4 0c bf
       1.161345 3.281765 1.19989 -0.55035466
0002d0 4b 46 1c 40 63 30 cd bf 21 a9 2e 40 73 2d 0a 40
       2.4417903 -1.6030391 2.7290728 2.159024
0002e0 6f 5f 77 be ac b6 f3 3e 51 01 a2 3f 02 49 2f bf
       -0.24157499 0.47600305 1.2656652 -0.68470776
0002f0 ee 6b 3c 3f a7 99 72 3f ad 4f 9e bf 84 8b 71 3f
       0.7360219 0.94765705 -1.2368065 0.9435351
000300 17 75 eb 3e 9f 09 c3 3f ce 54 12 be cb 4e 08 40
       0.4598777 1.5237311 -0.14290163 2.1298091
000310 c2 4d a8 3f 52 9a 7c be 89 2f ba 3c f5 0b 85 bf
       1.314873 -0.24668244 0.022727745 -1.0394274
000320 d9 41 ff be d0 d0 2b bf bd 0c 23 bf 80 b2 5d bf
       -0.49854925 -0.671155 -0.6369131 -0.86600494
000330 5a a5 f8 be 06 49 3a 3d 68 30 7f 3c f7 ab 72 3e
       -0.48563653 0.045479797 0.015575506 0.23698412
000340 a8 27 6f 3d d0 77 88 be 38 3c c5 bd 30 c7 bb 3e
       0.05838743 -0.2665391 -0.096306264 0.36675406
000350 da ea 78 bf d5 24 67 be d5 64 dc be 15 7c aa bf
       -0.97233355 -0.22572644 -0.4304568 -1.3319117
000360 d8 7d f0 3f 0a 5f b2 bf 3c c2 f3 bf a0 8c 87 40
       1.8788404 -1.3935254 -1.9043651 4.235916
000370 83 e9 95 3f a0 70 0b bf c2 14 4a c0 51 be a9 c0
       1.1711887 -0.5446873 -3.157517 -5.304482
000380 14 98 62 3d 27 40 b4 bf e9 39 56 40 39 48 d0 bf
       0.055320814 -1.4082078 3.3472846 -1.6272041
000390 bb c5 02 40 45 77 96 3f 79 7b 80 3f 35 02 07 3f
       2.0433185 1.1755148 1.0037681 0.5273774
0003a0 dc 16 bc bd 95 f7 20 bf 6d c5 e1 be 10 d2 ce 3e
       -0.091840476 -0.6287778 -0.44095936 0.4039464
0003b0 a6 c3 2a bf 30 8a 56 3e 01 1d db bf da 78 e6 bf
       -0.66704786 0.20951152 -1.7118226 -1.8005631
0003c0 06 ce 1e bf 3c 19 50 bf 16 33 90 3f ab fc 3d 3f
       -0.62033117 -0.81288505 1.126559 0.74213666
0003d0 12 7b 7e bf 70 0b e7 3d 08 0d 12 3f 14 49 75 3f
       -0.9940654 0.112814784 0.57051134 0.95814633
0003e0 99 54 90 bd d8 8b 34 bf e2 5f cc 3f 43 27 6b 3e
       -0.07047386 -0.70525885 1.5966761 0.22964196
0003f0 a2 fc 83 bf da c2 8a 3f 5c 76 2e 3f 46 42 f7 3d
       -1.0311472 1.0840714 0.6814935 0.120731875

fc2.bias f4 [12]
000000 0a c4 be bd bf 6f 15 be 3d 19 cb bd b7 1b 77 3c
       -0.09314735 -0.14593409 -0.09916923 0.015082291
000010 32 41 e2 3d 78 b6 01 bd f4 fa 8b 3e e7 bf 5b 3d
       0.11047591 -0.031668156 0.273399 0.05364981
000020 bd d7 03 3f 6c 75 bd ba d4 23 c2 bd 13 8a 11 3c
       0.51501065 -0.001445455 -0.0947949 0.008883017

fc3.weight f4 [6, 12]
000000 3f 79 ce 3f e3 76 14 3a de 74 a1 3d 1d 40 65 be
       1.6130751 0.00056634675 0.07883619 -0.22387739
000010 7e 3f fd be ed 20 21 40 eb c9 0c bf 2a 5d 0a be
       -0.49462503 2.5176346 -0.549956 -0.13512102
000020 83 40 ac 3f aa 4d d9 3f 41 1a 7a be c9 d0 00 3f
       1.3457187 1.6976826 -0.24424078 0.5031858
000030 e5 16 38 bf db 3e 63 3d ae a8 0b 3f d9 37 41 bf
       -0.71909934 0.055479866 0.5455426 -0.7547584
000040 a6 ae dc 3e 1f 98 b2 be 0e 02 46 40 ec ba ba 3f
       0.43101996 -0.34881684 3.0938754 1.4588294
000050 79 40 01 bf 33 8e 98 3f cb 9e 1c bf f4 4c 09 bf
       -0.50489 1.1918396 -0.611798 -0.53633046
000060 15 c8 eb be fb a7 ae be cd 6f 05 bf a8 e5 8a 3a
       -0.46051088 -0.34112534 -0.5212372 0.0010597007
000070 88 cc 7c be ab 67 da bf 92 08 a9 bf fd 4b 3c bf
       -0.24687397 -1.7062887 -1.320574 -0.7355345
000080 30 b3 ae be 62 ce 89 3f 29 19 b2 3f cf 66 23 c0
       -0.34121084 1.0766108 1.3913928 -2.55315
000090 06 7c a3 bb ce c0 5a bf 2a 0e cc be 15 da 61 3f
       -0.00498915 -0.85450447 -0.39854556 0.8822339
0000a0 fe df 54 c0 47 2c 92 bf 11 86 2e be 66 86 fb 3e
       -3.3261714 -1.1419762 -0.1704333 0.49125975
0000b0 dc a6 f1 be 3f 06 ae bf 0e 7e 8f be d3 66 0f 40
       -0.47197616 -1.3595656 -0.2802586 2.240651
0000c0 29 61 59 3d 6a 68 de bd ee 6d 11 3f a6 66 14 3f
       0.053071175 -0.10859759 0.56808364 0.5796913
0000d0 81 14 fa 3f 32 72 30 bf 41 cb c4 3d 54 60 52 c0
       1.9537507 -0.6892425 0.0960908 -3.2871294
0000e0 44 7c f1 3e f1 a5 ae be ee 82 bc bd 10 0b b4 3f
       0.4716512 -0.34110978 -0.0920466 1.4065876
0000f0 87 55 85 be cb 64 ab 3f 42 41 37 be b4 02 07 bf
       -0.26041815 1.3390135 -0.17895988 -0.527385
000100 65 d4 b8 3f 55 96 9c 3f 95 dc 76 bf f7 68 0b 40
       1.4439818 1.2233378 -0.9643033 2.1782815
000110 7a 6a a0 be 06 9b 20 c0 5c 98 4e be 6d 74 80 bf
       -0.31331235 -2.5094619 -0.20175308 -1.003553

fc3.bias f4 [6]
000000 37 e0 fd 3e 32 c6 11 3d 7d c8 1b 3e 34 17 be 3e
       0.49585125 0.035589404 0.15213199 0.37127078
000010 cf 53 84 bd 84 d0 26 3f
       -0.06461298 0.6516192
