ReputationOnly/Sigmoid_linearMSE_adam_3679.pth (torch_old, 3197 bytes, 6 tensors)

fc1.weight f4 [24, 6]
0	0xbf059917	-0.5218672
1	0x3eb8331f	0.35976502
2	0x3e9597db	0.2921742
3	0x3ea97bc8	0.3310225
4	0xbee77548	-0.45206666
5	0x3e684723	0.22683387
6	0x3e9f70ae	0.31140655
7	0x3ef04773	0.4692951
8	0x3dd59b71	0.10430039
9	0x3ef31ce0	0.47482967
10	0xbe86e922	-0.2634974
11	0xbdca6a55	-0.098835625
12	0xbea36255	-0.3191096
13	0x3f413d0e	0.7548379
14	0xbf16436e	-0.5869664
15	0xbdc32630	-0.09528768
16	0xbf0642d5	-0.5244573
17	0x3f6704b1	0.90241534
18	0xbefd49c1	-0.49470332
19	0xbe2c6c8a	-0.1683828
20	0x3cf1cf33	0.029517746
21	0x3f461418	0.7737441
22	0xbe925cce	-0.2858643
23	0x3e873fef	0.26415965
24	0x3ec8678d	0.39141503
25	0x3e95014f	0.2910256
26	0xbf160c42	-0.58612454
27	0xbf90fdfa	-1.1327507
28	0x3f0702f2	0.5273887
29	0xbcc943a4	-0.024568386
30	0x3eefe4dd	0.46854296
31	0x3f39dc0b	0.72601384
32	0x3f3e43f0	0.74322414
33	0x3e824128	0.25440335
34	0xbf58a16d	-0.84621316
35	0xbed0cbd8	-0.4078052
36	0x3d30a485	0.043125648
37	0xbeae372d	-0.3402647
38	0xbd7cb133	-0.061692428
39	0x3de3c377	0.11121266
40	0x3f098ce1	0.5373059
41	0xbe25e8a6	-0.1620203
42	0x3d93073f	0.071791165
43	0xbe734e0f	-0.23760246
44	0xbf3e5968	-0.74355173
45	0x3f7428e2	0.9537488
46	0xbe88d610	-0.26725817
47	0x3f0df0aa	0.5544535
48	0xbf03fc16	-0.5155653
49	0xbecee0a6	-0.40405768
50	0x3eeb40f0	0.4594798
51	0xbf0836d2	-0.5320865
52	0x3f3352a3	0.7004797
53	0x3f030f1a	0.5119492
54	0x3f382339	0.71928746
55	0x3f47c167	0.78029484
56	0x3e6342fd	0.22193523
57	0xbecca4b8	-0.3996942
58	0x3d884dec	0.066554874
59	0xbe9cd85f	-0.30633828
60	0xbee97f33	-0.45604858
61	0x3eac5971	0.33661988
62	0xbe1b8942	-0.15189078
63	0x3e42bebb	0.1901807
64	0xbe7b26ef	-0.2452657
65	0x3e80ff65	0.2519485
66	0x3ea60c2a	0.32431155
67	0xbf2be92d	-0.67152673
68	0x3eb08005	0.3447267
69	0x3f146e7d	0.5798109
70	0x3d05925d	0.032610286
71	0xbeeaa6b2	-0.45830303
72	0x3d488ae4	0.04896058
73	0x3f7f0823	0.9962179
74	0xbfac8e22	-1.3480875
75	0xbf63fc31	-0.8905669
76	0x3e7d3dc5	0.24730594
77	0x3f831c53	1.0243019
78	0x3e6eb015	0.23309357
79	0xbd4c33f4	-0.049854234
80	0xbe8128d8	-0.25226474
81	0x3ef4e93b	0.4783419
82	0x3e2d2d42	0.16911796
83	0xbf274e95	-0.6535428
84	0xbe68c126	-0.2272993
85	0xbe84e5fc	-0.25956714
86	0x3efc4305	0.49269882
87	0x3f14490e	0.5792397
88	0x3d92fbcd	0.071769334
89	0x3f0452ff	0.5168914
90	0xbebe0cad	-0.37119046
91	0xbe837fc6	-0.2568342
92	0xbf32a6e8	-0.6978593
93	0x3cf20e1b	0.029547742
94	0x3f08606b	0.5327212
95	0xbe3ddbb5	-0.18540843
96	0xbf0204ba	-0.5078846
97	0xbe23c36d	-0.15992518
98	0xbf335e3e	-0.7006568
99	0x3d7f0daa	0.06226889
100	0x3f5f79de	0.8729533
101	0x3edbfdd1	0.42967084
102	0x3e593f2e	0.21215507
103	0xbed18b7f	-0.4092674
104	0x3f11e6a0	0.5699253
105	0xbea11f6c	-0.31469285
106	0x3f0327ff	0.51232904
107	0xbebde6b1	-0.37090066
108	0x3f37ecc2	0.7184564
109	0xbd1d6c7a	-0.03843353
110	0xbd5db1c4	-0.05412461
111	0xbf397323	-0.7244131
112	0x3f0f9653	0.5608875
113	0x3f3ddf56	0.7416891
114	0xbea137f0	-0.3148799
115	0xbe88828b	-0.26662096
116	0x3ecaa491	0.3957868
117	0x3ea8075a	0.3281811
118	0x3f391080	0.722908
119	0x3e83982d	0.25702038
120	0xbeb664b6	-0.3562371
121	0xbd959a92	-0.073048726
122	0x3e8d1766	0.27556914
123	0xbec6f707	-0.38860342
124	0x3f14963f	0.5804176
125	0x3ea18b88	0.31551766
126	0x3f294388	0.6611867
127	0x3eae4625	0.3403789
128	0xbf475277	-0.77860206
129	0xbe9ef2b8	-0.31044555
130	0x3f446cc7	0.7672848
131	0xbcb18ef2	-0.021674607
132	0x3db0b79c	0.08628771
133	0xbd4f8fe1	-0.050674323
134	0xbea0520d	-0.313126
135	0xbfb06405	-1.3780524
136	0x3f45054c	0.7696121
137	0x3fc1e10b	1.5146803
138	0x3ea4da28	0.3219769
139	0x3e4bea64	0.19913632
140	0x3e50eb4e	0.20402262
141	0x3e79c938	0.24393165
142	0x3e24ead3	0.16105203
143	0x3e592f23	0.21209387

fc1.bias f4 [24]
0	0xbe3291b0	-0.17438388
1	0xbe59bf17	-0.21264301
2	0xbde9232c	-0.11383662
3	0x3db91918	0.090379894
4	0x3de8c532	0.11365737
5	0xbda55b2e	-0.08074032
6	0xbeb423b6	-0.35183495
7	0xbec06d9a	-0.3758362
8	0xbe82f145	-0.255747
9	0x3e19b9f9	0.15012349
10	0x3e882dba	0.26597387
11	0x3e21a9c9	0.15787424
12	0xbea83105	-0.328499
13	0x3d629e92	0.055327006
14	0xbeb6ea49	-0.3572562
15	0x3eec5b11	0.46163228
16	0xbca9c4cd	-0.020723725
17	0xbe989f47	-0.2980902
18	0xbf146307	-0.57963604
19	0xbf1626d6	-0.5865301
20	0xbe952a70	-0.2913394
21	0xbf32ad90	-0.69796085
22	0xbe3cb0d8	-0.18426836
23	0x3f4fd57b	0.8118512

fc2.weight f4 [12, 24]
0	0x3eacdae2	0.33760744
1	0x3ed91be2	0.42404085
2	0x3e6625ca	0.22475353
3	0x3e46b7ef	0.19406103
4	0x3e752088	0.23938191
5	0x3efe7637	0.49699566
6	0x3eb487e5	0.3525993
7	0x3dff002b	0.12451204
8	0x3e50f5d2	0.20406273
9	0x3e5c74cb	0.21528928
10	0x3e1de25e	0.15418383
11	0x3e8f3b4e	0.27974933
12	0x3e785c14	0.24253875
13	0x3f20b01f	0.6276874
14	0x3b499248	0.0030757356
15	0x3ed481e3	0.41505346
16	0xbdce2b3c	-0.1006684
17	0x3ddec808	0.10877997
18	0x3e46517f	0.19367026
19	0x3dce00cf	0.10058748
20	0x3e9c1ddf	0.3049154
21	0x3e9072f9	0.28212717
22	0x3c66b112	0.014080303
23	0x3d7c69d3	0.06162436
24	0x3db405e5	0.08790187
25	0xbdccb4d7	-0.0999543
26	0x3ee03ebe	0.43797868
27	0x3ee61fdc	0.44946182
28	0xbcf2c602	-0.029635433
29	0xbf814e74	-1.0102067
30	0x3dc52f38	0.09628147
31	0x3e8bdb51	0.27315763
32	0x3eedbd58	0.4643352
33	0xbe6c0d16	-0.23051867
34	0x3e68430b	0.22681825
35	0xbe8373de	-0.25674337
36	0x3e4851e1	0.19562484
37	0xbf5d7814	-0.8651135
38	0x3ec32fc0	0.38122368
39	0x3ec66e7c	0.38756168
40	0x3ecebb2a	0.4037717
41	0xbf66769c	-0.90024734
42	0x3e0cf66e	0.1376588
43	0x3e217654	0.15767795
44	0x3e998d7e	0.29990762
45	0xbd713bdf	-0.05889499
46	0x3e4bece0	0.1991458
47	0xbd1291b9	-0.035783503
48	0xbf56eb0f	-0.8395242
49	0xbf0cae69	-0.5495363
50	0xbf3a2748	-0.7271619
51	0x3f01c2a6	0.50687635
52	0xbea94e36	-0.33067483
53	0xbfa0a97e	-1.2551725
54	0x3f6c7a85	0.9237445
55	0xbd1b3809	-0.037895236
56	0x3f93b795	1.15404
57	0xbf7d4f70	-0.98949337
58	0xbdcc1c12	-0.099662915
59	0x3f1e4194	0.61818814
60	0xbf0552ce	-0.52079475
61	0xbed87e1d	-0.42283717
62	0x3e91cb93	0.28475627
63	0x3f8ba466	1.0909545
64	0x3f1b9017	0.6076674
65	0x3f656b08	0.8961644
66	0xbcd3632d	-0.025804127
67	0x3fa9e3ae	1.3272607
68	0x3f52d191	0.8235102
69	0xbe339d3a	-0.17540446
70	0xbe02e79b	-0.12783663
71	0xbdf46c62	-0.11934735
72	0x3e0caf5d	0.13738771
73	0x3e331ac0	0.17490673
74	0x3eac208a	0.33618575
75	0x3dea9253	0.114536904
76	0x3df51c7f	0.11968326
77	0x3e1f7a36	0.15573964
78	0x3d20ad09	0.03922752
79	0xbd9bc0bc	-0.076051205
80	0x3e1b5608	0.15169537
81	0x3dd2fba1	0.10301901
82	0x3e6b41f8	0.22974384
83	0x3e666f11	0.22503306
84	0x3df5041d	0.11963675
85	0x3ee3be54	0.44481146
86	0x3e800813	0.2500616
87	0x3d4c5262	0.049883254
88	0x3e29333b	0.16523449
89	0x3ea0a7f3	0.31378135
90	0x3c31a842	0.010843338
91	0x3e95f52c	0.29288614
92	0x3e19c275	0.15015586
93	0x3ea83e67	0.3286011
94	0x3e2c3884	0.16818434
95	0x3e8e5ae7	0.27803728
96	0xbdd7289c	-0.105057925
97	0x3e34cb30	0.17655635
98	0xbe523ba6	-0.20530567
99	0xbfbc5f0e	-1.4716508
100	0x3f62906e	0.8850163
101	0x3faf6b98	1.370471
102	0xbe87e1cd	-0.2653946
103	0xbf91c6cf	-1.1388797
104	0xbec38773	-0.38189277
105	0x3fb14a5f	1.3850821
106	0xbecdc155	-0.40186563
107	0xbec23a3e	-0.3793506
108	0x3cd7f714	0.026362933
109	0x3e8da13d	0.27662078
110	0xbebe9633	-0.37223968
111	0xbf6cdc1e	-0.9252337
112	0xbf385f8c	-0.7202079
113	0x3f909701	1.1296083
114	0x3e8c7595	0.27433458
115	0xbf7c9fce	-0.9868134
116	0x3e1fee41	0.1561823
117	0x3e5bc2eb	0.21461074
118	0x3eca0009	0.39453152
119	0x3db02260	0.086003065
120	0x3e1f780f	0.15573142
121	0x3e195bc7	0.14976417
122	0x3ea4fce9	0.32224205
123	0xbf5adca7	-0.8549294
124	0x3f0a857a	0.5410992
125	0x3e54fd5c	0.20799774
126	0x3dc6c785	0.09706024
127	0xbea16626	-0.31523246
128	0x3e87f9a7	0.26557657
129	0x3de45dc1	0.11150695
130	0x3d4fafa3	0.05070461
131	0xbf0087be	-0.50207126
132	0x3e9d1cd3	0.30686054
133	0xbf08ac08	-0.533875
134	0xbd4e23b1	-0.050327007
135	0xbf9f4f48	-1.244607
136	0xbecd6d79	-0.40122584
137	0x3ecd4352	0.40090424
138	0x3f18b906	0.59657323
139	0xbea19c77	-0.31564686
140	0x3eaaac0c	0.33334386
141	0x3ed61a96	0.41817158
142	0x3f1a9a9b	0.6039216
143	0x3e65082b	0.22366397
144	0x3ee7efa0	0.45300007
145	0xbe277000	-0.16351318
146	0xbe0ec678	-0.13942897
147	0x3f0fb803	0.56140155
148	0xbeb4aa7e	-0.35286325
149	0xbf659575	-0.8968118
150	0x3ea792b6	0.3272912
151	0x3d06209c	0.032745942
152	0x3eda275c	0.42608154
153	0xbdc31298	-0.09525031
154	0x3e8531ff	0.26014706
155	0x3f172374	0.5903847
156	0xbebffdfd	-0.37498465
157	0xbdd9468f	-0.10609161
158	0x3ecca990	0.39973116
159	0x3dca98ba	0.098924115
160	0xbd47e573	-0.048802804
161	0x3dcb615b	0.099306785
162	0xbd8704e0	-0.06592727
163	0x3f0ad7bc	0.54235435
164	0x3df1b1e2	0.118015066
165	0xbe461651	-0.1934445
166	0xbe92836b	-0.2861589
167	0xbe4d2d3e	-0.2003679
168	0xbe1ad63d	-0.15120788
169	0x3ef952c5	0.4869596
170	0xbf1a5977	-0.6029276
171	0x3de7d7ae	0.113204345
172	0xbf1d64af	-0.61481756
173	0x3f1c1506	0.6096958
174	0xbde65436	-0.11246531
175	0x3d514f7e	0.0511012
176	0xbee44fce	-0.44592136
177	0xbd7cfd7a	-0.06176517
178	0xbe941d3b	-0.2892855
179	0x3fb6ee5d	1.4291493
180	0xbedd51e6	-0.43226546
181	0x3faeae5e	1.3646963
182	0x3e03d792	0.12875202
183	0xbeff3888	-0.49847817
184	0xbf03199a	-0.5121094
185	0x3f0f0ec8	0.5588193
186	0xbe142b03	-0.14469533
187	0xbe85e447	-0.26150724
188	0xbf255910	-0.64589024
189	0xbeb071c7	-0.34461805
190	0xbee7ec18	-0.45297313
191	0x3d0ec45e	0.03485524
192	0x3fdfdda4	1.7489514
193	0x3e6f4b48	0.23368561
194	0x3ee5b5d1	0.44865277
195	0x3f868e82	1.051224
196	0xbf4fc402	-0.8115846
197	0x3f1f0ffc	0.62133765
198	0xbea3c986	-0.31989688
199	0x3d5e4066	0.054260634
200	0xbdc1e70e	-0.09467898
201	0xbeb36e0a	-0.3504489
202	0x3f1ef349	0.62089974
203	0xbe3ac042	-0.18237403
204	0xbdbe626b	-0.092961155
205	0xbed3a51c	-0.41336906
206	0x3e635627	0.22200833
207	0xbf50e39c	-0.81597304
208	0xbeac974a	-0.33709174
209	0xbf497235	-0.7868989
210	0xbe9dd63f	-0.3082752
211	0x3e685fe2	0.22692826
212	0x3de174bd	0.11008594
213	0xbee70ef3	-0.45128593
214	0xbef6dad1	-0.4821382
215	0xbe43168c	-0.1905157
216	0xbe075e93	-0.13219671
217	0x3deb8037	0.114990644
218	0x3d9a4211	0.075321324
219	0x3cf8feac	0.030394875
220	0x3e192095	0.14953835
221	0xbf888ea5	-1.0668532
222	0x3eabd2c7	0.33559248
223	0x3ec7635c	0.38942993
224	0xbeab3317	-0.33437416
225	0x3d838f08	0.064237654
226	0x3e8a90a5	0.2706348
227	0x3e5c2a3d	0.21500488
228	0x3eb3763c	0.35051143
229	0x3f5e03ad	0.8672436
230	0xbe319710	-0.17342782
231	0x3f2c4e48	0.6730695
232	0x3e78077b	0.24221604
233	0xbec2a00f	-0.3801274
234	0xbcc7ec9c	-0.024404816
235	0xbda8bec1	-0.082395084
236	0xbe1397f3	-0.14413433
237	0x3f0196fc	0.5062101
238	0xbe2b50ef	-0.16730092
239	0x3d161e69	0.036650095
240	0x3e21b0da	0.1579012
241	0x3e7567be	0.23965356
242	0x3e8ff9fa	0.28120404
243	0x3dcca01f	0.09991478
244	0x3e8a1e43	0.26976213
245	0x3e2a7fca	0.1665031
246	0x3dea6b6d	0.11446271
247	0x3e9265b4	0.28593218
248	0x3db74fa5	0.08950738
249	0x3e99362f	0.2992415
250	0x3dedf55e	0.11619066
251	0x3cb6625a	0.022263695
252	0x3eb7fff3	0.3593746
253	0x3ef3d282	0.47621542
254	0x3e3ba956	0.18326315
255	0x3eb10268	0.34572148

fc2.bias f4 [12]
0	0x3eab3ee1	0.3344641
1	0xbe36f26c	-0.17865914
2	0xbeb84bc9	-0.3599532
3	0x3da01399	0.07816238
4	0x3e410edd	0.18853326
5	0x3d8f3f4f	0.06994497
6	0x3df49f5f	0.1194446
7	0xbd86beba	-0.06579347
8	0xbd47823c	-0.048708186
9	0xbd06e807	-0.032936122
10	0x3ea814ff	0.3282852
11	0x3d5a4e51	0.053297345

fc3.weight f4 [6, 12]
0	0xbccd330b	-0.025048753
1	0xbf411103	-0.7541658
2	0xbf2edd2f	-0.6830625
3	0xbed0e0cd	-0.4079651
4	0x3f03ce34	0.51486516
5	0xbdcc5828	-0.09977752
6	0xbf397a34	-0.7245209
7	0x3edbd86d	0.42938557
8	0xbf3276c6	-0.69712484
9	0xbea65249	-0.32484654
10	0xbe4a8a6a	-0.19779363
11	0x3ea8c970	0.32966185
12	0xbe069158	-0.13141382
13	0xbe563f68	-0.20922625
14	0xbf4d2b9e	-0.8014468
15	0xbe44a8b4	-0.1920498
16	0x3ee018e3	0.43768987
17	0xbd33885b	-0.04383121
18	0xbeee4573	-0.4653736
19	0xbecea46f	-0.40359828
20	0x3eb5042e	0.3535475
21	0xbe0a01c4	-0.13477236
22	0xbe10e118	-0.14148366
23	0xbe93ea3a	-0.28889638
24	0xbf16c39c	-0.58892226
25	0xbeb5ec0a	-0.35531646
26	0xbc3922ff	-0.011299848
27	0xbe699052	-0.2280896
28	0x3d979b10	0.07402623
29	0xbe202571	-0.15639283
30	0x3ca4535e	0.020059284
31	0x3e964ef6	0.29357117
32	0x3e5e6262	0.21717218
33	0xbf04adc8	-0.5182767
34	0xbed8cab3	-0.42342147
35	0x3dac47c4	0.08412126
36	0xbed0e5dd	-0.40800372
37	0xbe60a888	-0.2193929
38	0x3de4e0bd	0.11175678
39	0xbecd22d3	-0.4006563
40	0xbf713972	-0.9422828
41	0xbf288871	-0.65833193
42	0xbd633c9f	-0.055477735
43	0x3ee04830	0.43805075
44	0x3ec8dd6a	0.39231426
45	0x3cfc24b6	0.030779224
46	0xbea61407	-0.32437155
47	0x3b103cd0	0.0022008903
48	0xbe9ecb95	-0.31014696
49	0xbda15e23	-0.07879283
50	0x3f4e4c9a	0.80585635
51	0xbe93e83e	-0.28888124
52	0xbf060eca	-0.52366316
53	0xbe9a0334	-0.3008057
54	0xbda33733	-0.07969513
55	0xbf2990a2	-0.6623632
56	0xbf507e66	-0.8144287
57	0x3cfa835b	0.030580213
58	0xbdd18709	-0.10230834
59	0x3c4b9aba	0.012427026
60	0xbeab5353	-0.3346201
61	0x3eea02a3	0.45705137
62	0x3e5aa725	0.21352823
63	0xbea44e15	-0.32090822
64	0xbf5a5bb5	-0.85296184
65	0xbe341ebf	-0.17589854
66	0xbe96c33c	-0.29445827
67	0xbf73ce88	-0.95237017
68	0xbc928b4c	-0.017888688
69	0xbeb49598	-0.3527038
70	0xbe667037	-0.22503744
71	0x3d34853b	0.04407237

fc3.bias f4 [6]
0	0xbe60ae65	-0.21941526
1	0xbdfada51	-0.12248672
2	0xbe0967b1	-0.13418461
3	0x3db1fafd	0.0869045
4	0x3d784e30	0.06062144
5	0x3ccea666	0.02522583
