LIAR Unchanged/TunedModels/bert/bert-base-cased/NNetwork/older networks/Tanh_MSE_adam4887.pth (torch_old, 49951 bytes, 6 tensors)

fc1.weight f4 [120, 12]
0	0x3fc046dc	1.5021625
1	0xbfd4ed21	-1.6634866
2	0x3f63c0fa	0.88966334
3	0x3f3e2b60	0.74284935
4	0xbfd7d3c9	-1.6861507
5	0xc00226a6	-2.033609
6	0xbe336962	-0.17520669
7	0x3da441a4	0.080203325
8	0x3e97bd0e	0.29636425
9	0x3dc0dd8b	0.09417256
10	0xbd88286a	-0.06648333
11	0x3d0d2d33	0.034466933
12	0x4016b044	2.3545084
13	0xbfebfe74	-1.8437028
14	0x3f3071ad	0.68923455
15	0x3fecaa16	1.8489406
16	0x3ff8e844	1.9445882
17	0xbe7114ab	-0.2354304
18	0x3e0a77a9	0.13522209
19	0x3c8a8a6c	0.016911708
20	0xbe366bb9	-0.1781453
21	0xbe566005	-0.20935066
22	0x3e797fcf	0.24365161
23	0xbe1d0605	-0.15334328
24	0x3fd3f8fb	1.6560358
25	0x3f1c627f	0.61087793
26	0xbe9fd9e0	-0.31220913
27	0xbda59dfd	-0.080867745
28	0xbf458595	-0.77156955
29	0x3fbf6398	1.4952269
30	0xbe031e96	-0.12804636
31	0xbdbbf30a	-0.091772154
32	0x3e5a48f5	0.21316893
33	0x3e913560	0.28361034
34	0xbeac2033	-0.33618316
35	0xbe774628	-0.24147856
36	0xbf534a50	-0.82535267
37	0xbfc65b46	-1.5496604
38	0xbf45b618	-0.7723098
39	0x3e6efe45	0.23339184
40	0xbf5a826a	-0.85355246
41	0xbfdc8007	-1.7226571
42	0x3e75845a	0.2397627
43	0x3e0b42f7	0.13599764
44	0xbed1cf89	-0.4097865
45	0xbe7dc7d8	-0.24783266
46	0xbe8970e8	-0.26843953
47	0x3da9b3fa	0.08286281
48	0xbf8f5fc5	-1.1201102
49	0x3ef967f4	0.48712122
50	0xbe2954f3	-0.16536312
51	0x3f56720f	0.8376779
52	0x3f7fa371	0.99858767
53	0x3cdd53db	0.027017524
54	0x3beb9ae3	0.007190095
55	0x3e0fd76f	0.14047025
56	0x3e4a3bfc	0.19749445
57	0x3de0d435	0.10977975
58	0x3d88df7d	0.06683252
59	0x3e6e0ef0	0.23247886
60	0xbf97f67a	-1.1872094
61	0x3f93d6fa	1.1549981
62	0x4007cd98	2.1219234
63	0x3ff387fa	1.9025872
64	0x3fb4e702	1.4132998
65	0xbe10e62d	-0.14150305
66	0xbd579cbd	-0.05263971
67	0x3e58d9ff	0.21176909
68	0xbc8f237e	-0.017472979
69	0xbeb7ccd6	-0.35898465
70	0x3dd871d8	0.10568589
71	0x3e1c3a44	0.15256602
72	0xbf83903f	-1.0278395
73	0xbfc1e636	-1.514838
74	0xbff8d37b	-1.9439539
75	0xbfb8bd52	-1.4432776
76	0x3f807880	1.0036774
77	0xbdc84327	-0.09778433
78	0xbe060193	-0.13086538
79	0xbca3fe96	-0.020018857
80	0xbd63e14d	-0.055634785
81	0xbdd8a12b	-0.10577615
82	0x3e676861	0.22598411
83	0xbd6098ee	-0.054833345
84	0x3f682ee4	0.9069655
85	0x3fe690c7	1.8012933
86	0xbfd8b296	-1.69295
87	0xbc58ee63	-0.01324043
88	0xbeda4510	-0.42630816
89	0x3f0da7f6	0.55334413
90	0x3ddfa679	0.10920424
91	0x3e53cbbb	0.20683186
92	0x3eaeb6e2	0.34123904
93	0xbe941905	-0.28925338
94	0xbde45486	-0.11148934
95	0x3d08a7bf	0.0333631
96	0xbf2e9e12	-0.68209946
97	0xbf92c088	-1.1465006
98	0x3f126ae6	0.57194364
99	0x3e9a4634	0.30131686
100	0x3e3be75a	0.18349972
101	0x3ee796a9	0.45232132
102	0xbcedf86a	-0.029049117
103	0x3e718129	0.23584427
104	0x3e75ead3	0.2401536
105	0xbebb6fda	-0.36608773
106	0xbeabb582	-0.33536917
107	0xbed83c10	-0.42233324
108	0xbd9c564c	-0.07633647
109	0xbfc258a3	-1.51833
110	0xc0041414	-2.0637255
111	0xbfe5fd80	-1.7967987
112	0xbfeb4258	-1.8379622
113	0xbe2177b8	-0.15768325
114	0xbe6f46d2	-0.2336686
115	0xbe297f23	-0.16552405
116	0xbe63d21c	-0.22248119
117	0xbdb70cb8	-0.08937973
118	0xbd765672	-0.060141034
119	0xbeb7663f	-0.35820195
120	0xbfe81677	-1.8131856
121	0xc0071caa	-2.1111245
122	0xbfbeb2a9	-1.4898273
123	0xc01a94fd	-2.4153435
124	0xc022a456	-2.5412803
125	0xbfed519b	-1.8540529
126	0xbdffbd7e	-0.12487315
127	0x3efe0246	0.4961111
128	0xbe7d9353	-0.24763231
129	0xbd8b9d05	-0.068170585
130	0xbe19e6b7	-0.15029417
131	0xbbf5f612	-0.0075061405
132	0x4007815c	2.1172705
133	0x3f6b39e9	0.9188524
134	0x3ff90ef5	1.945769
135	0x3ff94afd	1.947601
136	0x3f8ce31c	1.1006808
137	0x3fa4d68f	1.2877978
138	0x3e090cf8	0.13383853
139	0x3d2c8c93	0.04212625
140	0xbf06ae2a	-0.52609503
141	0x3e8773c2	0.26455504
142	0xbdd7abc1	-0.10530806
143	0xbe279a0f	-0.16367362
144	0x3fa82a75	1.3137957
145	0x3f9c5235	1.2212588
146	0x3fb179ab	1.3865255
147	0x3ccb797e	0.024838205
148	0x3d4c7a8e	0.049921565
149	0xbe316bcd	-0.17326279
150	0xbd284311	-0.041079585
151	0xbc5532df	-0.013012617
152	0x3d75bd08	0.059994727
153	0x3e268405	0.16261299
154	0xbe61ba6c	-0.2204377
155	0x3e78e18d	0.24304791
156	0x4006686f	2.1001241
157	0x3fab2044	1.3369222
158	0x3f8b212c	1.0869498
159	0xbf450164	-0.76955247
160	0x3f3d9d1e	0.74067867
161	0x3faa10ae	1.328634
162	0xbdc61e74	-0.09673777
163	0x3e863f29	0.26220062
164	0xbd9875f3	-0.07444372
165	0xbe4bb789	-0.19894232
166	0xbdbb885b	-0.09156867
167	0x3e870ffe	0.2637939
168	0x40016959	2.022055
169	0x3f1393d8	0.57647467
170	0x3fbff0ed	1.49954
171	0x3f58faf9	0.84757954
172	0x3f52ee1d	0.8239458
173	0xbeb4bc6e	-0.3530001
174	0xbe41b9d3	-0.18918543
175	0xbdd7e35b	-0.105414115
176	0xbdf14dd2	-0.11782421
177	0xbe219770	-0.15780425
178	0xbc2653c3	-0.010151806
179	0xbe26396e	-0.16232845
180	0xbfb92b01	-1.4466249
181	0x3e69b7da	0.2282404
182	0x3faa0a5b	1.328441
183	0x3f93330e	1.1499956
184	0x4009facd	2.1559327
185	0x401978d7	2.3980005
186	0x3d03cb37	0.032176223
187	0xbe588af6	-0.2114676
188	0x3e49264c	0.19643515
189	0x3e7297fb	0.23690788
190	0xbd85295a	-0.06502028
191	0xbd5eb225	-0.05436911
192	0x3f44c2e8	0.76859903
193	0x3fb53574	1.4156938
194	0xbd34c1ac	-0.044130012
195	0x3ffa57b4	1.9558015
196	0x3fd6e4ac	1.6788535
197	0x40084196	2.129003
198	0xbd5666a6	-0.052343987
199	0x3dc16303	0.09442713
200	0x3e6a7900	0.2289772
201	0xbe9ea269	-0.30983284
202	0x3dcdf656	0.100567505
203	0xbe37cfd3	-0.17950372
204	0x3e3effb6	0.18652233
205	0x3f918bf1	1.1370832
206	0x3ffb119f	1.9614753
207	0xbf8cfb28	-1.1014147
208	0xbed4c23c	-0.4155444
209	0xbf957c45	-1.1678549
210	0x3de289f7	0.11061471
211	0xbc3edfa8	-0.0116500035
212	0x3d3f8519	0.04675779
213	0x3ddf4a7e	0.1090288
214	0xbd75375d	-0.05986725
215	0x3df98d1e	0.12185119
216	0xc0043892	-2.0659528
217	0xc022b677	-2.5423868
218	0xc01e42e2	-2.4728322
219	0xbfa10def	-1.2582377
220	0x400f8c25	2.2429287
221	0x3fd44b93	1.6585563
222	0xbe9c12e4	-0.30483162
223	0xbd79dc66	-0.061001204
224	0x3e068e18	0.13140142
225	0xbe1a2c21	-0.15055896
226	0xbda1d943	-0.079027675
227	0xbe376732	-0.1791046
228	0x3f601c97	0.87543625
229	0xbfc4ed1c	-1.538486
230	0x3ca42414	0.020036735
231	0x3e777f9b	0.24169771
232	0xbfe18772	-1.761946
233	0xbfe91225	-1.8208662
234	0x3e65cccd	0.22441407
235	0x3d866083	0.06561377
236	0xbec81857	-0.3908107
237	0xbe6893b5	-0.22712596
238	0x3e7823fd	0.24232478
239	0xbe01c830	-0.12674022
240	0xbd6155c3	-0.05501343
241	0xbfdc9477	-1.7232808
242	0xbdb4f401	-0.088356026
243	0xbf11a611	-0.5689402
244	0x3ecc1d98	0.39866328
245	0xbf8b4d12	-1.0882895
246	0x3cb9588d	0.022625232
247	0xbe0048c4	-0.12527758
248	0xbe219b4e	-0.157819
249	0x3dad344d	0.08457241
250	0xbc9c292e	-0.019062605
251	0x3e7a15e6	0.24422416
252	0xbf4d95ba	-0.8030659
253	0xbe17b4f3	-0.1481512
254	0xbf8a45c7	-1.0802544
255	0x3f32ef8a	0.6989676

fc1.bias f4 [120]
0	0xbda2373f	-0.079206936
1	0x3e264fce	0.1624138
2	0x3de12e45	0.10995153
3	0x3e6d5746	0.23177823
4	0x3e71c3a5	0.23609789
5	0x3dbb36de	0.091413245
6	0xbe845902	-0.25849158
7	0x3e54e0ee	0.20788929
8	0xbd8d48d2	-0.06898655
9	0xbde48a02	-0.111591354
10	0xbd36df8c	-0.044646785
11	0x3d900438	0.07032055
12	0x3dfa17ad	0.12211547
13	0x3d03f3e2	0.032215007
14	0xbe1eaa4e	-0.15494654
15	0x3d1d21cd	0.038362313
16	0x3e3cc9e0	0.18436384
17	0xbd786fcf	-0.060653504
18	0xbe690a58	-0.22757852
19	0xbdc77505	-0.097391166
20	0xbe653358	-0.22382867
21	0xbbd9cb7e	-0.0066465726
22	0xbe3ddb4d	-0.18540688
23	0xbccb664b	-0.02482905
24	0xbe488a26	-0.1958395
25	0xbbade9f7	-0.005307432
26	0xbe89f482	-0.26944357
27	0xbd899591	-0.06717981
28	0xbdca4443	-0.09876301
29	0xbd427627	-0.04747596
30	0xbdbfb061	-0.093598135
31	0x3db7bd88	0.08971697
32	0x3e2e82a5	0.17042024
33	0xbe2a39ed	-0.1662366
34	0x3e2809da	0.16410008
35	0xbe5c456b	-0.21510856
36	0xbe14bfff	-0.14526366
37	0x3e43d2a3	0.1912332
38	0xbe0361ec	-0.12830323
39	0x3e35844e	0.17726251
40	0xbe35f31b	-0.17768519
41	0xbe87e11f	-0.2653894
42	0x3e12c70e	0.14333746
43	0xbe53cc0c	-0.20683306
44	0x3e174746	0.14773282
45	0x3d033280	0.032030582
46	0x3d5ce572	0.053929754
47	0x3dd26a78	0.102742136
48	0x3dc426a8	0.095776856
49	0xbe824df3	-0.25450096
50	0x3e351795	0.17684777
51	0xbde35abc	-0.111012906
52	0xbe72bf31	-0.23705746
53	0xbe66546a	-0.22493139
54	0xbba2cd91	-0.004968353
55	0x3e384088	0.17993367
56	0xbe237166	-0.15961227
57	0x3e55d559	0.20882167
58	0xbe1612eb	-0.14655654
59	0xbe62d349	-0.22150911
60	0x3cd8c1e9	0.026459651
61	0x3d514d83	0.05109931
62	0x3e526399	0.20545806
63	0x3e1c8583	0.15285306
64	0x3dd581d6	0.10425155
65	0x3ded55a9	0.11588604
66	0xbd79a6a6	-0.060949944
67	0xbcf83f3b	-0.030303588
68	0x3d7c8fbc	0.061660513
69	0xbdf7f016	-0.1210634
70	0x3e82c3b6	0.2553994
71	0xbcfce145	-0.030869136
72	0x3dac3ec0	0.08410406
73	0x3d70e7f4	0.058814958
74	0x3d147db4	0.036252692
75	0x3e2e3786	0.17013368
76	0xbe6fb80b	-0.2341005
77	0x3e184833	0.14871292
78	0x3d6d6528	0.0579578
79	0xbe60ab99	-0.2194046
80	0xbcdc06e4	-0.026858754
81	0xbcfb4cd0	-0.030676275
82	0xbe57405e	-0.21020648
83	0xbe6e9f06	-0.2330285
84	0x3c44423a	0.01197868
85	0xbe335aac	-0.17515057
86	0x3dc6916e	0.09695707
87	0x3e54dc8d	0.20787258
88	0x3e76c202	0.24097446
89	0x3de840ea	0.113405064
90	0xbd220eeb	-0.039565008
91	0xbdc1d923	-0.09465244
92	0x3e46dab6	0.19419369
93	0x3e1c54bd	0.152667
94	0xbcce46c2	-0.025180224
95	0xbe1d584c	-0.15365714
96	0x3d2d08db	0.042244773
97	0xbe831d78	-0.2560842
98	0xbe2ab00b	-0.16668718
99	0x3d217f4e	0.039428048
100	0x3e52a0dd	0.20569177
101	0x3daf8dd4	0.085719734
102	0x3c853215	0.016259233
103	0x3e2854af	0.16438554
104	0x3e91f927	0.285104
105	0xbaf437f5	-0.0018632399
106	0x3e1637a4	0.14669663
107	0xbd50861b	-0.050909143
108	0xbd84768b	-0.06467923
109	0x3e425db3	0.18981056
110	0x3e45e9e4	0.19327503
111	0x3d7cebce	0.06174832
112	0x3de26dcc	0.11056098
113	0xbe532d0d	-0.20622654
114	0x3d0b427d	0.033998955
115	0x3d77d638	0.06050703
116	0x3e59ea12	0.21280697
117	0xbe0d8a08	-0.13822186
118	0xbe1be29c	-0.15223163
119	0xbe5a2260	-0.21302176

fc2.weight f4 [84, 120]
0	0x3e2967d8	0.1654352
1	0x3d52444c	0.051334664
2	0xbde71d91	-0.11284936
3	0xbc78fe72	-0.015197383
4	0xbd6b47e6	-0.057441615
5	0x3e0f899d	0.14017339
6	0x3e156bde	0.1459193
7	0xbe29915d	-0.16559358
8	0xbeeb564e	-0.45964283
9	0xbd9de69a	-0.077099994
10	0xbb5ceb99	-0.0033709763
11	0xbda0eac2	-0.078572765
12	0x3d4df354	0.050280884
13	0xbde5e6d2	-0.11225666
14	0x3e839fd2	0.2570787
15	0xbe26bbab	-0.16282527
16	0x3d9e1a28	0.07719833
17	0xbd1da1e2	-0.03848446
18	0xbd58c3af	-0.052920993
19	0xbcd16585	-0.025561104
20	0x3d8b8b05	0.06813625
21	0x3ec94067	0.39306948
22	0x3dde1701	0.108442314
23	0x3cb12b1c	0.021627001
24	0x3e28df86	0.16491517
25	0xbde511b3	-0.111850165
26	0x3d56efcd	0.052474786
27	0xbdc83ec1	-0.09777594
28	0x3ce44fd1	0.02787009
29	0x3b36f93c	0.0027919551
30	0x3d262ccd	0.04057007
31	0x3e45eff7	0.1932982
32	0xbdb6ae3e	-0.08919953
33	0x3e938634	0.28813326
34	0xbe19f963	-0.1503654
35	0xbd2f87af	-0.042854007
36	0xbd87f4f7	-0.0663852
37	0xbd0aac86	-0.033855937
38	0xbe173683	-0.14766888
39	0x3db93e30	0.090450644
40	0x3e13272d	0.14370413
41	0x3ec5ec5e	0.38656896
42	0x3e1a33e3	0.15058856
43	0xbba2158a	-0.0049464153
44	0x3cc2d78c	0.023784421
45	0x3e5fbb75	0.21848853
46	0x3e841d06	0.25803393
47	0xbd8b3376	-0.06796925
48	0x3e013413	0.12617521
49	0xbc6aa3fa	-0.014321322
50	0x3f1afaf8	0.605392
51	0xbdc82665	-0.09772948
52	0x3db7e841	0.08979846
53	0xbe195008	-0.14971936
54	0x3ca2b4c6	0.01986159
55	0x3dc18b07	0.094503455
56	0x3eb095dc	0.34489334
57	0xbe802763	-0.2503005
58	0x3d3cd990	0.04610592
59	0x3ee90a50	0.4551568
60	0x3de9a6dd	0.1140878
61	0x3ec54298	0.3852737
62	0xbd9bf127	-0.076143555
63	0xbea76d86	-0.32700747
64	0xbeeb3db1	-0.45945504
65	0xbdf33431	-0.11875189
66	0xbca2ba21	-0.019864144
67	0xbe1d5ffa	-0.15368643
68	0x3d6688e7	0.056282904
69	0x3ea24b5c	0.3169812
70	0xbe53e351	-0.20692183
71	0xbe5b539e	-0.21418616
72	0x3eaa43f8	0.3325498
73	0xbd877a22	-0.06615092
74	0x3f14718f	0.57985777
75	0xbe854e47	-0.26036283
76	0xbda85cba	-0.08220811
77	0xbeb21149	-0.34778813
78	0x3d1f2104	0.038849846
79	0x3dff431e	0.124639735
80	0x3ee53310	0.4476552
81	0x3bb94d94	0.005655
82	0x3d125bf9	0.035732243
83	0x3da8fce8	0.08251363
84	0xbecf973a	-0.40545064
85	0x3e130dca	0.14360729
86	0xbd4638c9	-0.048394
87	0xbdc1765c	-0.094464034
88	0x3dc52c19	0.096275516
89	0xbd4533fc	-0.04814528
90	0x3e67561c	0.22591442
91	0x3d9c9e05	0.07647327
92	0x3c59e458	0.01329907
93	0xbe9422d9	-0.28932837
94	0x3e29329b	0.1652321
95	0x3df6fb78	0.120596826
96	0xb99e5e88	-0.0003020654
97	0x3db38682	0.0876589
98	0x3d4dcdbf	0.050245043
99	0xbe4a1b01	-0.19736864
100	0xbeececf9	-0.46274546
101	0xbdcc97fc	-0.09989926
102	0x3e156f10	0.14593148
103	0x3b7284c2	0.00370054
104	0x3bb80612	0.005615958
105	0xbd71715f	-0.05894601
106	0xbdddfec0	-0.10839605
107	0x3e31aac9	0.17350306
108	0xbd7acc5a	-0.06123004
109	0xbda18906	-0.07887463
110	0xbeb0ed6a	-0.34556133
111	0xbe1b9670	-0.15194106
112	0xbe24caa9	-0.16092934
113	0x3dd5d2a9	0.10440571
114	0x3d2ea874	0.04264112
115	0x3e3d57fe	0.18490598
116	0xbed3675f	-0.41289803
117	0x3d088566	0.033330344
118	0x3e5212c8	0.20514977
119	0x3e5cb6cc	0.21554106
120	0xbea2a91a	-0.3176964
121	0xbf7465b2	-0.95467675
122	0xbd8ec456	-0.06971042
123	0x3d67201c	0.056427106
124	0x3d24aa72	0.04020161
125	0xbe6d71e9	-0.23187985
126	0x3e4f5bc6	0.20249853
127	0x3f3390d5	0.7014287
128	0xbe29f059	-0.16595592
129	0x3f3319d8	0.6996131
130	0x3f352b94	0.7076962
131	0xbf6acea3	-0.9172155
132	0xbe14987d	-0.14511295
133	0xbed2e23f	-0.41188237
134	0xbf511db8	-0.8168597
135	0xbe529cdc	-0.2056765
136	0xbbd45891	-0.0064802845
137	0xbe5eb926	-0.21750316
138	0x3f2424ec	0.6411884
139	0xbd5240b5	-0.05133124
140	0xbd1fb708	-0.03899291
141	0x3f1692e6	0.588179
142	0x3d3219ac	0.043481514
143	0x3e824d8b	0.25449786
144	0xbef79cd3	-0.48361835
145	0xbf66d5c7	-0.9016995
146	0x3de33c03	0.11095431
147	0xbdde9b0d	-0.10869417
148	0x3d6c6db0	0.057721794
149	0x3eb7857e	0.35844034
150	0x3e1f0f31	0.15533139
151	0xbdfc2ccf	-0.12313234
152	0xbd35cece	-0.044386677
153	0x3cf25cc8	0.029585257
154	0xbea442e8	-0.32082295
155	0x3e447dbf	0.19188593
156	0x3da5b8d8	0.08091897
157	0xbdf61098	-0.12014884
158	0xbe180bc2	-0.14848235
159	0x3ddc5841	0.107590206
160	0x3defad11	0.11702932
161	0xbfcad95a	-1.584758
162	0xbedce5ae	-0.43143982
163	0x3d2b8dad	0.04188316
164	0xbdf0871a	-0.117445186
165	0xbf0fdd4d	-0.56197053
166	0x3e8ca820	0.2747202
167	0x3f2716ad	0.65268975
168	0x3ecc0e6a	0.39854747
169	0xbd034111	-0.032044474
170	0x3ed0a503	0.40750894
171	0x3ed21449	0.410311
172	0x3e373e55	0.17894872
173	0x3e7f76fd	0.24947734
174	0x3cdbfa6a	0.026852805
175	0xbef03ce1	-0.46921447
176	0xbf4054bc	-0.75129294
177	0xbe5f15c4	-0.21785647
178	0xc00fe4b0	-2.248333
179	0xbdddf4ac	-0.10837683
180	0x3f14e694	0.58164334
181	0xbf2ca836	-0.6744417
182	0xbed1830f	-0.40920302
183	0x3f1fdba8	0.62444544
184	0xbf9b2c32	-1.2122862
185	0x3cf75869	0.030193524
186	0x3e7c0605	0.24611671
187	0x3f8d8343	1.1055683
188	0xbe29ac56	-0.16569647
189	0xbf5462b5	-0.82963115
190	0xbe830b43	-0.2559453
191	0x3eac3434	0.33633578
192	0x3e9a2736	0.3010804
193	0x3ec78496	0.38968343
194	0x3fa61b49	1.2977077
195	0xbfcdb541	-1.6070939
196	0xbd93ebba	-0.07222696
197	0x3da9b393	0.08286204
198	0x3d8651ca	0.06558569
199	0xbe263713	-0.16231947
200	0xbe2d0bc4	-0.1689902
201	0xbd0c928e	-0.034319453
202	0x3e0aa35c	0.13538879
203	0x3ddab423	0.106788896
204	0xbcc19aa9	-0.023633318
205	0x3e024c0b	0.1272432
206	0x3e8ab1b5	0.27088705
207	0xbd3608d6	-0.04444202
208	0x3d9c4916	0.076311275
209	0xbd067536	-0.032826625
210	0xbdedd36a	-0.1161259
211	0x3e83dd8c	0.25754964
212	0xbd24b793	-0.040214133
213	0xbc6aef27	-0.014339245
214	0xbd48a95d	-0.048989642
215	0x3e017deb	0.1264569
216	0xbda072bb	-0.07834383
217	0xbdbef1d3	-0.09323468
218	0x3d851cb7	0.064996175
219	0x3e6372bd	0.22211738
220	0xbed8d5d3	-0.42350635
221	0xbe881007	-0.26574728
222	0x3e782358	0.24232233
223	0x3e53da5d	0.20688768
224	0x3e59ed18	0.2128185
225	0xbce02dc8	-0.02736558
226	0xbd9f0649	-0.07764871
227	0xbe873cfd	-0.26413718
228	0x3b16f1b1	0.0023032243
229	0x3d3c1189	0.04591516
230	0xbe82f582	-0.25577933
231	0x3e7d6bc6	0.24748144
232	0xbdfbd56f	-0.122965686
233	0x3fddd2a8	1.7329912
234	0xbd3050ac	-0.043045685
235	0xbf140704	-0.57823205
236	0x3eeb5533	0.4596344
237	0xbe3dae03	-0.18523411
238	0x3eb88cd2	0.36044937
239	0xbed4635a	-0.4148205
240	0xbc62e372	-0.0138481725
241	0xbd31b798	-0.04338798
242	0xbda125fc	-0.07868573
243	0xbb9dac1d	-0.0048117773
244	0x3e2efc7c	0.17088503
245	0xbce24094	-0.027618684
246	0x3e09ff2e	0.1347625
247	0xbe6cc68e	-0.23122618
248	0xbf10f5c5	-0.56625015
249	0xbcbdb9dc	-0.023159914
250	0xbe2eb521	-0.17061283
251	0x3e86b69e	0.263112
252	0x3d3e5256	0.04646524
253	0xbd586aac	-0.052836105
254	0xbe928ba2	-0.28622156
255	0xbd6e9a1b	-0.058252435

fc2.bias f4 [84]
0	0x3cd6e6ca	0.026233096
1	0xbd6c5d39	-0.05770609
2	0x3da0fe38	0.078609884
3	0xbd2eb7c4	-0.04265572
4	0x3c5b8751	0.013398961
5	0xbca71777	-0.020396931
6	0x3c98c6ac	0.018649422
7	0xbd60fb67	-0.054927256
8	0x3e03c298	0.128672
9	0x3d4e02b6	0.050295554
10	0xbc87748c	-0.016535066
11	0xbd1689a3	-0.036752354
12	0xbd41e2e1	-0.04733551
13	0x3d9f4beb	0.07778152
14	0xbc2db435	-0.010602047
15	0xbdbac7b8	-0.091201246
16	0x3df7a514	0.12092033
17	0xbdc7afa0	-0.09750295
18	0xbd24267b	-0.04007576
19	0x3d5c1ad2	0.053736515
20	0xbbda2242	-0.006656916
21	0xbbeacc0b	-0.007165437
22	0x3d7fd065	0.0624546
23	0xbdea8085	-0.114502944
24	0x3cd154f3	0.025553202
25	0x3d418121	0.047242288
26	0xbd369fbc	-0.04458593
27	0x3d45a140	0.048249483
28	0x3d8f6290	0.07001221
29	0x3d46f565	0.04857387
30	0xbd9a1b0b	-0.07524689
31	0x3c4e2394	0.012581725
32	0xbc176218	-0.009239696
33	0xbd4c3865	-0.04985847
34	0x3d877369	0.066138096
35	0xbda32739	-0.079664655
36	0x3d8db416	0.06919114
37	0xbd994e52	-0.074856415
38	0xbd2113b9	-0.03932545
39	0x3d0b04dd	0.033940185
40	0x3d8c6527	0.06855231
41	0xbd501cb1	-0.050808612
42	0x3c4db9dd	0.01255652
43	0x3cdb2513	0.026751077
44	0x3dd1fa7f	0.102528565
45	0xbd9fd0c4	-0.07803491
46	0xbdad70eb	-0.08468803
47	0x3cebf3e1	0.028802814
48	0xbcfb6405	-0.030687341
49	0xbcb6a4ad	-0.02229532
50	0x3aa91ffd	0.001290321
51	0xbdaa2140	-0.08307123
52	0x3da917df	0.08256506
53	0x3c38dc6b	0.0112830205
54	0xbcc6a594	-0.024248876
55	0x3db57b05	0.08861355
56	0xbdd9d685	-0.106366195
57	0xbcba041b	-0.022707036
58	0xbd9f18f6	-0.07768433
59	0x3e26cd9f	0.16289376
60	0x3d702457	0.058628406
61	0x3d3c2ea8	0.045942932
62	0xbcbc1b99	-0.022962378
63	0x3cd8ccac	0.026464783
64	0x3d1e3db5	0.038633067
65	0xbd939119	-0.072054096
66	0x3e059f7a	0.13049117
67	0xbd4001c9	-0.046876702
68	0x3d3798d4	0.044823483
69	0xbc0a979b	-0.008458997
70	0x3d615e53	0.055021595
71	0xbd412516	-0.04715451
72	0x3d639d64	0.05557002
73	0xbd505610	-0.050863326
74	0x3d18dff1	0.037322942
75	0xbc98a5f6	-0.018633824
76	0xbbaf080a	-0.0053415345
77	0xbd9cb0cc	-0.07650909
78	0xbbfdedd0	-0.0077492967
79	0x3d21bd73	0.039487313
80	0xbce13afe	-0.02749395
81	0xbdd66905	-0.1046925
82	0xbb08360d	-0.002078417
83	0x3bd25ed5	0.0064199963

fc3.weight f4 [6, 84]
0	0x3ce87a26	0.028378557
1	0xbe67933b	-0.22614758
2	0xbc4c61db	-0.012474502
3	0x3d9365a0	0.07197118
4	0xbdc340d6	-0.09533851
5	0x3d9c73a8	0.07639247
6	0xbd6dd79a	-0.05806694
7	0x3d3211f7	0.043474164
8	0x3e5b7732	0.21432188
9	0x3daec8f3	0.08534422
10	0xbf25a369	-0.6470247
11	0x3cca89d3	0.024723923
12	0xbc9d61cf	-0.019211678
13	0xbf49da83	-0.7884905
14	0x3d9c8839	0.0764317
15	0xbd494695	-0.049139578
16	0xbe788058	-0.2426771
17	0xbd2e8f0a	-0.04261688
18	0xbca36abe	-0.01994836
19	0x3da26796	0.07929914
20	0x3bad019c	0.005279733
21	0xbdef7dea	-0.11693938
22	0xbd5368f3	-0.05161376
23	0x3e38908a	0.18023887
24	0xbdc2919a	-0.095004275
25	0xbd7c256a	-0.06155912
26	0x3da98f56	0.08279292
27	0xbe260558	-0.16212976
28	0xbc21f9c2	-0.009886207
29	0xbdef14bb	-0.11673876
30	0x3d9985ef	0.07496249
31	0xbe348013	-0.17626981
32	0x3e29a55d	0.16566987
33	0xbe197175	-0.14984687
34	0x3cb62ac8	0.022237197
35	0x3e8e731f	0.27822205
36	0x3df9d40c	0.12198648
37	0x3d8d576a	0.069014385
38	0x3e7c15d9	0.24617709
39	0xbe40fb05	-0.18845756
40	0x3f373203	0.71560687
41	0xbe16c3bb	-0.14723103
42	0x3c44e209	0.012016782
43	0xbe81fe56	-0.25389355
44	0x3ca7afc7	0.02046956
45	0x3ce102d5	0.02746717
46	0x3daafcaf	0.08348977
47	0x3e0d53c8	0.13801491
48	0xbe02931b	-0.12751429
49	0x3d7f6efd	0.062361706
50	0x3d332e59	0.043745372
51	0x3c81c0cb	0.015839001
52	0x3e0687c9	0.13137735
53	0x3e6133c6	0.21992406
54	0x3d2c666a	0.042089857
55	0x3d9d8d59	0.076929756
56	0xbdf9d05c	-0.121979445
57	0x3d87b729	0.06626732
58	0x3eb08cb0	0.34482336
59	0xbeda9848	-0.42694306
60	0xbd526a00	-0.05137062
61	0xbdb7904f	-0.089630716
62	0x3db581fc	0.08862683
63	0x3d18ab18	0.037272543
64	0x3d446444	0.047947183
65	0x3d8b9fb4	0.0681757
66	0x3eadb581	0.3392754
67	0xbc9d4b37	-0.019200904
68	0x3f14e96d	0.5816868
69	0x3e48dfcc	0.19616622
70	0xbdd124d7	-0.10212105
71	0xbe4a3f7a	-0.19750777
72	0xbe270f5a	-0.1631445
73	0x3d366e9d	0.044539083
74	0x3e8adfff	0.2712402
75	0x3da228e3	0.07917955
76	0x3dfe07de	0.12403844
77	0xbc977b6b	-0.018491467
78	0x3d0eb4ae	0.03484028
79	0x3f02c3e7	0.51080173
80	0xbdc1acbb	-0.09456774
81	0x3dfe1e6c	0.12408146
82	0xbf1eec32	-0.62079155
83	0xbe0269e4	-0.12735707
84	0xbc7e234a	-0.015511343
85	0x3e9b8e38	0.30381942
86	0x3d945a7b	0.0724382
87	0xbe833bf8	-0.2563169
88	0xbe59ef08	-0.2128259
89	0xbf103413	-0.5632946
90	0x3e4083b2	0.18800238
91	0x3e90a49f	0.28250596
92	0xbe375cd7	-0.1790651
93	0xbda5892a	-0.080828026
94	0xbe9e7f64	-0.30956566
95	0x3d07fb37	0.03319856
96	0xbe67346c	-0.22578591
97	0xbec3cc81	-0.38241962
98	0x3e33cb1b	0.17557947
99	0xbca28007	-0.019836439
100	0x3e42da45	0.19028576
101	0x3e9ee649	0.3103507
102	0xbd801c9c	-0.06255457
103	0x3e435328	0.1907469
104	0x3d289c14	0.041164473
105	0x3d87b002	0.06625368
106	0x3e3f5591	0.18684985
107	0xbe22848f	-0.1587088
108	0x3dd34744	0.10316327
109	0x3e2ef3b7	0.17085157
110	0xbe156d44	-0.14592463
111	0xbde68dce	-0.11257516
112	0xbd2c60ed	-0.042084623
113	0xbcc115be	-0.023569938
114	0x3e9e055b	0.3086346
115	0x3ea2de08	0.3181002
116	0x3f4a52ab	0.7903239
117	0x3ded73c4	0.11594346
118	0x3e05d02a	0.1306769
119	0xbef6aafc	-0.48177326
120	0xbd6ad505	-0.057332058
121	0xbd325ffb	-0.043548565
122	0xbe4e56bd	-0.20150276
123	0x3e1b9818	0.15194738
124	0xbf152d9b	-0.58272713
125	0xbdfa6534	-0.12226334
126	0x3e413ca3	0.18870787
127	0xbf328ca4	-0.6974585
128	0x3e108827	0.14114438
129	0xbea999a4	-0.3312503
130	0x3d954541	0.072886
131	0xbe30b210	-0.17255425
132	0x3d6ce626	0.057836674
133	0xbe7799f6	-0.24179825
134	0x3c0c76c0	0.008573234
135	0xbe28612c	-0.16443318
136	0x3e734fbb	0.23760884
137	0xbc77d170	-0.015125617
138	0xbe371d56	-0.17882285
139	0xbdd59337	-0.1042847
140	0xbea59f91	-0.32348302
141	0x3d9913c6	0.074744746
142	0xbec50bd7	-0.38485596
143	0x3e4815ea	0.1953961
144	0xbd1497b3	-0.036277484
145	0x3e0c0184	0.13672453
146	0xbe927a9e	-0.28609174
147	0xbe03f3e7	-0.1288601
148	0xbd3993c7	-0.045306947
149	0x3e844df8	0.25840735
150	0xbdb89135	-0.09012071
151	0x3d18cd67	0.037305262
152	0xbe8c06e5	-0.2734901
153	0xbe31e9c6	-0.17374334
154	0x3e20b837	0.15695272
155	0x3e8905bd	0.2676219
156	0xbe9afe9e	-0.30272382
157	0xbd4d70b6	-0.050156318
158	0xbd8ab14f	-0.067721
159	0x3cb5ae95	0.022177974
160	0xbdac70db	-0.08419963
161	0xbbeb98b5	-0.007189835
162	0xbde421ab	-0.11139234
163	0xbdd5ac61	-0.10433269
164	0xbefe56fd	-0.49675742
165	0xbca7fdad	-0.020506704
166	0x3eebf940	0.460886
167	0x3c6430ba	0.013927633
168	0x3c3373cc	0.010952901
169	0xbea98180	-0.33106613
170	0xbe55f799	-0.20895232
171	0x3e038f90	0.12847733
172	0xbd1e5635	-0.038656432
173	0xbe681c29	-0.22666992
174	0x3e578a3b	0.21048824
175	0xbddb281c	-0.1070101
176	0x3ce7b4fc	0.028284542
177	0x3e07798c	0.1322996
178	0x3f497e6a	0.7870852
179	0xbe6d32d7	-0.23163925
180	0x3bb69ce9	0.0055729044
181	0x3ed1cc0c	0.40975988
182	0xbd262cc7	-0.040570047
183	0xbe00393b	-0.12521832
184	0xbd659f2c	-0.05606
185	0xbe0eb11d	-0.13934751
186	0xbe9646a0	-0.29350758
187	0x3b01812c	0.001976083
188	0xbcfe8622	-0.031069819
189	0x3da4fd37	0.080561094
190	0xbe1d6a08	-0.15372479
191	0xbe38b843	-0.1803904
192	0x3e8c4192	0.27393776
193	0x3e160a9f	0.14652489
194	0xbdbe24c0	-0.09284353
195	0x3eab8bfe	0.33505243
196	0x3e220aa9	0.15824379
197	0xbe31d8a0	-0.17367792
198	0xbe3f3cde	-0.18675563
199	0x3e2b955b	0.16756193
200	0x3e41269b	0.18862383
201	0x3e4f837d	0.20265003
202	0xbdbd14c5	-0.09232477
203	0x3e840706	0.25786608
204	0xbc3f7051	-0.011684493
205	0xbe0d01ef	-0.13770269
206	0xbe523a7b	-0.20530121
207	0xbf15abd0	-0.5846529
208	0xbd5f5c15	-0.054531176
209	0x3ea5766d	0.32316914
210	0xbec25ddf	-0.37962243
211	0xbeb1f02f	-0.34753558
212	0xbe76085f	-0.24026631
213	0x3df2c7d8	0.118545234
214	0xbd6c41a5	-0.05767979
215	0x3e14c29c	0.14527363
216	0x3babc651	0.005242147
217	0xbc7ed407	-0.015553481
218	0xbdd37bc8	-0.10326344
219	0x3d8eded2	0.06976093
220	0xbe162f49	-0.14666475
221	0xbdbb0458	-0.09131688
222	0xbca01088	-0.019539133
223	0xbe8fbeee	-0.28075355
224	0x3e16b642	0.14717963
225	0xbdcf906f	-0.101349704
226	0x3e6ec398	0.233168
227	0x3c9dd568	0.0192668
228	0xbd4d2f36	-0.050093852
229	0x3e15dcc6	0.14635
230	0x3e87fbf4	0.26559412
231	0xbdf910ab	-0.12161382
232	0xbe94ced9	-0.29064062
233	0x3bfd2092	0.00772483
234	0xbeb14a72	-0.3462711
235	0xbac22c1a	-0.0014814169
236	0x3ef82391	0.48464635
237	0x3d9a29d8	0.07527512
238	0xbe19e97e	-0.15030476
239	0x3e4eb7ed	0.2018735
240	0x3d383c07	0.04497912
241	0xbd897f9c	-0.06713793
242	0xbe9e09d5	-0.30866876
243	0x3e549072	0.20758227
244	0x3e879424	0.2648021
245	0xbcbb53ec	-0.022867166
246	0x3e424289	0.18970694
247	0xbd97afc9	-0.07406575
248	0x3f51aaa2	0.8190099
249	0xbe6b30f4	-0.22967893
250	0x3da3f270	0.08005226
251	0x3e2606c5	0.1621352
252	0x3e267e57	0.16259132
253	0x3e011ebc	0.1260938
254	0x3d86d3bd	0.065833546
255	0xbd548e79	-0.051893685

fc3.bias f4 [6]
0	0x3c660c15	0.0140409665
1	0x3e1abc78	0.15110958
2	0x3d4eb1cb	0.050462525
3	0xbca58809	-0.020206468
4	0xbca2e522	-0.01988465
5	0xbc8ee58d	-0.017443443
