LIAR Unchanged/TunedModels/bert/bert-base-cased/NNetwork/older networks/Tanh_MSE_adam4817.pth (torch_old, 49951 bytes, 6 tensors)

fc1.weight f4 [120, 12]
3.407943 3.2395952 2.2517295 2.4494157 3.3265464 3.1677165 0.05175696 -0.06833918
-0.027171496 0.09013239 -0.22718942 0.23332025 1.1547848 -1.48896 0.7394752 -1.8338647
-0.5344336 -0.75464886 0.10389691 -0.1982279 -0.46906227 -0.21779463 0.026363213 0.103867084
-1.5029597 0.024196265 0.7479951 1.8255519 0.85350424 1.3791484 -0.03627906 -0.07167768
0.15295969 0.05637054 -0.36104685 -0.26207 0.4051053 -2.0779927 1.9071174 -0.47764516
-1.6532907 -1.4850079 -0.15544152 0.44266018 -0.23631477 -0.37983415 -0.136503 0.16753247
-2.0666084 0.37369713 2.331872 -1.4931394 1.9898458 -1.8575666 -0.08914933 0.19730145
-0.3015869 0.12151896 -0.25981292 0.18391259 -0.7344961 -3.2853408 0.39680955 -3.176549
-2.3230736 0.6032407 0.21802807 -0.048122857 0.20066659 -0.011682891 -0.03545211 0.31874827
3.4308307 3.1195312 3.0680234 3.041027 1.2883602 3.4217865 -0.053832874 -0.09604857
-0.13569298 0.2181985 -0.2136835 0.15671606 3.4756322 0.9238686 2.8619738 2.3793633
3.6694136 3.5792785 -0.15773572 0.009820992 0.052869804 -0.074835874 0.092527345 -0.24779068
0.82727045 -0.27806893 0.7505243 -0.55971223 0.83561957 0.59459746 -0.22131039 0.28994405
-0.10732891 -0.22022913 -0.11047817 -0.17226242 -0.9351761 0.90348697 -0.0028027014 -2.084695
-0.2490694 -0.3208758 -0.00018564331 -0.20995212 -0.46702752 -0.07722736 0.25899208 0.16225912
-1.3589625 1.9044333 -1.9705206 -2.8635442 0.4481295 1.9322721 -0.07755888 0.29628465
-0.0061630425 0.16103579 -0.16765171 0.20529498 0.6135837 -0.11272745 -0.6840317 -0.1321302
0.24323156 -0.6391968 0.30924296 -0.1797607 1.4624697 -0.070988655 -0.5427529 -0.18380132
2.4295447 2.6738093 2.1872404 -0.83266956 1.6913168 -1.3036231 -0.081951335 -0.35425952
-0.14194597 -0.017440835 -0.039572973 -0.080083504 -1.7865628 -1.8937259 2.3187842 2.7218475
1.2040641 1.0007373 -0.014624466 -0.22648223 -0.31671274 -0.15967992 -0.028706565 0.20630516
-0.45174944 -0.10294561 1.7372724 -0.012337729 0.25711694 -0.2622977 -0.2381613 0.21194862
0.0334063 0.20096199 -0.24712804 0.090317436 -0.18089679 -1.1951102 0.15866527 2.2901556
2.5621436 2.0954945 -0.22054987 0.093924694 -0.10831149 -0.3741004 0.08806459 -0.2658173
3.484527 2.7347486 3.0866919 1.7152543 3.2196836 3.1623287 0.0204068 -0.36428174
0.031397182 0.16652071 -0.23040134 0.19204451 -0.47122663 1.0834507 0.10249031 0.5455806
-0.27925134 -0.8300688 -0.21920776 -0.07731239 0.15901023 0.32137972 -0.41054192 0.24387713
0.16203213 -0.23842135 -0.841046 1.8918843 0.22750294 1.1453129 -0.2871738 0.3139096
0.14448877 0.040780146 -0.24390745 0.3400964 0.106993325 1.9483758 1.740789 1.208821
1.9696506 2.0420063 -0.098564364 -0.09565542 0.9241562 0.26921335 -0.07368863 0.4098265
1.2609625 -0.14229654 -1.9525694 0.6485319 1.8249496 -1.7736928 -0.1634685 -0.025305228
0.03707871 0.12254624 -0.23497592 0.13136573 1.5151849 1.9816701 -0.11283198 -0.2927116
00000000: bd1b 5a40 8755 4f40 561c 1040 3ac3 1c40
00000010: 23e6 5440 debb 4a40 1bff 533d 69f5 8bbd
00000020: c296 debc 5597 b83d 58a4 68be 81eb 6e3e
00000030: fdcf 933f 3e96 bebf 3f4e 3d3f 14bc eabf
00000040: a4d0 08bf ab30 41bf e7c7 d43d 41fc 4abe
00000050: ee28 f0be 8e05 5fbe aaf7 d73c 44b8 d43d
00000060: fc60 c0bf 3f37 c63c 9b7c 3f3f afab e93f
00000070: 417f 5a3f ef87 b03f 5a99 14bd bfcb 92bd
00000080: 77a1 1c3e cce4 663d 22db b8be 0a2e 86be
00000090: f669 cf3e d5fd 04c0 6c1c f43f e88d f4be
000000a0: 089f d3bf bd14 bebf 102c 1fbe 5ba4 e23e
000000b0: 80fc 71be 9f79 c2be 71c7 0bbe a28d 2b3e
000000c0: 5043 04c0 3b55 bf3e 643d 1540 311f bfbf
000000d0: 44b3 fe3f bec4 edbf ed93 b6bd 6409 4a3e
000000e0: 9969 9abe efde f83d 3306 85be 9553 3c3e
000000f0: f007 3cbf 0643 52c0 9f2a cb3e 944c 4bc0
00000100: 3dad 14c0 fc6d 1a3f c042 5f3e 791c 45bd
00000110: 8b7b 4d3e 9969 3fbc 3b36 11bd f932 a33e
00000120: bb92 5b40 66a6 4740 7f5a 4440 30a0 4240
00000130: fde8 a43f 8dfe 5a40 dc7f 5cbd 1db5 c4bd
00000140: 1af3 0abe 6d6f 5f3e d9cf 5abe 2d7a 203e
00000150: c270 5e40 a782 6c3f 942a 3740 7d47 1840
00000160: acd7 6a40 e612 6540 7985 21be 3ae8 203c
00000170: 028e 583d 8d43 99bd fa7e bd3d d7bc 7dbe
00000180: ffc7 533f 0d5f 8ebe 5c22 403f 4d49 0fbf
00000190: 2aeb 553f 8a37 183f 319f 62be 8c73 943e
000001a0: 42cf dbbd bf83 61be 6142 e2bd 8f65 30be
000001b0: b367 6fbf ec4a 673f 87ad 37bb a56b 05c0
000001c0: 0c0c 7fbe d549 a4be 3fa9 42b9 b0fd 56be
000001d0: 3b1e efbe 6129 9ebd 9c9a 843e 4127 263e
000001e0: 7cf2 adbf 78c4 f33f 053a fcbf 4f44 37c0
000001f0: 3b71 e53e b154 f73f 31d7 9ebd 9fb2 973e
00000200: 59f3 c9bb 91e6 243e e4ac 2bbe d938 523e
00000210: d213 1d3f a6dd e6bd b41c 2fbf 244d 07be
00000220: b211 793e 67a2 23bf 1855 9e3e 3013 38be
00000230: 3532 bb3f 8062 91bd dbf1 0abf 6a36 3cbe
00000240: a97d 1b40 b11f 2b40 bffb 0b40 d529 55bf
00000250: 127d d83f 1fdd a6bf 1ad6 a7bd 8161 b5be
00000260: 495a 11be 15e0 8ebc 4517 22bd d202 a4bd
00000270: 17ae e4bf 9c65 f2bf f666 1440 c032 2e40
00000280: c61e 9a3f 2918 803f 759b 6fbc f5ea 67be
00000290: 2c28 a2be 2283 23be 082a ebbc a941 533e
000002a0: b44b e7be 26d5 d2bd f15e de3f 3024 4abc
000002b0: d5a4 833e e24b 86be 8ee0 73be 0f09 593e
000002c0: 0bd5 083d fbc8 4d3e 220f 7dbe 59f8 b83d
000002d0: 023d 39be 5ff9 98bf 2679 223e e991 1240
000002e0: 29fa 2340 951c 0640 d3d7 61be 975b c03d
000002f0: 6ad2 ddbd 168a bfbe 355b b43d 3519 88be
00000300: 7e02 5f40 1f06 2f40 5c8c 4540 748d db3f
00000310: 4c0f 4e40 9863 4a40 292c a73c 2383 babe
00000320: 559a 003d 6884 2a3e 54ee 6bbe 51a7 443e
00000330: 9e44 f1be 83ae 8a3f 71e6 d13d 2cab 0b3f
00000340: 08fa 8ebe 647f 54bf 0078 60be f555 9ebd
00000350: 94d3 223e e28b a43e 8d32 d2be edba 793e
00000360: c0eb 253e ba24 74be ca4e 57bf 4429 f23f
00000370: 88f6 683e 9d99 923f 7208 93be c2b8 a03e
00000380: ddf4 133e 1509 273d e0c2 79be 1e21 ae3e
00000390: 511f db3d 6164 f93f 2dd2 de3f a6ba 9a3f
000003a0: 831d fc3f 3bb0 0240 1ddc c9bd fde6 c3bd
000003b0: 8095 6c3f 55d6 893e 10ea 96bd c7d4 d13e
000003c0: 3867 a13f 2fb6 11be cbed f9bf 3006 263f
000003d0: f397 e93f 5e08 e3bf 4964 27be e94c cfbc
000003e0: d8df 173d 86f9 fa3d 879d 70be bd84 063e
000003f0: 94f1 c13f 5ea7 fd3f 7414 e7bd 4bde 95be

fc1.bias f4 [120]
0.080189236 0.28910774 -0.083791815 0.029573241 -0.12690324 0.13473102 -0.012543545 -0.09482075
0.074699715 0.08465546 -0.18191431 0.03581995 -0.13235012 0.07068049 0.031126928 -0.026015619
0.08995736 0.09264886 0.108537264 -0.25068775 -0.14932948 0.14102931 0.087048754 -0.22141719
-0.13132407 0.32362145 0.21651587 -0.026280824 -0.16879673 -0.22263163 -0.20547752 -0.15765356
0.20949276 -0.1366267 0.21187817 -0.11096971 0.14650205 0.15037875 -0.14087975 -0.16597885
0.17974752 -0.078487314 0.16592719 -0.007832889 -0.14965704 0.2611229 -0.18464829 0.093678795
-0.057593476 -0.01400292 0.20394884 -0.032076094 0.09181277 0.19544783 0.063315265 0.0059949537
-0.29968682 -0.19933766 -0.2866985 0.0043617887 0.17319852 -0.11194388 -0.1527219 -0.04482234
-0.13808163 -0.23997787 0.08953489 0.29015112 0.03273704 -0.32524413 -0.077499084 0.23669493
0.0018661515 -0.23144946 -0.00092874333 0.15368252 0.01174088 -0.073812656 0.27062485 0.17307152
0.1014112 -0.11341585 0.09305144 0.14194728 -0.07421608 -0.29525846 0.36073214 0.24192505
0.018947221 -0.060703132 -0.28787383 -0.2585701 -0.14092565 0.14176843 -0.10249274 0.105680265
0.027289618 0.13807409 0.014273713 0.19678393 -0.16115741 -0.32189155 -0.060279828 0.0024475257
0.025323052 -0.22249688 -0.16234934 -0.027098197 -0.050953556 0.26612556 0.03881131 0.10647916
0.08731315 -0.19939794 0.15467055 -0.04780973 0.10652956 0.031091213 0.21880291 0.03138925
00000000: 413a a43d ee05 943e 0b9b abbd 9543 f23c
00000010: ecf2 01be eef6 093e 7183 4dbc 6231 c2bd
00000020: 2afc 983d d85f ad3d bf47 3abe f1b7 123d
00000030: ca86 07be efc0 903d e6fd fe3c b51e d5bc
00000040: 903b b83d afbe bd3d c948 de3d 255a 80be
00000050: d4e9 18be fd69 103e 9e46 b23d 30bb 62be
00000060: d179 06be b6b1 a53e 56b6 5d3e e24a d7bc
00000070: 0dd9 2cbe 8cf9 63be b368 52be ef6f 21be
00000080: 4585 563e dfe7 0bbe 97f6 583e 1644 e3bd
00000090: a204 163e e3fc 193e c842 10be 5cf6 29be
000000a0: bc0f 383e f5bd a0bd d1e8 293e 8555 00bc
000000b0: b23f 19be e7b1 853e 7114 3dbe abda bf3d
000000c0: 23e7 6bbd 816c 65bc f7d7 503e 3962 03bd
000000d0: 5508 bc3d 7a23 483e 6fab 813d 5171 c43b
000000e0: 8d70 99be 2c1f 4cbe 25ca 92be 56ed 8e3b
000000f0: f45a 313e d542 e5bd 2163 1cbe a197 37bd
00000100: 4565 0dbe c2bc 75be 125e b73d b08e 943e
00000110: 4617 063d 6686 a6be d7b7 9ebd 2860 723e
00000120: a799 f43a 1601 6dbe e976 73ba f35e 1d3e
00000130: d25c 403c 172b 97bd 578f 8a3e a939 313e
00000140: adb0 cf3d 9246 e8bd c191 be3d a15a 113e
00000150: 9afe 97bd 1e2c 97be e2b1 b83e 33bb 773e
00000160: 3437 9b3c d9a3 78bd 3364 93be 4d63 84be
00000170: d04e 10be be2b 113e b7e7 d1bd e56e d83d
00000180: 7a8e df3c 4b63 0d3e 4bdc 693c ba81 493e
00000190: 7306 25be f8ce a4be fbe7 76bd ab66 203b
000001a0: 4a72 cf3c 39d6 63be e83e 26be 0afd ddbc
000001b0: adb4 50bd 9c41 883e 9cf8 1e3d bf11 da3d
000001c0: 3dd1 b23d f92e 4cbe f561 1e3e 23d4 43bd
000001d0: 2c2c da3d 00b3 fe3c df0d 603e 0492 003d

fc2.weight f4 [84, 120]
0.135083 0.08119551 -0.13605593 0.09135985 1.377438 -0.09157341 0.07663319 0.026852429
-0.034714967 0.1846365 0.39572763 0.09280716 0.15912895 -0.14191432 0.07592646 -0.17117597
-0.017429901 0.046263136 -0.04940399 0.10370791 0.8144328 -0.052624606 0.062373813 -0.04281273
0.11838527 -0.037711523 -0.016675888 0.605906 -0.08260765 0.093066685 0.15372483 0.106931314
0.15642355 0.17426871 0.048489682 0.15848716 -0.100728534 0.029590417 0.08600957 0.027540758
0.089328974 0.11258154 0.070556 0.044895712 -0.10007477 0.032073937 -0.14181978 0.012288702
0.14378244 -0.0283074 -0.08152927 -0.18364966 0.7196811 0.061063007 -0.16339412 0.046237998
0.10551851 -0.13251665 -0.073032916 0.10346162 0.049665123 -0.072656825 0.01765633 -0.685173
0.03289313 -0.015367755 -0.0009658034 -0.052743733 0.15484151 0.17824893 0.022292752 -0.095485866
-0.19750388 0.081334844 0.5140199 0.05706704 0.1656319 -0.09746141 0.029953271 -0.13027208
0.33284682 0.07662343 0.11219775 -0.05282388 0.018317157 0.09851646 -0.16011813 -0.084402576
-0.34997955 0.09045658 0.48011446 0.087083556 -0.111421056 0.40013644 0.021008134 0.06633697
0.12954324 0.12122661 0.049963504 0.060001824 -0.01551389 -0.0038794118 -0.019413196 0.09453981
-0.10427231 -0.24500494 -0.0670943 -0.1630306 0.049943723 -0.15975712 0.06962491 0.06595655
-0.008991828 -0.044558458 -0.35643625 -0.020381782 -0.038271938 0.17980629 -0.26750863 -0.0061923102
-0.7082151 0.2884181 -0.31276357 0.15753657 1.0732281 0.5035364 -1.2366171 -0.8663647
0.07140788 0.48507527 1.7886214 -0.05640224 0.022016108 -0.7926061 -0.08852711 -0.17653896
-0.65465134 -0.07026096 -0.21853031 -0.23042457 -0.1518727 0.023812007 -0.01581654 -0.085870914
0.17168635 0.5818605 -0.07994403 -1.4676452 -0.026986009 0.022364933 -2.7280395 -0.8037714
0.26147544 -0.09701238 0.022577621 1.0530967 -0.14230664 0.24649917 -0.8140483 -0.008494777
-1.1476287 0.297796 -0.11674089 -0.0026972368 -0.45309532 -0.0134281255 -1.3437047 -0.6806621
0.17869821 -0.117600635 0.095248505 -0.09298574 -0.395983 -0.012797405 -0.07712227 0.21191321
0.65924555 1.1766337 -0.13115342 0.046631992 -0.04398242 2.0732682 0.20498227 -1.0750711
0.5089933 -0.036148366 0.089177586 -0.14197703 0.8425833 -0.14910392 0.14579843 0.0069922484
-0.7714445 0.15245709 -0.015822003 -0.006854719 -0.53542894 0.17787705 -0.050849993 0.059868466
0.3042533 -0.078591846 0.40834638 -0.94593287 0.8217381 -0.045767423 0.47106338 -0.20786491
-0.06872768 0.1077347 -0.119969815 0.036761522 0.75953615 -0.39105588 -0.073438436 0.23809159
-1.3121476 -0.004493618 0.093979605 -0.846194 0.11384752 -0.0026440877 1.924741 0.08773345
0.35045478 -0.1088595 -0.11729837 0.8534694 -0.011189905 -0.23720914 0.1933149 -1.0475252
-0.18237461 -0.09002925 0.023593437 0.008011318 -0.49992144 -0.49791023 -0.009413055 -0.0613095
0.04033601 0.065307654 -0.24131592 0.047021486 -0.52621055 0.08695386 -0.02734174 0.09442386
-0.054586302 -0.16083235 -0.11141655 0.06516895 0.026560359 -0.101829045 -0.090387486 0.036854874
00000000: 3353 0a3e d549 a63d 3f52 0bbe df1a bb3d
00000010: e34f b03f d78a bbbd ddf1 9c3d a0f9 db3c
00000020: 4831 0ebd 5a11 3d3e d09c ca3e ae11 be3d
00000030: b3f2 223e fd51 11be 557f 9b3d c148 2fbe
00000040: 27c9 8ebc 6a7e 3d3d d75b 4abd d064 d43d
00000050: ab7e 503f e68c 57bd af7b 7f3d 675c 2fbd
00000060: fa73 f23d 6677 1abd df9b 88bc a81c 1b3f
00000070: 332e a9bd bf99 be3d 0b6a 1d3e cefe da3d
00000080: 7f2d 203e 7f73 323e 1e9d 463d 754a 223e
00000090: c34a cebd 9a67 f23c c925 b03d 289d e13c
000000a0: 1cf2 b63d 2791 e63d aa7f 903d 91e4 373d
000000b0: 00f4 ccbd f65f 033d 3439 11be 8d56 493c
000000c0: b43b 133e ece4 e7bc d1f8 a6bd a80e 3cbe
000000d0: 053d 383f 341d 7a3d ca50 27be 0e64 3d3d
000000e0: 171a d83d 72b2 07be 4892 95bd b0e3 d33d
000000f0: a86d 4b3d 1acd 94bd 02a4 903c 7f67 2fbf
00000100: f2ba 063d 09c9 7bbc f82d 7dba d009 58bd
00000110: c68e 1e3e e386 363e 4a9f b63c 188e c3bd
00000120: 753e 4abe e292 a63d cf96 033f 21bf 693d
00000130: 699b 293e d999 c7bd 9060 f53c 0b66 05be
00000140: e66a aa3e bfec 9c3d efc7 e53d da5d 58bd
00000150: dd0d 963c ffc2 c93d 02f6 23be 42db acbd
00000160: 8530 b3be 4d41 b93d 90d1 f53e dd58 b23d
00000170: b930 e4bd afde cc3e 4019 ac3c addb 873d
00000180: fca6 043e a845 f83d 88a6 4c3d 79c4 753d
00000190: f92d 7ebc bb3d 7ebb 6c08 9fbc 179e c13d
000001a0: b98c d5bd 93e2 7abe bd68 89bd 7ef1 26be
000001b0: ca91 4c3d 5f97 23be 8197 8e3d 3a14 873d
000001c0: 7652 13bc ee82 36bd d07e b6be b2f7 a6bc
000001d0: 09c3 1cbd 241f 383e e4f6 88be dde8 cabb
000001e0: 964d 35bf 8aab 933e 8c22 a0be 4451 213e
000001f0: 8a5f 893f c3e7 003f 7849 9ebf 14ca 5dbf
00000200: 4b3e 923d c95b f83e 8cf1 e43f 0906 67bd
00000210: 205b b43c 3ce8 4abf b44d b5bd a1c6 34be
00000220: 3b97 27bf fae4 8fbd 69c6 5fbe 6bf4 6bbe
00000230: 8484 1bbe 6611 c33c b091 81bc 17dd afbd
00000240: 8cce 2f3e cff4 143f b2b9 a3bd ccdb bbbf
00000250: c311 ddbc aa36 b73c 3398 2ec0 f6c3 4dbf
00000260: 1ce0 853e 6dae c6bd b4f4 b83c dfcb 863f
00000270: d5b8 11be 476a 7c3e 7865 50bf ad2d 0bbc
00000280: 7fe5 92bf b878 983e d915 efbd 20c4 30bb
00000290: 1cfc e7be a401 5cbc 84fe abbf df3f 2ebf
000002a0: aafc 363e 9ad8 f0bd a611 c33d 4f6f bebd
000002b0: 49be cabe 35ac 51bc 48f2 9dbd c7ff 583e
000002c0: 51c4 283f ef9b 963f 154d 06be 3001 3f3d
000002d0: e926 34bd 6db0 0440 dfe6 513e ee9b 89bf
000002e0: 634d 023f 4f10 14bd bda2 b63d 6d62 11be
000002f0: 8ab3 573f b3ae 18be 2f4c 153e 3b1f e53b
00000300: 637d 45bf b61d 1c3e 259d 81bc 8d9d e0bb
00000310: df11 09bf 6725 363e 1548 50bd a338 753d
00000320: 17c7 9b3e c3f4 a0bd c712 d13e a828 72bf
00000330: 6e5d 523f 9f76 3bbd 382f f13e 8ada 54be
00000340: 19c1 8cbd 03a4 dc3d bcb2 f5bd 4093 163d
00000350: f670 423f 7a38 c8be e466 96bd 48ce 733e
00000360: 74f4 a7bf 333f 93bb 6178 c03d 2ca0 58bf
00000370: e328 e93d 6e48 2dbb ea5d f63f 98ad b33d
00000380: cf6e b33e bbf1 debd 213a f0bd f87c 5a3f
00000390: dd55 37bc f4e6 72be 57f4 453e 4e15 86bf
000003a0: 69c0 3abe 4161 b8bd 0647 c13c e741 033c
000003b0: b4f5 ffbe 17ee febe 3739 1abc ac1f 7bbd
000003c0: 5f37 253d 05c0 853d 851b 77be 9a99 403d
000003d0: bcb5 06bf de14 b23d c9fb dfbc 4c61 c13d
000003e0: e395 5fbd 3cb1 24be 5c2e e4bd 4c77 853d
000003f0: 1c95 d93c bf8b d0bd 131d b9bd 23f5 163d

fc2.bias f4 [84]
0.0116312485 0.024183773 -0.048497055 0.078971736 -0.07338835 0.00038897822 0.08605364 -0.015253373
-0.09028812 0.058158953 0.04244637 0.0788443 -0.035335474 0.027869213 0.05921698 0.07630227
-0.11138923 0.019578 -0.014490541 0.009617312 0.1129782 -0.09810859 -0.07375769 -0.110141225
-0.0099101905 -0.006470349 -0.046392817 -0.021498024 0.087161064 0.03298428 -0.11540887 0.047494378
0.031731404 -0.036512002 0.02186927 -0.030738503 0.04149381 -0.03240805 -0.019183462 0.11218393
-0.016355159 -0.0033518851 0.02402068 -0.024651194 -0.011979358 -0.0059980443 -0.011296595 -0.0784255
0.11963095 -0.045296602 0.08561168 -0.016071586 -0.024242185 0.039043028 -0.0022790509 0.005171309
0.03869339 -0.006925927 0.08884467 -0.052791394 -0.14033754 -0.12167362 -0.040364843 -0.033830065
0.05496576 0.15025565 0.0130927395 -0.07180146 0.07362213 -0.08033812 -0.081312984 0.0043489514
-0.1199172 -0.06221077 -0.016019927 -0.10596857 0.13279185 0.0242589 0.009991801 0.10659135
0.090446785 0.028002437 0.041764896 0.009847646
00000000: fe90 3e3c 0c1d c63c d9a4 46bd efbb a13d
00000010: a24c 96bd c6ef cb39 e43c b03d 49e9 79bc
00000020: fae8 b8bd 1538 6e3d 3fdc 2d3d 1f79 a13d
00000030: eebb 10bd fa4d e43c 818d 723d 5d44 9c3d
00000040: 0920 e4bd 0b62 a03c bc69 6dbc ee91 1d3c
00000050: 1d61 e73d 28ed c8bd 460e 97bd b991 e1bd
00000060: 5a5e 22bc 3905 d4bb 6506 3ebd a01c b0bc
00000070: 8081 b23d 861a 073d 7c5b ecbd 7789 423d
00000080: caf8 013d 9c8d 15bd 2f27 b33c 50cf fbbc
00000090: 6af5 293d 4ebe 04bd a326 9dbc b0c0 e53d
000000a0: 41fb 85bc 4dab 5bbb 04c7 c43c 4df1 c9bc
000000b0: 1245 44bc 3e8b c4bb 5b15 39bc 8c9d a0bd
000000c0: 1201 f53d ee88 39bd 2d55 af3d 8fa8 83bc
000000d0: 8c97 c6bc 95eb 1f3d 215c 15bb 1674 a93b
000000e0: f67c 1e3d e3f2 e2bb 32f4 b53d ca3b 58bd
000000f0: a5b4 0fbe 0530 f9bd 9b55 25bd 6591 0abd
00000100: c723 613d 9edc 193e ee82 563c a50c 93bd
00000110: 33c7 963d 5088 a4bd 6c87 a6bd a681 8e3b
00000120: 2697 f5bd b8d0 7ebd 393c 83bc 0d06 d9bd
00000130: 96fa 073e 9aba c63c a7b4 233c 914c da3d
00000140: 2a3c b93d 5e65 e53c ab11 2b3d 0558 213c

fc3.weight f4 [6, 84]
0.010046062 0.12702486 0.14070788 -0.043851614 0.1083823 -0.53715324 0.02283414 -0.26261583
-0.06168102 -0.036605928 0.15617956 0.025431031 -0.03758026 -0.00059232855 0.10052938 0.12282377
0.13183108 0.009304256 -0.21808217 0.067296214 0.1717576 -0.011793238 0.16744122 -0.029132783
-0.16022788 -0.11058501 0.15108414 -0.05550166 -0.5934715 -0.56437224 -0.11900235 0.06741477
-0.016938524 0.2046159 0.15375572 -0.28326115 -0.11546133 -0.027471151 -0.97751004 -0.37662756
0.014194355 -0.16939539 -0.3706901 0.04113011 0.03881873 0.013410507 0.29898742 -0.022308644
-0.2281233 -0.5277323 -0.040841214 -0.09328564 0.12023295 0.06997513 0.24134721 -0.08113073
0.31263822 -0.071580194 0.03302859 0.049649697 -0.028754486 0.009860794 -0.11130924 -0.27435404
0.0015201013 0.10187284 0.23002496 -0.053864155 0.5001105 0.059225593 0.6471208 0.9066458
0.051691737 -0.12829943 -0.10394132 -0.15537004 -0.014314373 -0.1618965 0.029279824 0.0873498
-0.018530399 -0.087446295 -0.35058886 -0.072871484 -0.07850272 0.18300201 -0.16432619 -0.122221805
0.20708682 -0.108558655 0.4702977 0.1537901 -0.14668816 0.2019621 0.27462012 -0.042209074
-0.044875454 0.020597091 -0.12073185 0.060835447 0.1848846 0.25406942 -0.019670228 -0.029858854
0.0023618576 -0.32667387 0.043549053 0.3968726 0.1733148 0.35934985 -0.11252277 1.3537643
0.1677055 -0.08763567 0.27264786 -0.20416676 -0.2760726 0.3617921 0.62117845 0.08333449
0.27316886 0.16437246 0.09260546 0.20035386 -0.18217331 -0.13502564 0.32880613 -0.13377427
-0.12771364 0.7542362 -1.221523 -0.3428496 0.36279643 -0.3784942 0.24570799 -0.09974191
0.0661769 0.18164837 0.04464175 -0.10711792 -0.21998404 -0.16672349 -0.07452525 -0.8744268
-0.10055376 -0.02719336 -0.12579578 0.23171937 -0.30206773 -0.22571328 -0.3556471 0.17694734
-0.15513028 -0.12727459 -0.021109957 -0.18409263 -0.15675405 0.24633147 -0.02414336 -0.11877588
-0.06790921 -0.19024982 -0.2007254 -0.042670842 -0.09161579 -0.11714047 0.078533396 0.1702739
-0.11415606 -0.00044731083 -0.017962947 0.3934246 -0.16171893 0.25432476 -0.47546765 0.12768747
-0.07992558 -0.12443415 -0.10156537 -0.05208264 0.15140428 -0.1976686 -0.055243358 0.10546769
-0.1681282 -0.07743453 -0.008108553 0.30678964 -0.22392905 -0.03353117 -0.039025288 -0.10060819
-0.20226401 -0.16767387 0.16312921 -0.981642 0.5614415 0.7631345 -0.26985702 0.017882036
0.03541669 0.012728602 -0.30243123 0.36175188 -0.13389061 -0.14995489 0.60610795 -0.042295072
0.12557493 0.41819277 -0.35716423 0.027535945 0.15719663 0.4056323 -0.030621426 0.037652593
0.23343594 -1.1668901 -0.23268217 0.30955565 0.09370332 -0.16120622 0.09920582 0.13633004
0.3442948 -0.12751216 -0.12072023 0.3710273 0.03785756 -0.024763905 -0.09806078 -0.2400893
-0.05587031 -0.13770534 0.637617 0.1256825 -0.011158693 -0.15644257 -0.046220127 -0.32831442
0.009603308 -0.049293794 0.005384171 -0.032948438 0.045464575 0.08562925 0.1124429 0.26143864
0.10618843 -0.24160808 -0.3995086 0.19102424 0.0721753 -0.58242273 0.119228385 -0.36014125
00000000: 3d98 243c ce12 023e ba15 103e c09d 33bd
00000010: 8af7 dd3d e082 09bf aa0e bb3c 9575 86be
00000020: 3da5 7cbd 19f0 15bd 89ed 1f3e bd54 d03c
00000030: c2ed 19bd 7f46 1bba 59e2 cd3d 078b fb3d
00000040: bafe 063e e170 183c ef50 5fbe 99d2 893d
00000050: 39e1 2f3e 6d38 41bc b675 2b3e e0a7 eebc
00000060: c712 24be 657a e2bd cdb5 1a3e b555 63bd
00000070: c0ed 17bf b37a 10bf 81b7 f3bd c110 8a3d
00000080: a9c2 8abc d586 513e 2472 1d3e 9b07 91be
00000090: fd76 ecbd 2e0b e1bc 193e 7abf 54d5 c0be
000000a0: 718f 683c fc75 2dbe 18cb bdbe 0c78 283d
000000b0: 6300 1f3d beb7 5b3c e114 993e 9ec0 b6bc
000000c0: 2899 69be 7719 07bf 1e49 27bd 8b0c bfbd
000000d0: b13c f63d 1f4f 8f3d b923 773e de27 a6bd
000000e0: 1e12 a03e a398 92bd fd48 073d 7b5d 4b3d
000000f0: 878e ebbc 2b8f 213c 19f6 e3bd 2278 8cbe
00000100: 233e c73a b5a2 d03d aa8b 6b3e a9a0 5cbd
00000110: 3e07 003f 8996 723d b5a9 253f f019 683f
00000120: b7ba 533d ed60 03be 30df d4bd 5319 1fbe
00000130: d586 6abc 32c8 25be 3edc ef3c 74e4 b23d
00000140: 10cd 97bc 0b17 b3bd 6280 b3be a53d 95bd
00000150: 09c6 a0bd e164 3b3e 2045 28be 6d4f fabd
00000160: 910e 543e 0054 debd dcca f03e 277b 1d3e
00000170: 6c35 16be 27cf 4e3e 029b 8c3e 6ce3 2cbd
00000180: 53cf 37bd 3bbb a83c 4342 f7bd 972e 793d
00000190: 6352 3d3e 6315 823e 7523 a1bc 8e9a f4bc
000001a0: 65c9 1a3b cc41 a7be 7e60 323d e332 cb3e
000001b0: 6f79 313e b4fc b73e 5772 e6bd 2648 ad3f
000001c0: feba 2b3e 557a b3bd 8098 8b3e 1711 51be
000001d0: 6359 8dbe d03c b93e 8d05 1f3f 46ab aa3d
000001e0: cadc 8b3e 4151 283e eea7 bd3d 9029 4d3e
000001f0: a48b 3abe 2944 0abe 4759 a83e 1ffc 08be
00000200: 5dc7 02be a015 413f de5a 9cbf fc89 afbe
00000210: 74c0 b93e fec9 c1be e09a 7b3e 7d45 ccbd
00000220: c187 873d 0802 3a3e 45da 363d a460 dbbd
00000230: 7f43 61be 90b9 2abe b2a0 98bd 6fda 5fbf
00000240: 21ef cdbd 9cc4 debc 9cd0 00be d847 6d3e
00000250: 9fa8 9abe 6221 67be 6017 b6be af31 353e
00000260: 79da 1ebe 4554 02be caee acbc c782 3cbe
00000270: 2284 20be 513e 7c3e 4cc8 c5bc c540 f3bd
00000280: fc13 8bbd d9d0 42be f68a 4dbe 9fc7 2ebd
00000290: 0fa1 bbbd 58e7 efbd 1ed6 a03d 485c 2e3e
000002a0: a7ca e9bd 0b85 eab9 0827 93bc f36e c93e
000002b0: a699 25be db36 823e 7f70 f3be 81c0 023e
000002c0: 06b0 a3bd 55d7 febd 8101 d0bd 9b54 55bd
000002d0: b909 1b3e a369 4abe dc46 62bd 72ff d73d
000002e0: cd29 2cbe ff95 9ebd bcd9 04bc 8813 9d3e
000002f0: a84d 65be fb57 09bd fbd8 1fbd ab0b cebd
00000300: 4c1e 4fbe b3b2 2bbe 580b 273e e44c 7bbf
00000310: a1ba 0f3f c85c 433f b32a 8abe 597d 923c
00000320: 1711 113d a08b 503c 44d8 9abe 8b37 b93e
00000330: 9f1a 09be c68d 19be e429 1b3f 993d 2dbd
00000340: b796 003e 5d1d d63e 3bde b6be 1093 e13c
00000350: 27f8 203e 09af cf3e c9d9 fabc 9b39 1a3d
00000360: d509 6f3e a85c 95bf 3c44 6ebe 147e 9e3e
00000370: 87e7 bf3d 3e13 25be 6c2c cb3d 1a9a 0b3e
00000380: 6847 b03e 8c92 02be 2b3c f7bd 4af7 bd3e
00000390: 8710 1b3d acdd cabc 17d4 c8bd f8d9 75be
000003a0: 44d8 64bd a102 0dbe de3a 233f eab2 003e
000003b0: f3d2 36bc 7b32 20be 5151 3dbd d418 a8be
000003c0: 3157 1d3c 4ae8 49bd b36d b03b f1f4 06bd
000003d0: 1039 3a3d 635e af3d 7748 e63d 49db 853e
000003e0: 5279 d93d 1c68 77be 648c ccbe dc9b 433e
000003f0: a5d0 933d a819 15bf 032e f43d 6f64 b8be

fc3.bias f4 [6]
0.011300302 -0.012196517 0.114607 0.057017256 0.13268967 -0.056309547
00000000: e724 393c e6d3 47bc 13b7 ea3d ed8a 693d
00000010: cddf 073e d7a4 66bd
