Shuffled LIAR/TunedModels/roberta/roberta-large/NNetwork/Tanh_MSE_adam4645.pth (torch_old, 3774 bytes, 6 tensors)

fc1.weight f4 [24, 12]
0	0x40304c3b	2.7546527
1	0xc0535c00	-3.3024902
2	0xc092255a	-4.5670595
3	0x40403580	3.0032654
4	0xc00ce3fb	-2.2014148
5	0xbf710b64	-0.94158006
6	0x3e0a8b2b	0.13529651
7	0x3e363e91	0.17797305
8	0x3e1f5304	0.15559012
9	0x3d1953f8	0.037433594
10	0x3e87a795	0.26495042
11	0xbdbd5abf	-0.09245824
12	0xbf246614	-0.6421826
13	0x40400eca	3.0009027
14	0xbfc88a46	-1.5667198
15	0x4030506f	2.7549093
16	0x3f823d4d	1.0174958
17	0xbfc58b6d	-1.5433174
18	0x3df741ed	0.12073121
19	0xbd8547b7	-0.06507819
20	0xbe3d9691	-0.18514468
21	0x3e120218	0.14258611
22	0xbe7711a8	-0.24127829
23	0x3e1b901c	0.15191692
24	0xc0944afe	-4.6341543
25	0xc00a4418	-2.160406
26	0xc08e8d1b	-4.454725
27	0xc0911aa4	-4.534502
28	0xbf5f4303	-0.87211627
29	0xc077c489	-3.8713706
30	0x3d2f6060	0.04281652
31	0x3e83e0c8	0.25757432
32	0xbddf05a3	-0.10889747
33	0x3defd6f2	0.117109194
34	0xbcce5900	-0.025188923
35	0xbdb99e39	-0.09063382
36	0x404f271d	3.2367623
37	0x3f8d1b83	1.1024021
38	0xc0a02702	-5.0047617
39	0x3f8e0005	1.1093756
40	0xbf5499e9	-0.8304735
41	0xc076eb35	-3.858106
42	0x3ddb410b	0.10705765
43	0xbdfaf095	-0.12252919
44	0xbe077cb2	-0.13231161
45	0xbe0f6ef0	-0.14007163
46	0x3bc08bf4	0.0058760587
47	0x3da6cfc3	0.08145096
48	0xbeb71b20	-0.35762882
49	0x401a1879	2.4077437
50	0xbf521014	-0.82055783
51	0x3f1d2a1e	0.6139239
52	0x3f3be1a4	0.73391175
53	0x3f572d34	0.8405335
54	0xbdebd938	-0.115160406
55	0xbe5df563	-0.21675639
56	0x3e76c96c	0.24100274
57	0x3e11be6c	0.14232796
58	0x3d98e2dd	0.07465146
59	0x3e2bc85a	0.16775647
60	0xbffcce38	-1.9750433
61	0x3e9334e0	0.28751278
62	0x3e366117	0.17810474
63	0xbc149050	-0.00906761
64	0xbfbe58e6	-1.487088
65	0x404d5777	3.2084634
66	0x3cf8f665	0.030390928
67	0xbdfc8c9b	-0.12331506
68	0xbc5e7f49	-0.013580152
69	0x3c8bf064	0.0170824
70	0xbddc1230	-0.107456565
71	0x3e43ae76	0.1910952
72	0xc0062b01	-2.0963748
73	0xc0720704	-3.7816782
74	0xc06f987e	-3.7436824
75	0xc0898f43	-4.298738
76	0xc0996091	-4.793038
77	0xc0888647	-4.2663913
78	0xbddec320	-0.10877061
79	0x3dbc841a	0.09204884
80	0xbeb4bad8	-0.352988
81	0x3dc9bb15	0.09850136
82	0xbebe4735	-0.37163702
83	0x3b634f7c	0.0034684828
84	0x4089048b	4.2818046
85	0x4057d890	3.372593
86	0x4081147e	4.0337515
87	0xc0678862	-3.6176991
88	0xbfc2ead8	-1.5227919
89	0xbf174ed2	-0.59104645
90	0x3e4158e8	0.18881571
91	0xbd707b1d	-0.05871116
92	0xbe44abfb	-0.1920623
93	0x3e72c25e	0.23706958
94	0x3e002ae5	0.12516363
95	0x3a923ff9	0.0011157981
96	0x3fce6b7f	1.6126555
97	0xbfa11867	-1.2585572
98	0x3fe4f9dd	1.7888752
99	0x402fa0e4	2.744195
100	0xc00e39ee	-2.2222857
101	0xc02b7f1a	-2.6796327
102	0x3e3dad19	0.18523063
103	0x3e223096	0.15838847
104	0xbdc16421	-0.09442926
105	0x3db78c52	0.08962311
106	0xbe80e159	-0.25171927
107	0x3cd31ba2	0.025770012
108	0x40a9c73f	5.305572
109	0x400d16ec	2.204524
110	0x407af1c4	3.9210062
111	0x40989ff6	4.7695265
112	0x409d31c0	4.912323
113	0x40a4800e	5.1406317
114	0x3d0ee7bb	0.034888964
115	0xbea41b34	-0.32052004
116	0xbb06a496	-0.0020544878
117	0x3e16cc5c	0.14726394
118	0x3e5a699d	0.21329351
119	0xbe2cc9ba	-0.16873828
120	0x3f0593e3	0.5217878
121	0x40792d5b	3.8933933
122	0xc039e6bd	-2.9047081
123	0xbe89549a	-0.26822358
124	0xc081b554	-4.053385
125	0xc0790bcd	-3.8913453
126	0x3d8f098e	0.06984244
127	0x3d3f8d75	0.046765763
128	0x3dda889f	0.1067059
129	0xbe260463	-0.16212611
130	0x3eb65c57	0.35617325
131	0xbe79406c	-0.24340981
132	0x400fb7b2	2.2455869
133	0x3ffa87ef	1.9572734
134	0x4083aa06	4.114505
135	0x406515de	3.5794597
136	0x40453eb0	3.0819511
137	0x401839cc	2.3785276
138	0x3ca55f36	0.020187002
139	0x3e0697bf	0.13143824
140	0x3d24e14b	0.04025392
141	0x3e11c63f	0.14235781
142	0x3cf651e7	0.030068351
143	0x3d8830ad	0.06649909
144	0x3fd31ed5	1.6493784
145	0x3fc69658	1.5514631
146	0xc0304ba7	-2.7546175
147	0xc03ef4de	-2.9836955
148	0xbfd2f487	-1.6480874
149	0x4027c878	2.6216106
150	0xbdafd3e0	-0.08585334
151	0x3dac30bf	0.08407735
152	0x3e1da7ff	0.15396117
153	0x3e8ee160	0.27906322
154	0x3d9bc9ff	0.07606887
155	0x3e3749ef	0.17899297
156	0x403d21c0	2.955185
157	0x4021b8ae	2.526897
158	0x406abf1b	3.6679142
159	0x3e87c3dd	0.2651662
160	0x4001996a	2.0249887
161	0x402652aa	2.5987954
162	0xbe1f4514	-0.15553695
163	0x3d697250	0.056993783
164	0x3db66ee9	0.08907873
165	0xbe77ef55	-0.24212392
166	0x3d5cbb73	0.053889703
167	0x3e09d3ab	0.13459651
168	0xc033001b	-2.7968814
169	0x40202729	2.5023901
170	0x3fec4ef7	1.8461598
171	0x40801b0e	4.0033026
172	0xc03defc8	-2.96776
173	0x40958e38	4.6736107
174	0x3e802f12	0.25035912
175	0xbdee67d3	-0.11640897
176	0xbdcfedd6	-0.101527855
177	0x3e53b5ca	0.20674816
178	0xbd913c44	-0.07091573
179	0xbc9cd703	-0.019145494
180	0x3f02b96e	0.51064193
181	0x40a7c91d	5.2433
182	0xbff50a5e	-1.9143789
183	0x3fb96fff	1.4487303
184	0x405559f6	3.3336158
185	0x40a5bec1	5.1795354
186	0xbdf94fd7	-0.12173431
187	0x3e3dfcc9	0.18553461
188	0xbe214fc2	-0.15753081
189	0xbe05cc49	-0.1306621
190	0xbe166d7b	-0.14690201
191	0xbe9004c4	-0.28128636
192	0xc0515f9d	-3.2714608
193	0x3edb5082	0.4283486
194	0xc04b925e	-3.1808085
195	0xc0017cdd	-2.023246
196	0x4038ec11	2.8894083
197	0xc01be9e8	-2.4361515
198	0xbdabc050	-0.0838629
199	0xbdffc551	-0.12488807
200	0xbd02e730	-0.03195876
201	0xbe32c721	-0.17458774
202	0x3e20493f	0.15652941
203	0xbdb09c9e	-0.08623622
204	0x40a03a76	5.0071363
205	0x40482bc6	3.1276717
206	0x4096212f	4.6915507
207	0x402ff71c	2.7494574
208	0x40b296f8	5.580929
209	0x40a75c2d	5.230002
210	0x3e9577ae	0.2919287
211	0xbd3db3c0	-0.046314
212	0xbe8f8650	-0.2803216
213	0x3e31baf2	0.1735647
214	0x3d862083	0.0654917
215	0x3ea77bc9	0.32711628
216	0xc0a66b70	-5.200615
217	0x4030b4b1	2.7610285
218	0x404591ea	3.087031
219	0xbf90828f	-1.1289843
220	0xc0809e3a	-4.019315
221	0xbe9c4a51	-0.3052545
222	0xbe45658f	-0.19277023
223	0xbdbe0ad7	-0.09279411
224	0xbe41e1e8	-0.18933833
225	0xbe91c884	-0.28473294
226	0xbda5c0e6	-0.08093433
227	0xbdea26df	-0.11433195
228	0xbf676271	-0.90384585
229	0xc01109a2	-2.266213
230	0xbfd6918f	-1.6763171
231	0xbf9f86e0	-1.2463036
232	0x3f7c3a4e	0.98526466
233	0xbb7432bf	-0.0037261692
234	0x3e5ee026	0.21765193
235	0x3de6d09c	0.11270258
236	0x3d8bd6f8	0.068281114
237	0xbb24307f	-0.002505332
238	0x3bf97363	0.007612632
239	0xbea7afde	-0.32751364
240	0x409d161c	4.908949
241	0x40b3a185	5.6134667
242	0x40acdb62	5.40178
243	0x40987402	4.764161
244	0x40803511	4.006478
245	0x403dcd06	2.9656386
246	0xbdf277fa	-0.1183929
247	0x3e68fc30	0.22752452
248	0x3e0f199c	0.13974613
249	0x3d011db5	0.03152247
250	0xbb53f2e2	-0.0032340814
251	0xbd6eb07b	-0.058273774
252	0xc044f37e	-3.0773616
253	0x405be30d	3.435733
254	0x4058cf80	3.3876648
255	0x408750fe	4.2286367

fc1.bias f4 [24]
0	0xbe391385	-0.18073852
1	0x3da6926d	0.08133397
2	0xbe55158e	-0.20809004
3	0x3e23b7a1	0.15988018
4	0x3d072748	0.032996446
5	0xbd53d591	-0.051717345
6	0x3e1cc581	0.15309717
7	0x3a34847d	0.00068861974
8	0x3d95f7c1	0.07322646
9	0x3d055524	0.0325519
10	0xbdb3d55f	-0.08780932
11	0xbe4ae7c6	-0.19814977
12	0xbe848592	-0.25883156
13	0xbe180761	-0.14846565
14	0x3e0f2ed1	0.13982703
15	0x3e021bd0	0.12705922
16	0x3d98f81d	0.07469199
17	0x3c700d72	0.014651643
18	0x3e137a1a	0.14402047
19	0x3e6ef968	0.23337328
20	0xbc97e86b	-0.018543443
21	0x3cf0e969	0.029408174
22	0xbd5be68f	-0.053686675
23	0xbdf3382f	-0.118759505

fc2.weight f4 [12, 24]
0	0xbe563a8a	-0.20920768
1	0x3e5d3ffc	0.2160644
2	0x3eb03017	0.3441169
3	0xbe9fb04a	-0.31189185
4	0x3ebc241e	0.36746305
5	0x3e6a86bf	0.22902964
6	0xbe5cf5f5	-0.215782
7	0x3e4aa4a3	0.19789366
8	0xbedd4e1e	-0.4322366
9	0xbe21507c	-0.15753359
10	0x3ee754c2	0.45181853
11	0xbe074a71	-0.13211991
12	0x3f33b292	0.7019435
13	0xbf6271a5	-0.8845466
14	0x3f0479ba	0.5174824
15	0x3f6fbc60	0.9364681
16	0x3ed9b45a	0.4252041
17	0xbe3733c8	-0.17890847
18	0x3ece5a4c	0.40303266
19	0xbe058012	-0.13037136
20	0x40031acb	2.0485103
21	0x3e6a3b85	0.22874267
22	0xbe12f8e8	-0.14352763
23	0x3e1eaa71	0.15494706
24	0x3f44e74e	0.7691544
25	0xc02787d9	-2.6176665
26	0x3f17e7ab	0.5933787
27	0xc00be489	-2.1858237
28	0xbe8afa63	-0.27144155
29	0x3fa8eb26	1.3196762
30	0x400cf7fa	2.2026353
31	0xbf47a8ee	-0.7799214
32	0xbf68c49f	-0.9092502
33	0xc010ce73	-2.2626007
34	0xbf5fedc3	-0.8747217
35	0xc026261a	-2.5960755
36	0x3fd69ba1	1.6766244
37	0xbfebb42c	-1.8414359
38	0x403b4d2b	2.926585
39	0x3e7f0d83	0.24907498
40	0xbf2e19a8	-0.680079
41	0xc0198aba	-2.3990922
42	0x3f66feb6	0.9023241
43	0x3f2abfb2	0.66698754
44	0xc08ce086	-4.4024076
45	0xc050231a	-3.2521424
46	0x3f0bc0c6	0.54591024
47	0x3dba8e50	0.09109175
48	0xc004fd96	-2.0779777
49	0xbfa5045b	-1.2891954
50	0xbfc33563	-1.5250667
51	0xbf91928a	-1.1372845
52	0xbda50510	-0.08057606
53	0xbdb44f4a	-0.08804186
54	0xbf83de89	-1.0302287
55	0x402289d9	2.5396636
56	0xbf14d47a	-0.58136714
57	0x3fd1039a	1.6329224
58	0xbee00574	-0.4375416
59	0x3fce3a66	1.6111572
60	0x3eb20ed0	0.34776926
61	0x4075d964	3.8413935
62	0xbf7f86bd	-0.9981497
63	0x3f512a62	0.81705296
64	0xbf658ce0	-0.89668083
65	0x40348b68	2.8210087
66	0xbe64bd24	-0.22337776
67	0xbed60ac2	-0.41805083
68	0x40826ccf	4.0757823
69	0x3e8c30af	0.27380893
70	0xbf229ecc	-0.63523555
71	0xbf0f52a7	-0.5598549
72	0xbf25e3c5	-0.64800674
73	0xbf79ba99	-0.9755035
74	0x3f119ddd	0.56881505
75	0xbf332a2d	-0.6998623
76	0xbe9d86bb	-0.30766854
77	0x3e01b1f4	0.1266554
78	0xbeb2e8c1	-0.34943202
79	0x3ea6aedc	0.32555282
80	0x3f017f2f	0.5058469
81	0xbe92d414	-0.28677428
82	0x3da5457f	0.08069896
83	0x3f26d0c4	0.651623
84	0xbe8eafc1	-0.27868465
85	0x3f3b325c	0.7312372
86	0xbec37b23	-0.38179883
87	0xbf46775c	-0.7752588
88	0x3e9283c4	0.28616154
89	0xbea720fb	-0.3264235
90	0x3f60cf0e	0.8781594
91	0x3d8a8599	0.06763763
92	0xbfec6e07	-1.8471078
93	0x3f10da19	0.5658279
94	0x3f1287d1	0.5723849
95	0x3eb34525	0.3501369
96	0xbe400dcd	-0.18755265
97	0x3f82488b	1.0178388
98	0x3e1fa6ae	0.15590927
99	0xbea60970	-0.32429075
100	0x3f0dcc06	0.5538944
101	0x3e6dda1b	0.23227732
102	0xc05f89bb	-3.4927814
103	0xbfd9adf7	-1.7006215
104	0xc042bd6d	-3.0428116
105	0x405931e2	3.3936696
106	0xc013c651	-2.3089793
107	0x3fe856a7	1.8151444
108	0x3f85b381	1.0445405
109	0x3facc682	1.349808
110	0x3ebd7c20	0.37008762
111	0x405e25e3	3.4710624
112	0x4007f955	2.124593
113	0x4080a09f	4.019607
114	0xc003c427	-2.0588472
115	0x3eef4618	0.46733165
116	0x3f7c01f8	0.98440504
117	0x400f4e56	2.2391562
118	0xbebd6d0a	-0.36997253
119	0xbefb2210	-0.49049425
120	0xbc81bea3	-0.015837973
121	0xbde44a09	-0.111469336
122	0x3f6495ac	0.8929088
123	0x3d0de718	0.034644216
124	0x3ddb5647	0.107098155
125	0xbd1aa466	-0.03775444
126	0xbf2610cf	-0.648694
127	0xbcc57cf5	-0.024107436
128	0xbd9b3e76	-0.07580273
129	0x3ebf991a	0.37421495
130	0xbd9564d1	-0.0729462
131	0xbd891d5f	-0.06695055
132	0xbd831e60	-0.06402278
133	0x3c292a67	0.010325051
134	0x3db270a8	0.08712894
135	0x3ddb0b56	0.106955215
136	0xbcc9842b	-0.024599155
137	0x3f01d091	0.5070887
138	0x3cab3580	0.020899534
139	0x3dec7440	0.115456104
140	0xbf9dd47d	-1.2330471
141	0xbdc420e9	-0.095765896
142	0xbc17bc45	-0.009261196
143	0xbdac8679	-0.08424086
144	0x40125947	2.286699
145	0xbdab6c68	-0.08370286
146	0xc08e0ce3	-4.439073
147	0xbf96e1ef	-1.17877
148	0xbee7a5cf	-0.4524369
149	0xbe6b1c26	-0.22959957
150	0xc04d49ae	-3.207622
151	0xbfeac751	-1.8342077
152	0x402adaec	2.669612
153	0x408f4717	4.477428
154	0xc030577d	-2.7553399
155	0x40988430	4.766136
156	0xc0114f6c	-2.2704725
157	0x3fc987e7	1.5744599
158	0x4030f1a0	2.7647476
159	0xbfec9dac	-1.8485618
160	0xc00570d0	-2.0850105
161	0x403a9dd7	2.9158838
162	0xc01b4b21	-2.4264605
163	0xbdcc020d	-0.09961329
164	0x3f3dc464	0.74127793
165	0x3f9d6a4d	1.2298065
166	0x3f18b730	0.5965452
167	0xbefe2673	-0.4963871
168	0xc0132f1f	-2.299751
169	0xc00e7fd6	-2.2265525
170	0x403f0e50	2.9852486
171	0xbfe9ee11	-1.8275777
172	0xbf09a237	-0.53763145
173	0xbf220744	-0.63292336
174	0x40354afc	2.8327017
175	0xbe2ddd01	-0.16978838
176	0xbf259f9a	-0.6469666
177	0xc03fdf85	-2.9980175
178	0xc00b9bff	-2.1813962
179	0xbfcde962	-1.6086848
180	0xbfdb1aaf	-1.7117518
181	0xbfa2aed0	-1.2709599
182	0xc06870a1	-3.6318743
183	0xc04bf441	-3.186783
184	0x401a192c	2.4077864
185	0xbff50684	-1.9142613
186	0xbeff6bf8	-0.4988706
187	0x3fa13ae1	1.2596093
188	0xc051a12e	-3.2754626
189	0x3f887b62	1.0662653
190	0x3e239d85	0.15978058
191	0x3f1ccf3a	0.612537
192	0x3fd22f44	1.6420674
193	0xc039e96f	-2.9048727
194	0x3ffb3206	1.9624641
195	0x3fd76034	1.6826234
196	0xbefa7bdd	-0.48922625
197	0xbec8a33b	-0.39187035
198	0x400ca2b9	2.1974318
199	0x3f9e7a66	1.2381103
200	0xbeb25bdf	-0.34835717
201	0xbf9227e8	-1.1418428
202	0xbddbb7ca	-0.10728414
203	0xc028aa4a	-2.6353936
204	0x3f9ba0be	1.215843
205	0xbfc18a52	-1.5120337
206	0xc04c7cfb	-3.1951282
207	0xbfd8700c	-1.6909194
208	0xbc8bde21	-0.017073693
209	0xbf08c2d0	-0.5342226
210	0xc00b6067	-2.177759
211	0x3f4b49dd	0.7940958
212	0xc084a8cf	-4.1456065
213	0xc071569e	-3.7709117
214	0xbeebd514	-0.46061003
215	0xbeb5e0eb	-0.3552316
216	0xbf49a6c4	-0.7877009
217	0xbf965a85	-1.1746374
218	0xbeaeb87a	-0.3412512
219	0xbdef3bf0	-0.11681354
220	0xbaf62cff	-0.001878172
221	0xbe34f731	-0.17672421
222	0x3e289d2d	0.16466208
223	0x3e803b0c	0.2504505
224	0xbebb7068	-0.36609197
225	0x3e7d9bc4	0.24766451
226	0x3c431f58	0.011909328
227	0xbf1ea692	-0.61972916
228	0x3f0f0171	0.55861574
229	0x3ee3e192	0.44508034
230	0xbe9d64fc	-0.30741107
231	0x3d59b578	0.053151578
232	0xbf1a889a	-0.6036469
233	0x3f1ec8ad	0.62024957
234	0xbe98920e	-0.2979893
235	0x3cc9b1eb	0.02462097
236	0x3faeb1e9	1.3648044
237	0xbf87a83f	-1.059822
238	0xbef31a47	-0.47480986
239	0xbdbb6da3	-0.09151771
240	0xc006feac	-2.109294
241	0xbfdc6375	-1.7217852
242	0xc0074e3c	-2.11415
243	0xc00e30a6	-2.2217193
244	0x3d3e6c29	0.04648987
245	0x3f37d390	0.71807194
246	0xbf8def8b	-1.1088728
247	0x3fcbebdc	1.5931354
248	0xbebd1601	-0.3693085
249	0x3fb2250c	1.3917556
250	0xbf1cd1ce	-0.61257637
251	0x3fde7487	1.7379311
252	0x3ce14e0c	0.027503036
253	0x4068a44d	3.6350281
254	0x401d0f0b	2.4540431
255	0x3f98846b	1.1915411

fc2.bias f4 [12]
0	0x3d9b7951	0.07591499
1	0xbdca6326	-0.09882192
2	0xbe52a2d8	-0.20569932
3	0xbc237ab1	-0.009977982
4	0xbd10b615	-0.035329897
5	0x3e17cba5	0.14823778
6	0x3eac813e	0.33692354
7	0x3e272144	0.16321284
8	0xbe44fe47	-0.19237624
9	0x3d2ac590	0.041692317
10	0x3d50972f	0.05092543
11	0xbda1b578	-0.078959405

fc3.weight f4 [6, 12]
0	0xbf8590bf	-1.0434798
1	0xbf3a691d	-0.7281664
2	0x3f844ca8	1.0335894
3	0xbfa77a0b	-1.308412
4	0xbf4167b1	-0.75548846
5	0xbf2e8b6a	-0.6818148
6	0x3ed3aed9	0.41344336
7	0xbf79703b	-0.97436875
8	0x400d6b84	2.2096872
9	0x3f022e94	0.5085232
10	0xbf085df8	-0.53268385
11	0x3f23f5b8	0.6404681
12	0x3fad5f59	1.3544723
13	0xbf27e358	-0.65581274
14	0x3e5de580	0.21669579
15	0xbcf67a8a	-0.030087728
16	0xbecb46ea	-0.3970254
17	0xbf0e6de5	-0.55636436
18	0xc03cfe94	-2.9530382
19	0xbf909011	-1.1293966
20	0xbf8d8f2b	-1.1059316
21	0xbe86b5b7	-0.26310512
22	0xbe14ab74	-0.14518529
23	0x3f9e827c	1.2383571
24	0x3d57e40e	0.052707724
25	0xbe8b9217	-0.27259895
26	0x3f6bce08	0.92111254
27	0x400070f1	2.0068934
28	0xc00628b7	-2.096235
29	0xbf0fe0bd	-0.562023
30	0x3f51cbdf	0.8195171
31	0x3fbacb16	1.4593227
32	0xbf3cb6eb	-0.7371661
33	0x3ed77fda	0.4208973
34	0x3fd8d7e5	1.6940886
35	0xbf28277d	-0.65685254
36	0xbe620276	-0.22071251
37	0xbef37616	-0.4755103
38	0xc01b07ff	-2.422363
39	0xbe506f50	-0.20354962
40	0xbf2dfce6	-0.6796402
41	0xbe78d8a3	-0.2430139
42	0x3fc72464	1.555798
43	0xbf83b19a	-1.0288575
44	0xbf995858	-1.1980085
45	0xbf728832	-0.9473907
46	0xbfb19527	-1.3873643
47	0xbf50531d	-0.8137682
48	0xbdecf30c	-0.11569795
49	0xbfa39c1a	-1.2782013
50	0xbdad9c3d	-0.08477066
51	0xbecb3e3b	-0.39695916
52	0x40236eeb	2.553645
53	0x3f7605ab	0.961024
54	0xbe605e88	-0.21911061
55	0x4016bc07	2.3552263
56	0x3ec6bf8e	0.3881802
57	0xbd4a9953	-0.049462628
58	0xbf32886d	-0.6973942
59	0xbde0ef37	-0.109831266
60	0x3c070906	0.008241897
61	0x40599f06	3.400331
62	0xbeda5225	-0.42640796
63	0x3b16ad06	0.0022991314
64	0x3fcfb09b	1.6225771
65	0x3f86af29	1.0522205
66	0x3e705387	0.23469363
67	0xbf35827e	-0.7090224
68	0x3f2ec892	0.68274796
69	0x3ec70032	0.38867337
70	0x3fd1f170	1.6401806
71	0xbdd51811	-0.10404981

fc3.bias f4 [6]
0	0x3d907b62	0.070547834
1	0x3f0ad62d	0.54233056
2	0x3b23dd7b	0.0025003839
3	0x3ef19a47	0.47188017
4	0x3d5acf62	0.053420432
5	0x3ea63192	0.32459694
